{"class_name": "Functional", "config": {"name": "model_1635", "layers": [{"class_name": "InputLayer", "config": {"batch_input_shape": [null, 299, 299, 3], "dtype": "float32", "sparse": false, "ragged": false, "name": "input_215"}, "name": "input_215", "inbound_nodes": []}, {"class_name": "Conv2D", "config": {"name": "block1_conv1", "trainable": true, "dtype": "float32", "filters": 32, "kernel_size": [3, 3], "strides": [2, 2], "padding": "valid", "data_format": "channels_last", "dilation_rate": [1, 1], "groups": 1, "activation": "linear", "use_bias": false, "kernel_initializer": {"class_name": "VarianceScaling", "config": {"scale": 1.0, "mode": "fan_avg", "distribution": "uniform", "seed": null}}, "bias_initializer": {"class_name": "Zeros", "config": {}}, "kernel_regularizer": null, "bias_regularizer": null, "activity_regularizer": null, "kernel_constraint": null, "bias_constraint": null}, "name": "block1_conv1", "inbound_nodes": [[["input_215", 0, 0, {}]]]}, {"class_name": "Conv2D", "config": {"name": "conv2d_1177_insert", "trainable": true, "dtype": "float32", "filters": 1, "kernel_size": [1, 1], "strides": [2, 2], "padding": "same", "data_format": "channels_last", "dilation_rate": [1, 1], "groups": 1, "activation": "linear", "use_bias": false, "kernel_initializer": {"class_name": "VarianceScaling", "config": {"scale": 1.0, "mode": "fan_avg", "distribution": "uniform", "seed": null}}, "bias_initializer": {"class_name": "Zeros", "config": {}}, "kernel_regularizer": null, "bias_regularizer": null, "activity_regularizer": null, "kernel_constraint": null, "bias_constraint": null}, "name": "conv2d_1177_insert", "inbound_nodes": [[["block1_conv1", 0, 0, {}]]]}, {"class_name": "Conv2D", "config": {"name": "conv2d_1179_insert", "trainable": true, "dtype": "float32", "filters": 4, "kernel_size": [3, 3], "strides": [1, 1], "padding": "valid", "data_format": "channels_last", "dilation_rate": [1, 1], "groups": 1, "activation": "linear", "use_bias": false, "kernel_initializer": {"class_name": "VarianceScaling", "config": {"scale": 1.0, "mode": "fan_avg", "distribution": "uniform", "seed": null}}, "bias_initializer": {"class_name": "Zeros", "config": {}}, "kernel_regularizer": null, "bias_regularizer": null, "activity_regularizer": null, "kernel_constraint": null, "bias_constraint": null}, "name": "conv2d_1179_insert", "inbound_nodes": [[["conv2d_1177_insert", 0, 0, {}]]]}, {"class_name": "BatchNormalization", "config": {"name": "batch_normalization_465_insert", "trainable": true, "dtype": "float32", "axis": [3], "momentum": 0.99, "epsilon": 0.001, "center": true, "scale": true, "beta_initializer": {"class_name": "Zeros", "config": {}}, "gamma_initializer": {"class_name": "Ones", "config": {}}, "moving_mean_initializer": {"class_name": "Zeros", "config": {}}, "moving_variance_initializer": {"class_name": "Ones", "config": {}}, "beta_regularizer": null, "gamma_regularizer": null, "beta_constraint": null, "gamma_constraint": null}, "name": "batch_normalization_465_insert", "inbound_nodes": [[["conv2d_1179_insert", 0, 0, {}]]]}, {"class_name": "SeparableConv2D", "config": {"name": "separable_conv2d_33_insert", "trainable": true, "dtype": "float32", "filters": 6, "kernel_size": [3, 3], "strides": [1, 1], "padding": "same", "data_format": "channels_last", "dilation_rate": [1, 1], "groups": 1, "activation": "linear", "use_bias": false, "kernel_initializer": {"class_name": "GlorotUniform", "config": {"seed": null}}, "bias_initializer": {"class_name": "Zeros", "config": {}, "shared_object_id": 17}, "kernel_regularizer": null, "bias_regularizer": null, "activity_regularizer": null, "kernel_constraint": null, "bias_constraint": null, "depth_multiplier": 1, "depthwise_initializer": {"class_name": "VarianceScaling", "config": {"scale": 1.0, "mode": "fan_avg", "distribution": "uniform", "seed": null}}, "pointwise_initializer": {"class_name": "VarianceScaling", "config": {"scale": 1.0, "mode": "fan_avg", "distribution": "uniform", "seed": null}}, "depthwise_regularizer": null, "pointwise_regularizer": null, "depthwise_constraint": null, "pointwise_constraint": null}, "name": "separable_conv2d_33_insert", "inbound_nodes": [[["batch_normalization_465_insert", 0, 0, {}]]]}, {"class_name": "MaxPooling2D", "config": {"name": "max_pooling2d_391_insert", "trainable": true, "dtype": "float32", "pool_size": [3, 3], "padding": "same", "strides": [2, 2], "data_format": "channels_last"}, "name": "max_pooling2d_391_insert", "inbound_nodes": [[["separable_conv2d_33_insert", 0, 0, {}]]]}, {"class_name": "GlobalAveragePooling2D", "config": {"name": "global_average_pooling2d_371_insert", "trainable": true, "dtype": "float32", "data_format": "channels_last", "keepdims": false}, "name": "global_average_pooling2d_371_insert", "inbound_nodes": [[["max_pooling2d_391_insert", 0, 0, {}]]]}, {"class_name": "CustomExpandLayer", "config": {"name": "custom_expand_layer_362", "trainable": true, "dtype": "float32", "axis": 1}, "name": "custom_expand_layer_362", "inbound_nodes": [[["global_average_pooling2d_371_insert", 0, 0, {}]]]}, {"class_name": "CustomExpandLayer", "config": {"name": "custom_expand_layer_363", "trainable": true, "dtype": "float32", "axis": 1}, "name": "custom_expand_layer_363", "inbound_nodes": [[["custom_expand_layer_362", 0, 0, {}]]]}, {"class_name": "CustomPadLayer", "config": {"name": "custom_pad_layer_152", "trainable": true, "dtype": "float32", "padding": [[7, 7], [3, 3], [5, 6]], "constant_values": 2}, "name": "custom_pad_layer_152", "inbound_nodes": [[["custom_expand_layer_363", 0, 0, {}]]]}, {"class_name": "SeparableConv2D", "config": {"name": "separable_conv2d_35_insert", "trainable": true, "dtype": "float32", "filters": 1, "kernel_size": [3, 3], "strides": [1, 1], "padding": "same", "data_format": "channels_last", "dilation_rate": [1, 1], "groups": 1, "activation": "linear", "use_bias": false, "kernel_initializer": {"class_name": "GlorotUniform", "config": {"seed": null}}, "bias_initializer": {"class_name": "Zeros", "config": {}, "shared_object_id": 27}, "kernel_regularizer": null, "bias_regularizer": null, "activity_regularizer": null, "kernel_constraint": null, "bias_constraint": null, "depth_multiplier": 1, "depthwise_initializer": {"class_name": "VarianceScaling", "config": {"scale": 1.0, "mode": "fan_avg", "distribution": "uniform", "seed": null}}, "pointwise_initializer": {"class_name": "VarianceScaling", "config": {"scale": 1.0, "mode": "fan_avg", "distribution": "uniform", "seed": null}}, "depthwise_regularizer": null, "pointwise_regularizer": null, "depthwise_constraint": null, "pointwise_constraint": null}, "name": "separable_conv2d_35_insert", "inbound_nodes": [[["custom_pad_layer_152", 0, 0, {}]]]}, {"class_name": "CustomPadLayer", "config": {"name": "custom_pad_layer_153", "trainable": true, "dtype": "float32", "padding": [[2, 2], [6, 6], [3, 3]], "constant_values": 2}, "name": "custom_pad_layer_153", "inbound_nodes": [[["separable_conv2d_35_insert", 0, 0, {}]]]}, {"class_name": "SeparableConv2D", "config": {"name": "separable_conv2d_37_insert", "trainable": true, "dtype": "float32", "filters": 7, "kernel_size": [3, 3], "strides": [1, 1], "padding": "same", "data_format": "channels_last", "dilation_rate": [1, 1], "groups": 1, "activation": "linear", "use_bias": false, "kernel_initializer": {"class_name": "GlorotUniform", "config": {"seed": null}}, "bias_initializer": {"class_name": "Zeros", "config": {}, "shared_object_id": 33}, "kernel_regularizer": null, "bias_regularizer": null, "activity_regularizer": null, "kernel_constraint": null, "bias_constraint": null, "depth_multiplier": 1, "depthwise_initializer": {"class_name": "VarianceScaling", "config": {"scale": 1.0, "mode": "fan_avg", "distribution": "uniform", "seed": null}}, "pointwise_initializer": {"class_name": "VarianceScaling", "config": {"scale": 1.0, "mode": "fan_avg", "distribution": "uniform", "seed": null}}, "depthwise_regularizer": null, "pointwise_regularizer": null, "depthwise_constraint": null, "pointwise_constraint": null}, "name": "separable_conv2d_37_insert", "inbound_nodes": [[["custom_pad_layer_153", 0, 0, {}]]]}, {"class_name": "CustomPadLayer", "config": {"name": "custom_pad_layer_154", "trainable": true, "dtype": "float32", "padding": [[0, 0], [0, 0], [0, 1]], "constant_values": 2}, "name": "custom_pad_layer_154", "inbound_nodes": [[["separable_conv2d_37_insert", 0, 0, {}]]]}, {"class_name": "CustomCropLayer", "config": {"name": "custom_crop_layer_114", "trainable": true, "dtype": "float32", "cropping": [[0, 1], [4, 4], [0, 0]]}, "name": "custom_crop_layer_114", "inbound_nodes": [[["custom_pad_layer_154", 0, 0, {}]]]}, {"class_name": "BatchNormalization", "config": {"name": "batch_normalization_467_insert_1", "trainable": true, "dtype": "float32", "axis": [3], "momentum": 0.99, "epsilon": 0.001, "center": true, "scale": true, "beta_initializer": {"class_name": "Zeros", "config": {}}, "gamma_initializer": {"class_name": "Ones", "config": {}}, "moving_mean_initializer": {"class_name": "Zeros", "config": {}}, "moving_variance_initializer": {"class_name": "Ones", "config": {}}, "beta_regularizer": null, "gamma_regularizer": null, "beta_constraint": null, "gamma_constraint": null}, "name": "batch_normalization_467_insert_1", "inbound_nodes": [[["custom_crop_layer_114", 0, 0, {}]]]}, {"class_name": "CustomPadLayer", "config": {"name": "custom_pad_layer_155", "trainable": true, "dtype": "float32", "padding": [[0, 0], [3, 4], [0, 0]], "constant_values": 2}, "name": "custom_pad_layer_155", "inbound_nodes": [[["batch_normalization_467_insert_1", 0, 0, {}]]]}, {"class_name": "CustomCropLayer", "config": {"name": "custom_crop_layer_115", "trainable": true, "dtype": "float32", "cropping": [[6, 7], [0, 0], [0, 0]]}, "name": "custom_crop_layer_115", "inbound_nodes": [[["custom_pad_layer_155", 0, 0, {}]]]}, {"class_name": "SeparableConv2D", "config": {"name": "separable_conv2d_39_insert", "trainable": true, "dtype": "float32", "filters": 3, "kernel_size": [3, 3], "strides": [1, 1], "padding": "same", "data_format": "channels_last", "dilation_rate": [1, 1], "groups": 1, "activation": "linear", "use_bias": false, "kernel_initializer": {"class_name": "GlorotUniform", "config": {"seed": null}}, "bias_initializer": {"class_name": "Zeros", "config": {}, "shared_object_id": 47}, "kernel_regularizer": null, "bias_regularizer": null, "activity_regularizer": null, "kernel_constraint": null, "bias_constraint": null, "depth_multiplier": 1, "depthwise_initializer": {"class_name": "VarianceScaling", "config": {"scale": 1.0, "mode": "fan_avg", "distribution": "uniform", "seed": null}}, "pointwise_initializer": {"class_name": "VarianceScaling", "config": {"scale": 1.0, "mode": "fan_avg", "distribution": "uniform", "seed": null}}, "depthwise_regularizer": null, "pointwise_regularizer": null, "depthwise_constraint": null, "pointwise_constraint": null}, "name": "separable_conv2d_39_insert", "inbound_nodes": [[["custom_crop_layer_115", 0, 0, {}]]]}, {"class_name": "CustomPadLayer", "config": {"name": "custom_pad_layer_156", "trainable": true, "dtype": "float32", "padding": [[4, 4], [0, 0], [2, 3]], "constant_values": 2}, "name": "custom_pad_layer_156", "inbound_nodes": [[["separable_conv2d_39_insert", 0, 0, {}]]]}, {"class_name": "CustomCropLayer", "config": {"name": "custom_crop_layer_116", "trainable": true, "dtype": "float32", "cropping": [[0, 0], [6, 7], [0, 0]]}, "name": "custom_crop_layer_116", "inbound_nodes": [[["custom_pad_layer_156", 0, 0, {}]]]}, {"class_name": "Conv2D", "config": {"name": "conv2d_1181_insert", "trainable": true, "dtype": "float32", "filters": 9, "kernel_size": [3, 3], "strides": [1, 1], "padding": "valid", "data_format": "channels_last", "dilation_rate": [1, 1], "groups": 1, "activation": "linear", "use_bias": false, "kernel_initializer": {"class_name": "VarianceScaling", "config": {"scale": 1.0, "mode": "fan_avg", "distribution": "uniform", "seed": null}}, "bias_initializer": {"class_name": "Zeros", "config": {}}, "kernel_regularizer": null, "bias_regularizer": null, "activity_regularizer": null, "kernel_constraint": null, "bias_constraint": null}, "name": "conv2d_1181_insert", "inbound_nodes": [[["custom_crop_layer_116", 0, 0, {}]]]}, {"class_name": "CustomPadLayer", "config": {"name": "custom_pad_layer_157", "trainable": true, "dtype": "float32", "padding": [[0, 0], [2, 2], [0, 0]], "constant_values": 2}, "name": "custom_pad_layer_157", "inbound_nodes": [[["conv2d_1181_insert", 0, 0, {}]]]}, {"class_name": "CustomCropLayer", "config": {"name": "custom_crop_layer_117", "trainable": true, "dtype": "float32", "cropping": [[2, 3], [0, 0], [0, 0]]}, "name": "custom_crop_layer_117", "inbound_nodes": [[["custom_pad_layer_157", 0, 0, {}]]]}, {"class_name": "Conv2D", "config": {"name": "conv2d_1183_insert", "trainable": true, "dtype": "float32", "filters": 9, "kernel_size": [1, 1], "strides": [2, 2], "padding": "same", "data_format": "channels_last", "dilation_rate": [1, 1], "groups": 1, "activation": "linear", "use_bias": false, "kernel_initializer": {"class_name": "VarianceScaling", "config": {"scale": 1.0, "mode": "fan_avg", "distribution": "uniform", "seed": null}}, "bias_initializer": {"class_name": "Zeros", "config": {}}, "kernel_regularizer": null, "bias_regularizer": null, "activity_regularizer": null, "kernel_constraint": null, "bias_constraint": null}, "name": "conv2d_1183_insert", "inbound_nodes": [[["custom_crop_layer_117", 0, 0, {}]]]}, {"class_name": "CustomPadLayer", "config": {"name": "custom_pad_layer_158", "trainable": true, "dtype": "float32", "padding": [[4, 4], [1, 1], [0, 1]], "constant_values": 2}, "name": "custom_pad_layer_158", "inbound_nodes": [[["conv2d_1183_insert", 0, 0, {}]]]}, {"class_name": "MaxPooling2D", "config": {"name": "max_pooling2d_393_insert", "trainable": true, "dtype": "float32", "pool_size": [3, 3], "padding": "same", "strides": [2, 2], "data_format": "channels_last"}, "name": "max_pooling2d_393_insert", "inbound_nodes": [[["custom_pad_layer_158", 0, 0, {}]]]}, {"class_name": "CustomPadLayer", "config": {"name": "custom_pad_layer_159", "trainable": true, "dtype": "float32", "padding": [[3, 4], [1, 2], [4, 5]], "constant_values": 2}, "name": "custom_pad_layer_159", "inbound_nodes": [[["max_pooling2d_393_insert", 0, 0, {}]]]}, {"class_name": "SeparableConv2D", "config": {"name": "separable_conv2d_41_insert", "trainable": true, "dtype": "float32", "filters": 9, "kernel_size": [3, 3], "strides": [1, 1], "padding": "same", "data_format": "channels_last", "dilation_rate": [1, 1], "groups": 1, "activation": "linear", "use_bias": false, "kernel_initializer": {"class_name": "GlorotUniform", "config": {"seed": null}}, "bias_initializer": {"class_name": "Zeros", "config": {}, "shared_object_id": 65}, "kernel_regularizer": null, "bias_regularizer": null, "activity_regularizer": null, "kernel_constraint": null, "bias_constraint": null, "depth_multiplier": 1, "depthwise_initializer": {"class_name": "VarianceScaling", "config": {"scale": 1.0, "mode": "fan_avg", "distribution": "uniform", "seed": null}}, "pointwise_initializer": {"class_name": "VarianceScaling", "config": {"scale": 1.0, "mode": "fan_avg", "distribution": "uniform", "seed": null}}, "depthwise_regularizer": null, "pointwise_regularizer": null, "depthwise_constraint": null, "pointwise_constraint": null}, "name": "separable_conv2d_41_insert", "inbound_nodes": [[["custom_pad_layer_159", 0, 0, {}]]]}, {"class_name": "CustomPadLayer", "config": {"name": "custom_pad_layer_160", "trainable": true, "dtype": "float32", "padding": [[0, 0], [4, 4], [0, 1]], "constant_values": 2}, "name": "custom_pad_layer_160", "inbound_nodes": [[["separable_conv2d_41_insert", 0, 0, {}]]]}, {"class_name": "CustomCropLayer", "config": {"name": "custom_crop_layer_118", "trainable": true, "dtype": "float32", "cropping": [[2, 3], [0, 0], [0, 0]]}, "name": "custom_crop_layer_118", "inbound_nodes": [[["custom_pad_layer_160", 0, 0, {}]]]}, {"class_name": "MaxPooling2D", "config": {"name": "max_pooling2d_395_insert_1", "trainable": true, "dtype": "float32", "pool_size": [3, 3], "padding": "same", "strides": [2, 2], "data_format": "channels_last"}, "name": "max_pooling2d_395_insert_1", "inbound_nodes": [[["custom_crop_layer_118", 0, 0, {}]]]}, {"class_name": "CustomPadLayer", "config": {"name": "custom_pad_layer_161", "trainable": true, "dtype": "float32", "padding": [[5, 6], [2, 3], [0, 0]], "constant_values": 2}, "name": "custom_pad_layer_161", "inbound_nodes": [[["max_pooling2d_395_insert_1", 0, 0, {}]]]}, {"class_name": "BatchNormalization", "config": {"name": "batch_normalization_469_insert_merge1", "trainable": true, "dtype": "float32", "axis": [3], "momentum": 0.99, "epsilon": 0.001, "center": true, "scale": true, "beta_initializer": {"class_name": "Zeros", "config": {}}, "gamma_initializer": {"class_name": "Ones", "config": {}}, "moving_mean_initializer": {"class_name": "Zeros", "config": {}}, "moving_variance_initializer": {"class_name": "Ones", "config": {}}, "beta_regularizer": null, "gamma_regularizer": null, "beta_constraint": null, "gamma_constraint": null}, "name": "batch_normalization_469_insert_merge1", "inbound_nodes": [[["custom_pad_layer_161", 0, 0, {}]]]}, {"class_name": "Add", "config": {"name": "add_8_copy_ML", "trainable": true, "dtype": "float32"}, "name": "add_8_copy_ML", "inbound_nodes": [[["batch_normalization_469_insert_merge1", 0, 0, {}], ["custom_pad_layer_161", 0, 0, {}]]]}, {"class_name": "CustomCropLayer", "config": {"name": "custom_crop_layer_119", "trainable": true, "dtype": "float32", "cropping": [[3, 4], [2, 2], [1, 1]]}, "name": "custom_crop_layer_119", "inbound_nodes": [[["add_8_copy_ML", 0, 0, {}]]]}, {"class_name": "MaxPooling2D", "config": {"name": "max_pooling2d_397_insert", "trainable": true, "dtype": "float32", "pool_size": [3, 3], "padding": "same", "strides": [2, 2], "data_format": "channels_last"}, "name": "max_pooling2d_397_insert", "inbound_nodes": [[["custom_crop_layer_119", 0, 0, {}]]]}, {"class_name": "CustomPadLayer", "config": {"name": "custom_pad_layer_162", "trainable": true, "dtype": "float32", "padding": [[3, 4], [3, 4], [5, 5]], "constant_values": 2}, "name": "custom_pad_layer_162", "inbound_nodes": [[["max_pooling2d_397_insert", 0, 0, {}]]]}, {"class_name": "BatchNormalization", "config": {"name": "batch_normalization_471_insert", "trainable": true, "dtype": "float32", "axis": [3], "momentum": 0.99, "epsilon": 0.001, "center": true, "scale": true, "beta_initializer": {"class_name": "Zeros", "config": {}}, "gamma_initializer": {"class_name": "Ones", "config": {}}, "moving_mean_initializer": {"class_name": "Zeros", "config": {}}, "moving_variance_initializer": {"class_name": "Ones", "config": {}}, "beta_regularizer": null, "gamma_regularizer": null, "beta_constraint": null, "gamma_constraint": null}, "name": "batch_normalization_471_insert", "inbound_nodes": [[["custom_pad_layer_162", 0, 0, {}]]]}, {"class_name": "CustomPadLayer", "config": {"name": "custom_pad_layer_163", "trainable": true, "dtype": "float32", "padding": [[3, 3], [1, 2], [0, 0]], "constant_values": 2}, "name": "custom_pad_layer_163", "inbound_nodes": [[["batch_normalization_471_insert", 0, 0, {}]]]}, {"class_name": "CustomCropLayer", "config": {"name": "custom_crop_layer_120", "trainable": true, "dtype": "float32", "cropping": [[0, 0], [0, 0], [2, 3]]}, "name": "custom_crop_layer_120", "inbound_nodes": [[["custom_pad_layer_163", 0, 0, {}]]]}, {"class_name": "MaxPooling2D", "config": {"name": "max_pooling2d_395_insert_2", "trainable": true, "dtype": "float32", "pool_size": [3, 3], "padding": "same", "strides": [2, 2], "data_format": "channels_last"}, "name": "max_pooling2d_395_insert_2", "inbound_nodes": [[["batch_normalization_465_insert", 0, 0, {}]]]}, {"class_name": "BatchNormalization", "config": {"name": "batch_normalization_473_insert", "trainable": true, "dtype": "float32", "axis": [3], "momentum": 0.99, "epsilon": 0.001, "center": true, "scale": true, "beta_initializer": {"class_name": "Zeros", "config": {}}, "gamma_initializer": {"class_name": "Ones", "config": {}}, "moving_mean_initializer": {"class_name": "Zeros", "config": {}}, "moving_variance_initializer": {"class_name": "Ones", "config": {}}, "beta_regularizer": null, "gamma_regularizer": null, "beta_constraint": null, "gamma_constraint": null}, "name": "batch_normalization_473_insert", "inbound_nodes": [[["custom_crop_layer_120", 0, 0, {}]]]}, {"class_name": "Cropping2D", "config": {"name": "cropping2d_18", "trainable": true, "dtype": "float32", "cropping": [[13, 13], [13, 13]], "data_format": "channels_last"}, "name": "cropping2d_18", "inbound_nodes": [[["max_pooling2d_395_insert_2", 0, 0, {}]]]}, {"class_name": "BatchNormalization", "config": {"name": "batch_normalization_467_insert_2", "trainable": true, "dtype": "float32", "axis": [3], "momentum": 0.99, "epsilon": 0.001, "center": true, "scale": true, "beta_initializer": {"class_name": "Zeros", "config": {}}, "gamma_initializer": {"class_name": "Ones", "config": {}}, "moving_mean_initializer": {"class_name": "Zeros", "config": {}}, "moving_variance_initializer": {"class_name": "Ones", "config": {}}, "beta_regularizer": null, "gamma_regularizer": null, "beta_constraint": null, "gamma_constraint": null}, "name": "batch_normalization_467_insert_2", "inbound_nodes": [[["separable_conv2d_37_insert", 0, 0, {}]]]}], "input_layers": [["input_215", 0, 0]], "output_layers": [["batch_normalization_473_insert", 0, 0], ["cropping2d_18", 0, 0], ["batch_normalization_467_insert_2", 0, 0]]}, "keras_version": "2.7.0", "backend": "tensorflow"}