{"class_name": "Functional", "config": {"name": "model_4485", "layers": [{"class_name": "InputLayer", "config": {"batch_input_shape": [null, 299, 299, 3], "dtype": "float32", "sparse": false, "ragged": false, "name": "input_570"}, "name": "input_570", "inbound_nodes": []}, {"class_name": "Conv2D", "config": {"name": "conv2d_1_1", "trainable": true, "dtype": "float32", "filters": 32, "kernel_size": [3, 3], "strides": [2, 2], "padding": "valid", "data_format": "channels_last", "dilation_rate": [1, 1], "groups": 1, "activation": "linear", "use_bias": false, "kernel_initializer": {"class_name": "VarianceScaling", "config": {"scale": 1.0, "mode": "fan_avg", "distribution": "uniform", "seed": null}}, "bias_initializer": {"class_name": "Zeros", "config": {}}, "kernel_regularizer": null, "bias_regularizer": null, "activity_regularizer": null, "kernel_constraint": null, "bias_constraint": null}, "name": "conv2d_1_1", "inbound_nodes": [[["input_570", 0, 0, {}]]]}, {"class_name": "Conv2D", "config": {"name": "conv2d_2935_insert", "trainable": true, "dtype": "float32", "filters": 7, "kernel_size": [3, 3], "strides": [1, 1], "padding": "same", "data_format": "channels_last", "dilation_rate": [1, 1], "groups": 1, "activation": "linear", "use_bias": false, "kernel_initializer": {"class_name": "VarianceScaling", "config": {"scale": 1.0, "mode": "fan_avg", "distribution": "uniform", "seed": null}}, "bias_initializer": {"class_name": "Zeros", "config": {}}, "kernel_regularizer": null, "bias_regularizer": null, "activity_regularizer": null, "kernel_constraint": null, "bias_constraint": null}, "name": "conv2d_2935_insert", "inbound_nodes": [[["conv2d_1_1", 0, 0, {}]]]}, {"class_name": "Conv2D", "config": {"name": "conv2d_2937_insert", "trainable": true, "dtype": "float32", "filters": 4, "kernel_size": [3, 1], "strides": [1, 1], "padding": "same", "data_format": "channels_last", "dilation_rate": [1, 1], "groups": 1, "activation": "linear", "use_bias": false, "kernel_initializer": {"class_name": "VarianceScaling", "config": {"scale": 1.0, "mode": "fan_avg", "distribution": "uniform", "seed": null}}, "bias_initializer": {"class_name": "Zeros", "config": {}}, "kernel_regularizer": null, "bias_regularizer": null, "activity_regularizer": null, "kernel_constraint": null, "bias_constraint": null}, "name": "conv2d_2937_insert", "inbound_nodes": [[["conv2d_2935_insert", 0, 0, {}]]]}, {"class_name": "BatchNormalization", "config": {"name": "batch_normalization_1313_insert", "trainable": true, "dtype": "float32", "axis": [3], "momentum": 0.99, "epsilon": 0.001, "center": true, "scale": false, "beta_initializer": {"class_name": "Zeros", "config": {}}, "gamma_initializer": {"class_name": "Ones", "config": {}}, "moving_mean_initializer": {"class_name": "Zeros", "config": {}}, "moving_variance_initializer": {"class_name": "Ones", "config": {}}, "beta_regularizer": null, "gamma_regularizer": null, "beta_constraint": null, "gamma_constraint": null}, "name": "batch_normalization_1313_insert", "inbound_nodes": [[["conv2d_2937_insert", 0, 0, {}]]]}, {"class_name": "Conv2D", "config": {"name": "conv2d_2939_insert", "trainable": true, "dtype": "float32", "filters": 9, "kernel_size": [3, 3], "strides": [1, 1], "padding": "valid", "data_format": "channels_last", "dilation_rate": [1, 1], "groups": 1, "activation": "linear", "use_bias": false, "kernel_initializer": {"class_name": "VarianceScaling", "config": {"scale": 1.0, "mode": "fan_avg", "distribution": "uniform", "seed": null}}, "bias_initializer": {"class_name": "Zeros", "config": {}}, "kernel_regularizer": null, "bias_regularizer": null, "activity_regularizer": null, "kernel_constraint": null, "bias_constraint": null}, "name": "conv2d_2939_insert", "inbound_nodes": [[["batch_normalization_1313_insert", 0, 0, {}]]]}, {"class_name": "MaxPooling2D", "config": {"name": "max_pooling2d_1027_insert", "trainable": true, "dtype": "float32", "pool_size": [3, 3], "padding": "valid", "strides": [2, 2], "data_format": "channels_last"}, "name": "max_pooling2d_1027_insert", "inbound_nodes": [[["conv2d_2939_insert", 0, 0, {}]]]}, {"class_name": "AveragePooling2D", "config": {"name": "average_pooling2d_727_insert", "trainable": true, "dtype": "float32", "pool_size": [3, 3], "padding": "same", "strides": [1, 1], "data_format": "channels_last"}, "name": "average_pooling2d_727_insert", "inbound_nodes": [[["max_pooling2d_1027_insert", 0, 0, {}]]]}, {"class_name": "GlobalAveragePooling2D", "config": {"name": "global_average_pooling2d_945_insert", "trainable": true, "dtype": "float32", "data_format": "channels_last", "keepdims": false}, "name": "global_average_pooling2d_945_insert", "inbound_nodes": [[["average_pooling2d_727_insert", 0, 0, {}]]]}, {"class_name": "CustomExpandLayer", "config": {"name": "custom_expand_layer_976_insert", "trainable": true, "dtype": "float32", "axis": 1}, "name": "custom_expand_layer_976_insert", "inbound_nodes": [[["global_average_pooling2d_945_insert", 0, 0, {}]]]}, {"class_name": "CustomExpandLayer", "config": {"name": "custom_expand_layer_977_insert", "trainable": true, "dtype": "float32", "axis": 1}, "name": "custom_expand_layer_977_insert", "inbound_nodes": [[["custom_expand_layer_976_insert", 0, 0, {}]]]}, {"class_name": "Conv2D", "config": {"name": "conv2d_2941_insert", "trainable": true, "dtype": "float32", "filters": 6, "kernel_size": [1, 1], "strides": [1, 1], "padding": "same", "data_format": "channels_last", "dilation_rate": [1, 1], "groups": 1, "activation": "linear", "use_bias": false, "kernel_initializer": {"class_name": "VarianceScaling", "config": {"scale": 1.0, "mode": "fan_avg", "distribution": "uniform", "seed": null}}, "bias_initializer": {"class_name": "Zeros", "config": {}}, "kernel_regularizer": null, "bias_regularizer": null, "activity_regularizer": null, "kernel_constraint": null, "bias_constraint": null}, "name": "conv2d_2941_insert", "inbound_nodes": [[["custom_expand_layer_977_insert", 0, 0, {}]]]}, {"class_name": "Conv2D", "config": {"name": "conv2d_2943_insert", "trainable": true, "dtype": "float32", "filters": 1, "kernel_size": [1, 1], "strides": [1, 1], "padding": "valid", "data_format": "channels_last", "dilation_rate": [1, 1], "groups": 1, "activation": "linear", "use_bias": false, "kernel_initializer": {"class_name": "VarianceScaling", "config": {"scale": 1.0, "mode": "fan_avg", "distribution": "uniform", "seed": null}}, "bias_initializer": {"class_name": "Zeros", "config": {}}, "kernel_regularizer": null, "bias_regularizer": null, "activity_regularizer": null, "kernel_constraint": null, "bias_constraint": null}, "name": "conv2d_2943_insert", "inbound_nodes": [[["conv2d_2941_insert", 0, 0, {}]]]}, {"class_name": "Conv2D", "config": {"name": "conv2d_2945_insert_1", "trainable": true, "dtype": "float32", "filters": 9, "kernel_size": [1, 7], "strides": [1, 1], "padding": "same", "data_format": "channels_last", "dilation_rate": [1, 1], "groups": 1, "activation": "linear", "use_bias": false, "kernel_initializer": {"class_name": "VarianceScaling", "config": {"scale": 1.0, "mode": "fan_avg", "distribution": "uniform", "seed": null}}, "bias_initializer": {"class_name": "Zeros", "config": {}}, "kernel_regularizer": null, "bias_regularizer": null, "activity_regularizer": null, "kernel_constraint": null, "bias_constraint": null}, "name": "conv2d_2945_insert_1", "inbound_nodes": [[["conv2d_2943_insert", 0, 0, {}]]]}, {"class_name": "Conv2D", "config": {"name": "conv2d_2947_insert", "trainable": true, "dtype": "float32", "filters": 1, "kernel_size": [1, 3], "strides": [1, 1], "padding": "same", "data_format": "channels_last", "dilation_rate": [1, 1], "groups": 1, "activation": "linear", "use_bias": false, "kernel_initializer": {"class_name": "VarianceScaling", "config": {"scale": 1.0, "mode": "fan_avg", "distribution": "uniform", "seed": null}}, "bias_initializer": {"class_name": "Zeros", "config": {}}, "kernel_regularizer": null, "bias_regularizer": null, "activity_regularizer": null, "kernel_constraint": null, "bias_constraint": null}, "name": "conv2d_2947_insert", "inbound_nodes": [[["conv2d_2945_insert_1", 0, 0, {}]]]}, {"class_name": "Conv2D", "config": {"name": "conv2d_2949_insert", "trainable": true, "dtype": "float32", "filters": 6, "kernel_size": [5, 5], "strides": [1, 1], "padding": "same", "data_format": "channels_last", "dilation_rate": [1, 1], "groups": 1, "activation": "linear", "use_bias": false, "kernel_initializer": {"class_name": "VarianceScaling", "config": {"scale": 1.0, "mode": "fan_avg", "distribution": "uniform", "seed": null}}, "bias_initializer": {"class_name": "Zeros", "config": {}}, "kernel_regularizer": null, "bias_regularizer": null, "activity_regularizer": null, "kernel_constraint": null, "bias_constraint": null}, "name": "conv2d_2949_insert", "inbound_nodes": [[["conv2d_2947_insert", 0, 0, {}]]]}, {"class_name": "Conv2D", "config": {"name": "conv2d_2951_insert_merge1", "trainable": true, "dtype": "float32", "filters": 9, "kernel_size": [7, 1], "strides": [1, 1], "padding": "same", "data_format": "channels_last", "dilation_rate": [1, 1], "groups": 1, "activation": "linear", "use_bias": false, "kernel_initializer": {"class_name": "VarianceScaling", "config": {"scale": 1.0, "mode": "fan_avg", "distribution": "uniform", "seed": null}}, "bias_initializer": {"class_name": "Zeros", "config": {}}, "kernel_regularizer": null, "bias_regularizer": null, "activity_regularizer": null, "kernel_constraint": null, "bias_constraint": null}, "name": "conv2d_2951_insert_merge1", "inbound_nodes": [[["conv2d_2949_insert", 0, 0, {}]]]}, {"class_name": "Concatenate", "config": {"name": "concatenate_32_copy_ML", "trainable": true, "dtype": "float32", "axis": 3}, "name": "concatenate_32_copy_ML", "inbound_nodes": [[["conv2d_2951_insert_merge1", 0, 0, {}], ["custom_expand_layer_977_insert", 0, 0, {}]]]}, {"class_name": "CustomPadLayer", "config": {"name": "custom_pad_layer_585", "trainable": true, "dtype": "float32", "padding": [[8, 8], [2, 2], [4, 5]], "constant_values": 2}, "name": "custom_pad_layer_585", "inbound_nodes": [[["concatenate_32_copy_ML", 0, 0, {}]]]}, {"class_name": "MaxPooling2D", "config": {"name": "max_pooling2d_1029_insert", "trainable": true, "dtype": "float32", "pool_size": [3, 3], "padding": "valid", "strides": [2, 2], "data_format": "channels_last"}, "name": "max_pooling2d_1029_insert", "inbound_nodes": [[["custom_pad_layer_585", 0, 0, {}]]]}, {"class_name": "CustomPadLayer", "config": {"name": "custom_pad_layer_586", "trainable": true, "dtype": "float32", "padding": [[0, 1], [4, 4], [0, 0]], "constant_values": 2}, "name": "custom_pad_layer_586", "inbound_nodes": [[["max_pooling2d_1029_insert", 0, 0, {}]]]}, {"class_name": "AveragePooling2D", "config": {"name": "average_pooling2d_729_insert", "trainable": true, "dtype": "float32", "pool_size": [3, 3], "padding": "same", "strides": [1, 1], "data_format": "channels_last"}, "name": "average_pooling2d_729_insert", "inbound_nodes": [[["custom_pad_layer_586", 0, 0, {}]]]}, {"class_name": "CustomCropLayer", "config": {"name": "custom_crop_layer_441", "trainable": true, "dtype": "float32", "cropping": [[2, 2], [0, 1], [2, 3]]}, "name": "custom_crop_layer_441", "inbound_nodes": [[["average_pooling2d_729_insert", 0, 0, {}]]]}, {"class_name": "AveragePooling2D", "config": {"name": "average_pooling2d_731_insert", "trainable": true, "dtype": "float32", "pool_size": [3, 3], "padding": "same", "strides": [1, 1], "data_format": "channels_last"}, "name": "average_pooling2d_731_insert", "inbound_nodes": [[["custom_crop_layer_441", 0, 0, {}]]]}, {"class_name": "CustomPadLayer", "config": {"name": "custom_pad_layer_587", "trainable": true, "dtype": "float32", "padding": [[6, 6], [0, 0], [0, 1]], "constant_values": 2}, "name": "custom_pad_layer_587", "inbound_nodes": [[["average_pooling2d_731_insert", 0, 0, {}]]]}, {"class_name": "CustomCropLayer", "config": {"name": "custom_crop_layer_442", "trainable": true, "dtype": "float32", "cropping": [[0, 0], [1, 2], [0, 0]]}, "name": "custom_crop_layer_442", "inbound_nodes": [[["custom_pad_layer_587", 0, 0, {}]]]}, {"class_name": "AveragePooling2D", "config": {"name": "average_pooling2d_733_insert", "trainable": true, "dtype": "float32", "pool_size": [3, 3], "padding": "same", "strides": [1, 1], "data_format": "channels_last"}, "name": "average_pooling2d_733_insert", "inbound_nodes": [[["custom_crop_layer_442", 0, 0, {}]]]}, {"class_name": "CustomPadLayer", "config": {"name": "custom_pad_layer_588", "trainable": true, "dtype": "float32", "padding": [[0, 0], [1, 2], [0, 0]], "constant_values": 2}, "name": "custom_pad_layer_588", "inbound_nodes": [[["average_pooling2d_733_insert", 0, 0, {}]]]}, {"class_name": "CustomCropLayer", "config": {"name": "custom_crop_layer_443", "trainable": true, "dtype": "float32", "cropping": [[1, 2], [0, 0], [1, 2]]}, "name": "custom_crop_layer_443", "inbound_nodes": [[["custom_pad_layer_588", 0, 0, {}]]]}, {"class_name": "BatchNormalization", "config": {"name": "batch_normalization_1315_insert", "trainable": true, "dtype": "float32", "axis": [3], "momentum": 0.99, "epsilon": 0.001, "center": true, "scale": false, "beta_initializer": {"class_name": "Zeros", "config": {}}, "gamma_initializer": {"class_name": "Ones", "config": {}}, "moving_mean_initializer": {"class_name": "Zeros", "config": {}}, "moving_variance_initializer": {"class_name": "Ones", "config": {}}, "beta_regularizer": null, "gamma_regularizer": null, "beta_constraint": null, "gamma_constraint": null}, "name": "batch_normalization_1315_insert", "inbound_nodes": [[["custom_crop_layer_443", 0, 0, {}]]]}, {"class_name": "CustomPadLayer", "config": {"name": "custom_pad_layer_589", "trainable": true, "dtype": "float32", "padding": [[0, 0], [0, 0], [1, 2]], "constant_values": 2}, "name": "custom_pad_layer_589", "inbound_nodes": [[["batch_normalization_1315_insert", 0, 0, {}]]]}, {"class_name": "BatchNormalization", "config": {"name": "batch_normalization_1317_insert", "trainable": true, "dtype": "float32", "axis": [3], "momentum": 0.99, "epsilon": 0.001, "center": true, "scale": false, "beta_initializer": {"class_name": "Zeros", "config": {}}, "gamma_initializer": {"class_name": "Ones", "config": {}}, "moving_mean_initializer": {"class_name": "Zeros", "config": {}}, "moving_variance_initializer": {"class_name": "Ones", "config": {}}, "beta_regularizer": null, "gamma_regularizer": null, "beta_constraint": null, "gamma_constraint": null}, "name": "batch_normalization_1317_insert", "inbound_nodes": [[["custom_pad_layer_589", 0, 0, {}]]]}, {"class_name": "CustomCropLayer", "config": {"name": "custom_crop_layer_444", "trainable": true, "dtype": "float32", "cropping": [[0, 1], [1, 1], [4, 5]]}, "name": "custom_crop_layer_444", "inbound_nodes": [[["batch_normalization_1317_insert", 0, 0, {}]]]}, {"class_name": "MaxPooling2D", "config": {"name": "max_pooling2d_1031_insert", "trainable": true, "dtype": "float32", "pool_size": [3, 3], "padding": "valid", "strides": [2, 2], "data_format": "channels_last"}, "name": "max_pooling2d_1031_insert", "inbound_nodes": [[["custom_crop_layer_444", 0, 0, {}]]]}, {"class_name": "CustomPadLayer", "config": {"name": "custom_pad_layer_590", "trainable": true, "dtype": "float32", "padding": [[2, 2], [5, 5], [1, 2]], "constant_values": 2}, "name": "custom_pad_layer_590", "inbound_nodes": [[["max_pooling2d_1031_insert", 0, 0, {}]]]}, {"class_name": "AveragePooling2D", "config": {"name": "average_pooling2d_735_insert", "trainable": true, "dtype": "float32", "pool_size": [3, 3], "padding": "same", "strides": [1, 1], "data_format": "channels_last"}, "name": "average_pooling2d_735_insert", "inbound_nodes": [[["custom_pad_layer_590", 0, 0, {}]]]}, {"class_name": "CustomPadLayer", "config": {"name": "custom_pad_layer_591", "trainable": true, "dtype": "float32", "padding": [[0, 1], [3, 3], [3, 4]], "constant_values": 2}, "name": "custom_pad_layer_591", "inbound_nodes": [[["average_pooling2d_735_insert", 0, 0, {}]]]}, {"class_name": "MaxPooling2D", "config": {"name": "max_pooling2d_1033_insert", "trainable": true, "dtype": "float32", "pool_size": [3, 3], "padding": "valid", "strides": [2, 2], "data_format": "channels_last"}, "name": "max_pooling2d_1033_insert", "inbound_nodes": [[["custom_pad_layer_591", 0, 0, {}]]]}, {"class_name": "CustomPadLayer", "config": {"name": "custom_pad_layer_592", "trainable": true, "dtype": "float32", "padding": [[4, 5], [0, 1], [0, 0]], "constant_values": 2}, "name": "custom_pad_layer_592", "inbound_nodes": [[["max_pooling2d_1033_insert", 0, 0, {}]]]}, {"class_name": "CustomCropLayer", "config": {"name": "custom_crop_layer_445", "trainable": true, "dtype": "float32", "cropping": [[0, 0], [0, 0], [3, 3]]}, "name": "custom_crop_layer_445", "inbound_nodes": [[["custom_pad_layer_592", 0, 0, {}]]]}, {"class_name": "BatchNormalization", "config": {"name": "batch_normalization_1319_insert", "trainable": true, "dtype": "float32", "axis": [3], "momentum": 0.99, "epsilon": 0.001, "center": true, "scale": false, "beta_initializer": {"class_name": "Zeros", "config": {}}, "gamma_initializer": {"class_name": "Ones", "config": {}}, "moving_mean_initializer": {"class_name": "Zeros", "config": {}}, "moving_variance_initializer": {"class_name": "Ones", "config": {}}, "beta_regularizer": null, "gamma_regularizer": null, "beta_constraint": null, "gamma_constraint": null}, "name": "batch_normalization_1319_insert", "inbound_nodes": [[["custom_crop_layer_445", 0, 0, {}]]]}, {"class_name": "CustomPadLayer", "config": {"name": "custom_pad_layer_593", "trainable": true, "dtype": "float32", "padding": [[2, 2], [4, 4], [1, 1]], "constant_values": 2}, "name": "custom_pad_layer_593", "inbound_nodes": [[["batch_normalization_1319_insert", 0, 0, {}]]]}, {"class_name": "BatchNormalization", "config": {"name": "batch_normalization_1321_insert", "trainable": true, "dtype": "float32", "axis": [3], "momentum": 0.99, "epsilon": 0.001, "center": true, "scale": false, "beta_initializer": {"class_name": "Zeros", "config": {}}, "gamma_initializer": {"class_name": "Ones", "config": {}}, "moving_mean_initializer": {"class_name": "Zeros", "config": {}}, "moving_variance_initializer": {"class_name": "Ones", "config": {}}, "beta_regularizer": null, "gamma_regularizer": null, "beta_constraint": null, "gamma_constraint": null}, "name": "batch_normalization_1321_insert", "inbound_nodes": [[["custom_pad_layer_593", 0, 0, {}]]]}, {"class_name": "Conv2D", "config": {"name": "conv2d_1_2", "trainable": true, "dtype": "float32", "filters": 32, "kernel_size": [3, 3], "strides": [2, 2], "padding": "valid", "data_format": "channels_last", "dilation_rate": [1, 1], "groups": 1, "activation": "linear", "use_bias": false, "kernel_initializer": {"class_name": "VarianceScaling", "config": {"scale": 1.0, "mode": "fan_avg", "distribution": "uniform", "seed": null}}, "bias_initializer": {"class_name": "Zeros", "config": {}}, "kernel_regularizer": null, "bias_regularizer": null, "activity_regularizer": null, "kernel_constraint": null, "bias_constraint": null}, "name": "conv2d_1_2", "inbound_nodes": [[["average_pooling2d_729_insert", 0, 0, {}]]]}, {"class_name": "Conv2D", "config": {"name": "conv2d_2945_insert_2", "trainable": true, "dtype": "float32", "filters": 9, "kernel_size": [1, 7], "strides": [1, 1], "padding": "same", "data_format": "channels_last", "dilation_rate": [1, 1], "groups": 1, "activation": "linear", "use_bias": false, "kernel_initializer": {"class_name": "VarianceScaling", "config": {"scale": 1.0, "mode": "fan_avg", "distribution": "uniform", "seed": null}}, "bias_initializer": {"class_name": "Zeros", "config": {}}, "kernel_regularizer": null, "bias_regularizer": null, "activity_regularizer": null, "kernel_constraint": null, "bias_constraint": null}, "name": "conv2d_2945_insert_2", "inbound_nodes": [[["max_pooling2d_1033_insert", 0, 0, {}]]]}], "input_layers": [["input_570", 0, 0]], "output_layers": [["batch_normalization_1321_insert", 0, 0], ["conv2d_1_2", 0, 0], ["conv2d_2945_insert_2", 0, 0]]}, "keras_version": "2.7.0", "backend": "tensorflow"}