{"class_name": "Functional", "config": {"name": "model_4502", "layers": [{"class_name": "InputLayer", "config": {"batch_input_shape": [null, 224, 224, 3], "dtype": "float32", "sparse": false, "ragged": false, "name": "input_571"}, "name": "input_571", "inbound_nodes": []}, {"class_name": "ZeroPadding2D", "config": {"name": "conv1_pad", "trainable": true, "dtype": "float32", "padding": [[3, 3], [3, 3]], "data_format": "channels_last"}, "name": "conv1_pad", "inbound_nodes": [[["input_571", 0, 0, {}]]]}, {"class_name": "Conv2D", "config": {"name": "conv2d_2953_insert", "trainable": true, "dtype": "float32", "filters": 7, "kernel_size": [1, 1], "strides": [2, 2], "padding": "valid", "data_format": "channels_last", "dilation_rate": [1, 1], "groups": 1, "activation": "linear", "use_bias": true, "kernel_initializer": {"class_name": "VarianceScaling", "config": {"scale": 1.0, "mode": "fan_avg", "distribution": "uniform", "seed": null}}, "bias_initializer": {"class_name": "Zeros", "config": {}}, "kernel_regularizer": null, "bias_regularizer": null, "activity_regularizer": null, "kernel_constraint": null, "bias_constraint": null}, "name": "conv2d_2953_insert", "inbound_nodes": [[["conv1_pad", 0, 0, {}]]]}, {"class_name": "ZeroPadding2D", "config": {"name": "zero_padding2d_253_insert", "trainable": true, "dtype": "float32", "padding": [[1, 1], [1, 1]], "data_format": "channels_last"}, "name": "zero_padding2d_253_insert", "inbound_nodes": [[["conv2d_2953_insert", 0, 0, {}]]]}, {"class_name": "Conv2D", "config": {"name": "conv2d_2955_insert_1", "trainable": true, "dtype": "float32", "filters": 1, "kernel_size": [7, 7], "strides": [2, 2], "padding": "valid", "data_format": "channels_last", "dilation_rate": [1, 1], "groups": 1, "activation": "linear", "use_bias": true, "kernel_initializer": {"class_name": "VarianceScaling", "config": {"scale": 1.0, "mode": "fan_avg", "distribution": "uniform", "seed": null}}, "bias_initializer": {"class_name": "Zeros", "config": {}}, "kernel_regularizer": null, "bias_regularizer": null, "activity_regularizer": null, "kernel_constraint": null, "bias_constraint": null}, "name": "conv2d_2955_insert_1", "inbound_nodes": [[["zero_padding2d_253_insert", 0, 0, {}]]]}, {"class_name": "BatchNormalization", "config": {"name": "batch_normalization_1323_insert", "trainable": true, "dtype": "float32", "axis": [3], "momentum": 0.99, "epsilon": 1.001e-05, "center": true, "scale": true, "beta_initializer": {"class_name": "Zeros", "config": {}}, "gamma_initializer": {"class_name": "Ones", "config": {}}, "moving_mean_initializer": {"class_name": "Zeros", "config": {}}, "moving_variance_initializer": {"class_name": "Ones", "config": {}}, "beta_regularizer": null, "gamma_regularizer": null, "beta_constraint": null, "gamma_constraint": null}, "name": "batch_normalization_1323_insert", "inbound_nodes": [[["conv2d_2955_insert_1", 0, 0, {}]]]}, {"class_name": "Conv2D", "config": {"name": "conv2d_2957_insert", "trainable": true, "dtype": "float32", "filters": 7, "kernel_size": [1, 1], "strides": [1, 1], "padding": "valid", "data_format": "channels_last", "dilation_rate": [1, 1], "groups": 1, "activation": "linear", "use_bias": true, "kernel_initializer": {"class_name": "VarianceScaling", "config": {"scale": 1.0, "mode": "fan_avg", "distribution": "uniform", "seed": null}}, "bias_initializer": {"class_name": "Zeros", "config": {}}, "kernel_regularizer": null, "bias_regularizer": null, "activity_regularizer": null, "kernel_constraint": null, "bias_constraint": null}, "name": "conv2d_2957_insert", "inbound_nodes": [[["batch_normalization_1323_insert", 0, 0, {}]]]}, {"class_name": "Conv2D", "config": {"name": "conv2d_2959_insert", "trainable": true, "dtype": "float32", "filters": 6, "kernel_size": [3, 3], "strides": [1, 1], "padding": "same", "data_format": "channels_last", "dilation_rate": [1, 1], "groups": 1, "activation": "linear", "use_bias": true, "kernel_initializer": {"class_name": "VarianceScaling", "config": {"scale": 1.0, "mode": "fan_avg", "distribution": "uniform", "seed": null}}, "bias_initializer": {"class_name": "Zeros", "config": {}}, "kernel_regularizer": null, "bias_regularizer": null, "activity_regularizer": null, "kernel_constraint": null, "bias_constraint": null}, "name": "conv2d_2959_insert", "inbound_nodes": [[["conv2d_2957_insert", 0, 0, {}]]]}, {"class_name": "MaxPooling2D", "config": {"name": "max_pooling2d_1035_insert_1", "trainable": true, "dtype": "float32", "pool_size": [3, 3], "padding": "valid", "strides": [2, 2], "data_format": "channels_last"}, "name": "max_pooling2d_1035_insert_1", "inbound_nodes": [[["conv2d_2959_insert", 0, 0, {}]]]}, {"class_name": "GlobalAveragePooling2D", "config": {"name": "global_average_pooling2d_947_insert", "trainable": true, "dtype": "float32", "data_format": "channels_last", "keepdims": false}, "name": "global_average_pooling2d_947_insert", "inbound_nodes": [[["max_pooling2d_1035_insert_1", 0, 0, {}]]]}, {"class_name": "CustomExpandLayer", "config": {"name": "custom_expand_layer_978", "trainable": true, "dtype": "float32", "axis": 1}, "name": "custom_expand_layer_978", "inbound_nodes": [[["global_average_pooling2d_947_insert", 0, 0, {}]]]}, {"class_name": "CustomExpandLayer", "config": {"name": "custom_expand_layer_979", "trainable": true, "dtype": "float32", "axis": 1}, "name": "custom_expand_layer_979", "inbound_nodes": [[["custom_expand_layer_978", 0, 0, {}]]]}, {"class_name": "CustomPadLayer", "config": {"name": "custom_pad_layer_594", "trainable": true, "dtype": "float32", "padding": [[9, 9], [7, 8], [4, 4]], "constant_values": 2}, "name": "custom_pad_layer_594", "inbound_nodes": [[["custom_expand_layer_979", 0, 0, {}]]]}, {"class_name": "Conv2D", "config": {"name": "conv2d_2961_insert", "trainable": true, "dtype": "float32", "filters": 3, "kernel_size": [1, 1], "strides": [2, 2], "padding": "valid", "data_format": "channels_last", "dilation_rate": [1, 1], "groups": 1, "activation": "linear", "use_bias": true, "kernel_initializer": {"class_name": "VarianceScaling", "config": {"scale": 1.0, "mode": "fan_avg", "distribution": "uniform", "seed": null}}, "bias_initializer": {"class_name": "Zeros", "config": {}}, "kernel_regularizer": null, "bias_regularizer": null, "activity_regularizer": null, "kernel_constraint": null, "bias_constraint": null}, "name": "conv2d_2961_insert", "inbound_nodes": [[["custom_pad_layer_594", 0, 0, {}]]]}, {"class_name": "CustomPadLayer", "config": {"name": "custom_pad_layer_595", "trainable": true, "dtype": "float32", "padding": [[0, 0], [0, 0], [3, 3]], "constant_values": 2}, "name": "custom_pad_layer_595", "inbound_nodes": [[["conv2d_2961_insert", 0, 0, {}]]]}, {"class_name": "CustomCropLayer", "config": {"name": "custom_crop_layer_446", "trainable": true, "dtype": "float32", "cropping": [[2, 2], [1, 1], [0, 0]]}, "name": "custom_crop_layer_446", "inbound_nodes": [[["custom_pad_layer_595", 0, 0, {}]]]}, {"class_name": "BatchNormalization", "config": {"name": "batch_normalization_1325_insert", "trainable": true, "dtype": "float32", "axis": [3], "momentum": 0.99, "epsilon": 1.001e-05, "center": true, "scale": true, "beta_initializer": {"class_name": "Zeros", "config": {}}, "gamma_initializer": {"class_name": "Ones", "config": {}}, "moving_mean_initializer": {"class_name": "Zeros", "config": {}}, "moving_variance_initializer": {"class_name": "Ones", "config": {}}, "beta_regularizer": null, "gamma_regularizer": null, "beta_constraint": null, "gamma_constraint": null}, "name": "batch_normalization_1325_insert", "inbound_nodes": [[["custom_crop_layer_446", 0, 0, {}]]]}, {"class_name": "CustomPadLayer", "config": {"name": "custom_pad_layer_596", "trainable": true, "dtype": "float32", "padding": [[0, 0], [3, 3], [0, 0]], "constant_values": 2}, "name": "custom_pad_layer_596", "inbound_nodes": [[["batch_normalization_1325_insert", 0, 0, {}]]]}, {"class_name": "CustomCropLayer", "config": {"name": "custom_crop_layer_447", "trainable": true, "dtype": "float32", "cropping": [[0, 0], [0, 0], [1, 2]]}, "name": "custom_crop_layer_447", "inbound_nodes": [[["custom_pad_layer_596", 0, 0, {}]]]}, {"class_name": "BatchNormalization", "config": {"name": "batch_normalization_1327_insert_merge1", "trainable": true, "dtype": "float32", "axis": [3], "momentum": 0.99, "epsilon": 1.001e-05, "center": true, "scale": true, "beta_initializer": {"class_name": "Zeros", "config": {}}, "gamma_initializer": {"class_name": "Ones", "config": {}}, "moving_mean_initializer": {"class_name": "Zeros", "config": {}}, "moving_variance_initializer": {"class_name": "Ones", "config": {}}, "beta_regularizer": null, "gamma_regularizer": null, "beta_constraint": null, "gamma_constraint": null}, "name": "batch_normalization_1327_insert_merge1", "inbound_nodes": [[["custom_crop_layer_447", 0, 0, {}]]]}, {"class_name": "Add", "config": {"name": "add_32_copy_ML", "trainable": true, "dtype": "float32"}, "name": "add_32_copy_ML", "inbound_nodes": [[["batch_normalization_1327_insert_merge1", 0, 0, {}], ["custom_crop_layer_447", 0, 0, {}]]]}, {"class_name": "CustomPadLayer", "config": {"name": "custom_pad_layer_597", "trainable": true, "dtype": "float32", "padding": [[3, 4], [1, 2], [1, 2]], "constant_values": 2}, "name": "custom_pad_layer_597", "inbound_nodes": [[["add_32_copy_ML", 0, 0, {}]]]}, {"class_name": "BatchNormalization", "config": {"name": "batch_normalization_1329_insert", "trainable": true, "dtype": "float32", "axis": [3], "momentum": 0.99, "epsilon": 1.001e-05, "center": true, "scale": true, "beta_initializer": {"class_name": "Zeros", "config": {}}, "gamma_initializer": {"class_name": "Ones", "config": {}}, "moving_mean_initializer": {"class_name": "Zeros", "config": {}}, "moving_variance_initializer": {"class_name": "Ones", "config": {}}, "beta_regularizer": null, "gamma_regularizer": null, "beta_constraint": null, "gamma_constraint": null}, "name": "batch_normalization_1329_insert", "inbound_nodes": [[["custom_pad_layer_597", 0, 0, {}]]]}, {"class_name": "CustomPadLayer", "config": {"name": "custom_pad_layer_598", "trainable": true, "dtype": "float32", "padding": [[0, 0], [0, 1], [0, 0]], "constant_values": 2}, "name": "custom_pad_layer_598", "inbound_nodes": [[["batch_normalization_1329_insert", 0, 0, {}]]]}, {"class_name": "CustomCropLayer", "config": {"name": "custom_crop_layer_448", "trainable": true, "dtype": "float32", "cropping": [[0, 1], [0, 0], [1, 2]]}, "name": "custom_crop_layer_448", "inbound_nodes": [[["custom_pad_layer_598", 0, 0, {}]]]}, {"class_name": "MaxPooling2D", "config": {"name": "max_pooling2d_1035_insert_2", "trainable": true, "dtype": "float32", "pool_size": [3, 3], "padding": "valid", "strides": [2, 2], "data_format": "channels_last"}, "name": "max_pooling2d_1035_insert_2", "inbound_nodes": [[["zero_padding2d_253_insert", 0, 0, {}]]]}, {"class_name": "BatchNormalization", "config": {"name": "batch_normalization_1331_insert", "trainable": true, "dtype": "float32", "axis": [3], "momentum": 0.99, "epsilon": 1.001e-05, "center": true, "scale": true, "beta_initializer": {"class_name": "Zeros", "config": {}}, "gamma_initializer": {"class_name": "Ones", "config": {}}, "moving_mean_initializer": {"class_name": "Zeros", "config": {}}, "moving_variance_initializer": {"class_name": "Ones", "config": {}}, "beta_regularizer": null, "gamma_regularizer": null, "beta_constraint": null, "gamma_constraint": null}, "name": "batch_normalization_1331_insert", "inbound_nodes": [[["custom_crop_layer_448", 0, 0, {}]]]}, {"class_name": "Cropping2D", "config": {"name": "cropping2d_60", "trainable": true, "dtype": "float32", "cropping": [[24, 24], [24, 24]], "data_format": "channels_last"}, "name": "cropping2d_60", "inbound_nodes": [[["max_pooling2d_1035_insert_2", 0, 0, {}]]]}, {"class_name": "Conv2D", "config": {"name": "conv2d_2955_insert_2", "trainable": true, "dtype": "float32", "filters": 1, "kernel_size": [7, 7], "strides": [2, 2], "padding": "valid", "data_format": "channels_last", "dilation_rate": [1, 1], "groups": 1, "activation": "linear", "use_bias": true, "kernel_initializer": {"class_name": "VarianceScaling", "config": {"scale": 1.0, "mode": "fan_avg", "distribution": "uniform", "seed": null}}, "bias_initializer": {"class_name": "Zeros", "config": {}}, "kernel_regularizer": null, "bias_regularizer": null, "activity_regularizer": null, "kernel_constraint": null, "bias_constraint": null}, "name": "conv2d_2955_insert_2", "inbound_nodes": [[["max_pooling2d_1035_insert_1", 0, 0, {}]]]}], "input_layers": [["input_571", 0, 0]], "output_layers": [["batch_normalization_1331_insert", 0, 0], ["cropping2d_60", 0, 0], ["conv2d_2955_insert_2", 0, 0]]}, "keras_version": "2.7.0", "backend": "tensorflow"}