{"class_name": "Functional", "config": {"name": "model_5070", "layers": [{"class_name": "InputLayer", "config": {"batch_input_shape": [null, 299, 299, 3], "dtype": "float32", "sparse": false, "ragged": false, "name": "input_640"}, "name": "input_640", "inbound_nodes": []}, {"class_name": "Conv2D", "config": {"name": "conv2d_1", "trainable": true, "dtype": "float32", "filters": 32, "kernel_size": [3, 3], "strides": [2, 2], "padding": "valid", "data_format": "channels_last", "dilation_rate": [1, 1], "groups": 1, "activation": "linear", "use_bias": false, "kernel_initializer": {"class_name": "VarianceScaling", "config": {"scale": 1.0, "mode": "fan_avg", "distribution": "uniform", "seed": null}}, "bias_initializer": {"class_name": "Zeros", "config": {}}, "kernel_regularizer": null, "bias_regularizer": null, "activity_regularizer": null, "kernel_constraint": null, "bias_constraint": null}, "name": "conv2d_1", "inbound_nodes": [[["input_640", 0, 0, {}]]]}, {"class_name": "Conv2D", "config": {"name": "conv2d_3387_insert", "trainable": true, "dtype": "float32", "filters": 6, "kernel_size": [1, 3], "strides": [1, 1], "padding": "same", "data_format": "channels_last", "dilation_rate": [1, 1], "groups": 1, "activation": "linear", "use_bias": false, "kernel_initializer": {"class_name": "VarianceScaling", "config": {"scale": 1.0, "mode": "fan_avg", "distribution": "uniform", "seed": null}}, "bias_initializer": {"class_name": "Zeros", "config": {}}, "kernel_regularizer": null, "bias_regularizer": null, "activity_regularizer": null, "kernel_constraint": null, "bias_constraint": null}, "name": "conv2d_3387_insert", "inbound_nodes": [[["conv2d_1", 0, 0, {}]]]}, {"class_name": "BatchNormalization", "config": {"name": "batch_normalization_1467_insert", "trainable": true, "dtype": "float32", "axis": [3], "momentum": 0.99, "epsilon": 0.001, "center": true, "scale": false, "beta_initializer": {"class_name": "Zeros", "config": {}}, "gamma_initializer": {"class_name": "Ones", "config": {}}, "moving_mean_initializer": {"class_name": "Zeros", "config": {}}, "moving_variance_initializer": {"class_name": "Ones", "config": {}}, "beta_regularizer": null, "gamma_regularizer": null, "beta_constraint": null, "gamma_constraint": null}, "name": "batch_normalization_1467_insert", "inbound_nodes": [[["conv2d_3387_insert", 0, 0, {}]]]}, {"class_name": "MaxPooling2D", "config": {"name": "max_pooling2d_1167_insert", "trainable": true, "dtype": "float32", "pool_size": [3, 3], "padding": "valid", "strides": [2, 2], "data_format": "channels_last"}, "name": "max_pooling2d_1167_insert", "inbound_nodes": [[["batch_normalization_1467_insert", 0, 0, {}]]]}, {"class_name": "Conv2D", "config": {"name": "conv2d_3389_insert", "trainable": true, "dtype": "float32", "filters": 3, "kernel_size": [3, 3], "strides": [1, 1], "padding": "valid", "data_format": "channels_last", "dilation_rate": [1, 1], "groups": 1, "activation": "linear", "use_bias": false, "kernel_initializer": {"class_name": "VarianceScaling", "config": {"scale": 1.0, "mode": "fan_avg", "distribution": "uniform", "seed": null}}, "bias_initializer": {"class_name": "Zeros", "config": {}}, "kernel_regularizer": null, "bias_regularizer": null, "activity_regularizer": null, "kernel_constraint": null, "bias_constraint": null}, "name": "conv2d_3389_insert", "inbound_nodes": [[["max_pooling2d_1167_insert", 0, 0, {}]]]}, {"class_name": "AveragePooling2D", "config": {"name": "average_pooling2d_833_insert_1", "trainable": true, "dtype": "float32", "pool_size": [3, 3], "padding": "same", "strides": [1, 1], "data_format": "channels_last"}, "name": "average_pooling2d_833_insert_1", "inbound_nodes": [[["conv2d_3389_insert", 0, 0, {}]]]}, {"class_name": "GlobalAveragePooling2D", "config": {"name": "global_average_pooling2d_1065_insert", "trainable": true, "dtype": "float32", "data_format": "channels_last", "keepdims": false}, "name": "global_average_pooling2d_1065_insert", "inbound_nodes": [[["average_pooling2d_833_insert_1", 0, 0, {}]]]}, {"class_name": "CustomExpandLayer", "config": {"name": "custom_expand_layer_1106_insert", "trainable": true, "dtype": "float32", "axis": 1}, "name": "custom_expand_layer_1106_insert", "inbound_nodes": [[["global_average_pooling2d_1065_insert", 0, 0, {}]]]}, {"class_name": "CustomExpandLayer", "config": {"name": "custom_expand_layer_1107_insert", "trainable": true, "dtype": "float32", "axis": 1}, "name": "custom_expand_layer_1107_insert", "inbound_nodes": [[["custom_expand_layer_1106_insert", 0, 0, {}]]]}, {"class_name": "Conv2D", "config": {"name": "conv2d_3391_insert", "trainable": true, "dtype": "float32", "filters": 4, "kernel_size": [7, 1], "strides": [1, 1], "padding": "same", "data_format": "channels_last", "dilation_rate": [1, 1], "groups": 1, "activation": "linear", "use_bias": false, "kernel_initializer": {"class_name": "VarianceScaling", "config": {"scale": 1.0, "mode": "fan_avg", "distribution": "uniform", "seed": null}}, "bias_initializer": {"class_name": "Zeros", "config": {}}, "kernel_regularizer": null, "bias_regularizer": null, "activity_regularizer": null, "kernel_constraint": null, "bias_constraint": null}, "name": "conv2d_3391_insert", "inbound_nodes": [[["custom_expand_layer_1107_insert", 0, 0, {}]]]}, {"class_name": "Conv2D", "config": {"name": "conv2d_3393_insert", "trainable": true, "dtype": "float32", "filters": 1, "kernel_size": [1, 1], "strides": [1, 1], "padding": "same", "data_format": "channels_last", "dilation_rate": [1, 1], "groups": 1, "activation": "linear", "use_bias": false, "kernel_initializer": {"class_name": "VarianceScaling", "config": {"scale": 1.0, "mode": "fan_avg", "distribution": "uniform", "seed": null}}, "bias_initializer": {"class_name": "Zeros", "config": {}}, "kernel_regularizer": null, "bias_regularizer": null, "activity_regularizer": null, "kernel_constraint": null, "bias_constraint": null}, "name": "conv2d_3393_insert", "inbound_nodes": [[["conv2d_3391_insert", 0, 0, {}]]]}, {"class_name": "Conv2D", "config": {"name": "conv2d_3395_insert", "trainable": true, "dtype": "float32", "filters": 5, "kernel_size": [3, 3], "strides": [1, 1], "padding": "same", "data_format": "channels_last", "dilation_rate": [1, 1], "groups": 1, "activation": "linear", "use_bias": false, "kernel_initializer": {"class_name": "VarianceScaling", "config": {"scale": 1.0, "mode": "fan_avg", "distribution": "uniform", "seed": null}}, "bias_initializer": {"class_name": "Zeros", "config": {}}, "kernel_regularizer": null, "bias_regularizer": null, "activity_regularizer": null, "kernel_constraint": null, "bias_constraint": null}, "name": "conv2d_3395_insert", "inbound_nodes": [[["conv2d_3393_insert", 0, 0, {}]]]}, {"class_name": "Conv2D", "config": {"name": "conv2d_3397_insert", "trainable": true, "dtype": "float32", "filters": 2, "kernel_size": [3, 1], "strides": [1, 1], "padding": "same", "data_format": "channels_last", "dilation_rate": [1, 1], "groups": 1, "activation": "linear", "use_bias": false, "kernel_initializer": {"class_name": "VarianceScaling", "config": {"scale": 1.0, "mode": "fan_avg", "distribution": "uniform", "seed": null}}, "bias_initializer": {"class_name": "Zeros", "config": {}}, "kernel_regularizer": null, "bias_regularizer": null, "activity_regularizer": null, "kernel_constraint": null, "bias_constraint": null}, "name": "conv2d_3397_insert", "inbound_nodes": [[["conv2d_3395_insert", 0, 0, {}]]]}, {"class_name": "Conv2D", "config": {"name": "conv2d_3399_insert", "trainable": true, "dtype": "float32", "filters": 4, "kernel_size": [5, 5], "strides": [1, 1], "padding": "same", "data_format": "channels_last", "dilation_rate": [1, 1], "groups": 1, "activation": "linear", "use_bias": false, "kernel_initializer": {"class_name": "VarianceScaling", "config": {"scale": 1.0, "mode": "fan_avg", "distribution": "uniform", "seed": null}}, "bias_initializer": {"class_name": "Zeros", "config": {}}, "kernel_regularizer": null, "bias_regularizer": null, "activity_regularizer": null, "kernel_constraint": null, "bias_constraint": null}, "name": "conv2d_3399_insert", "inbound_nodes": [[["conv2d_3397_insert", 0, 0, {}]]]}, {"class_name": "Conv2D", "config": {"name": "conv2d_3401_insert", "trainable": true, "dtype": "float32", "filters": 8, "kernel_size": [1, 1], "strides": [1, 1], "padding": "valid", "data_format": "channels_last", "dilation_rate": [1, 1], "groups": 1, "activation": "linear", "use_bias": false, "kernel_initializer": {"class_name": "VarianceScaling", "config": {"scale": 1.0, "mode": "fan_avg", "distribution": "uniform", "seed": null}}, "bias_initializer": {"class_name": "Zeros", "config": {}}, "kernel_regularizer": null, "bias_regularizer": null, "activity_regularizer": null, "kernel_constraint": null, "bias_constraint": null}, "name": "conv2d_3401_insert", "inbound_nodes": [[["conv2d_3399_insert", 0, 0, {}]]]}, {"class_name": "Conv2D", "config": {"name": "conv2d_3403_insert_1", "trainable": true, "dtype": "float32", "filters": 6, "kernel_size": [1, 7], "strides": [1, 1], "padding": "same", "data_format": "channels_last", "dilation_rate": [1, 1], "groups": 1, "activation": "linear", "use_bias": false, "kernel_initializer": {"class_name": "VarianceScaling", "config": {"scale": 1.0, "mode": "fan_avg", "distribution": "uniform", "seed": null}}, "bias_initializer": {"class_name": "Zeros", "config": {}}, "kernel_regularizer": null, "bias_regularizer": null, "activity_regularizer": null, "kernel_constraint": null, "bias_constraint": null}, "name": "conv2d_3403_insert_1", "inbound_nodes": [[["conv2d_3401_insert", 0, 0, {}]]]}, {"class_name": "CustomPadLayer", "config": {"name": "custom_pad_layer_645", "trainable": true, "dtype": "float32", "padding": [[2, 3], [2, 3], [4, 4]], "constant_values": 2}, "name": "custom_pad_layer_645", "inbound_nodes": [[["conv2d_3403_insert_1", 0, 0, {}]]]}, {"class_name": "MaxPooling2D", "config": {"name": "max_pooling2d_1169_insert", "trainable": true, "dtype": "float32", "pool_size": [3, 3], "padding": "valid", "strides": [2, 2], "data_format": "channels_last"}, "name": "max_pooling2d_1169_insert", "inbound_nodes": [[["custom_pad_layer_645", 0, 0, {}]]]}, {"class_name": "CustomPadLayer", "config": {"name": "custom_pad_layer_646", "trainable": true, "dtype": "float32", "padding": [[8, 9], [2, 2], [0, 0]], "constant_values": 2}, "name": "custom_pad_layer_646", "inbound_nodes": [[["max_pooling2d_1169_insert", 0, 0, {}]]]}, {"class_name": "CustomCropLayer", "config": {"name": "custom_crop_layer_484", "trainable": true, "dtype": "float32", "cropping": [[0, 0], [0, 0], [4, 5]]}, "name": "custom_crop_layer_484", "inbound_nodes": [[["custom_pad_layer_646", 0, 0, {}]]]}, {"class_name": "AveragePooling2D", "config": {"name": "average_pooling2d_835_insert_merge1", "trainable": true, "dtype": "float32", "pool_size": [3, 3], "padding": "same", "strides": [1, 1], "data_format": "channels_last"}, "name": "average_pooling2d_835_insert_merge1", "inbound_nodes": [[["custom_crop_layer_484", 0, 0, {}]]]}, {"class_name": "Concatenate", "config": {"name": "concatenate_35_copy_ML", "trainable": true, "dtype": "float32", "axis": 3}, "name": "concatenate_35_copy_ML", "inbound_nodes": [[["average_pooling2d_835_insert_merge1", 0, 0, {}], ["custom_crop_layer_484", 0, 0, {}]]]}, {"class_name": "CustomPadLayer", "config": {"name": "custom_pad_layer_647", "trainable": true, "dtype": "float32", "padding": [[0, 0], [0, 0], [6, 7]], "constant_values": 2}, "name": "custom_pad_layer_647", "inbound_nodes": [[["concatenate_35_copy_ML", 0, 0, {}]]]}, {"class_name": "CustomCropLayer", "config": {"name": "custom_crop_layer_485", "trainable": true, "dtype": "float32", "cropping": [[3, 3], [0, 1], [0, 0]]}, "name": "custom_crop_layer_485", "inbound_nodes": [[["custom_pad_layer_647", 0, 0, {}]]]}, {"class_name": "BatchNormalization", "config": {"name": "batch_normalization_1469_insert", "trainable": true, "dtype": "float32", "axis": [3], "momentum": 0.99, "epsilon": 0.001, "center": true, "scale": false, "beta_initializer": {"class_name": "Zeros", "config": {}}, "gamma_initializer": {"class_name": "Ones", "config": {}}, "moving_mean_initializer": {"class_name": "Zeros", "config": {}}, "moving_variance_initializer": {"class_name": "Ones", "config": {}}, "beta_regularizer": null, "gamma_regularizer": null, "beta_constraint": null, "gamma_constraint": null}, "name": "batch_normalization_1469_insert", "inbound_nodes": [[["custom_crop_layer_485", 0, 0, {}]]]}, {"class_name": "CustomPadLayer", "config": {"name": "custom_pad_layer_648", "trainable": true, "dtype": "float32", "padding": [[2, 2], [3, 3], [0, 0]], "constant_values": 2}, "name": "custom_pad_layer_648", "inbound_nodes": [[["batch_normalization_1469_insert", 0, 0, {}]]]}, {"class_name": "CustomCropLayer", "config": {"name": "custom_crop_layer_486", "trainable": true, "dtype": "float32", "cropping": [[0, 0], [0, 0], [1, 2]]}, "name": "custom_crop_layer_486", "inbound_nodes": [[["custom_pad_layer_648", 0, 0, {}]]]}, {"class_name": "BatchNormalization", "config": {"name": "batch_normalization_1471_insert", "trainable": true, "dtype": "float32", "axis": [3], "momentum": 0.99, "epsilon": 0.001, "center": true, "scale": false, "beta_initializer": {"class_name": "Zeros", "config": {}}, "gamma_initializer": {"class_name": "Ones", "config": {}}, "moving_mean_initializer": {"class_name": "Zeros", "config": {}}, "moving_variance_initializer": {"class_name": "Ones", "config": {}}, "beta_regularizer": null, "gamma_regularizer": null, "beta_constraint": null, "gamma_constraint": null}, "name": "batch_normalization_1471_insert", "inbound_nodes": [[["custom_crop_layer_486", 0, 0, {}]]]}, {"class_name": "CustomPadLayer", "config": {"name": "custom_pad_layer_649", "trainable": true, "dtype": "float32", "padding": [[0, 0], [1, 1], [1, 1]], "constant_values": 2}, "name": "custom_pad_layer_649", "inbound_nodes": [[["batch_normalization_1471_insert", 0, 0, {}]]]}, {"class_name": "CustomCropLayer", "config": {"name": "custom_crop_layer_487", "trainable": true, "dtype": "float32", "cropping": [[4, 5], [0, 0], [0, 0]]}, "name": "custom_crop_layer_487", "inbound_nodes": [[["custom_pad_layer_649", 0, 0, {}]]]}, {"class_name": "MaxPooling2D", "config": {"name": "max_pooling2d_1171_insert", "trainable": true, "dtype": "float32", "pool_size": [3, 3], "padding": "valid", "strides": [2, 2], "data_format": "channels_last"}, "name": "max_pooling2d_1171_insert", "inbound_nodes": [[["custom_crop_layer_487", 0, 0, {}]]]}, {"class_name": "CustomPadLayer", "config": {"name": "custom_pad_layer_650", "trainable": true, "dtype": "float32", "padding": [[6, 6], [1, 1], [0, 0]], "constant_values": 2}, "name": "custom_pad_layer_650", "inbound_nodes": [[["max_pooling2d_1171_insert", 0, 0, {}]]]}, {"class_name": "CustomCropLayer", "config": {"name": "custom_crop_layer_488", "trainable": true, "dtype": "float32", "cropping": [[0, 0], [0, 0], [5, 5]]}, "name": "custom_crop_layer_488", "inbound_nodes": [[["custom_pad_layer_650", 0, 0, {}]]]}, {"class_name": "MaxPooling2D", "config": {"name": "max_pooling2d_1173_insert", "trainable": true, "dtype": "float32", "pool_size": [3, 3], "padding": "valid", "strides": [2, 2], "data_format": "channels_last"}, "name": "max_pooling2d_1173_insert", "inbound_nodes": [[["custom_crop_layer_488", 0, 0, {}]]]}, {"class_name": "CustomPadLayer", "config": {"name": "custom_pad_layer_651", "trainable": true, "dtype": "float32", "padding": [[4, 5], [4, 5], [4, 5]], "constant_values": 2}, "name": "custom_pad_layer_651", "inbound_nodes": [[["max_pooling2d_1173_insert", 0, 0, {}]]]}, {"class_name": "BatchNormalization", "config": {"name": "batch_normalization_1473_insert", "trainable": true, "dtype": "float32", "axis": [3], "momentum": 0.99, "epsilon": 0.001, "center": true, "scale": false, "beta_initializer": {"class_name": "Zeros", "config": {}}, "gamma_initializer": {"class_name": "Ones", "config": {}}, "moving_mean_initializer": {"class_name": "Zeros", "config": {}}, "moving_variance_initializer": {"class_name": "Ones", "config": {}}, "beta_regularizer": null, "gamma_regularizer": null, "beta_constraint": null, "gamma_constraint": null}, "name": "batch_normalization_1473_insert", "inbound_nodes": [[["custom_pad_layer_651", 0, 0, {}]]]}, {"class_name": "CustomCropLayer", "config": {"name": "custom_crop_layer_489", "trainable": true, "dtype": "float32", "cropping": [[3, 4], [2, 3], [3, 4]]}, "name": "custom_crop_layer_489", "inbound_nodes": [[["batch_normalization_1473_insert", 0, 0, {}]]]}, {"class_name": "AveragePooling2D", "config": {"name": "average_pooling2d_837_insert", "trainable": true, "dtype": "float32", "pool_size": [3, 3], "padding": "same", "strides": [1, 1], "data_format": "channels_last"}, "name": "average_pooling2d_837_insert", "inbound_nodes": [[["custom_crop_layer_489", 0, 0, {}]]]}, {"class_name": "CustomPadLayer", "config": {"name": "custom_pad_layer_652", "trainable": true, "dtype": "float32", "padding": [[0, 0], [1, 1], [0, 0]], "constant_values": 2}, "name": "custom_pad_layer_652", "inbound_nodes": [[["average_pooling2d_837_insert", 0, 0, {}]]]}, {"class_name": "CustomCropLayer", "config": {"name": "custom_crop_layer_490", "trainable": true, "dtype": "float32", "cropping": [[0, 0], [0, 0], [2, 2]]}, "name": "custom_crop_layer_490", "inbound_nodes": [[["custom_pad_layer_652", 0, 0, {}]]]}, {"class_name": "AveragePooling2D", "config": {"name": "average_pooling2d_839_insert", "trainable": true, "dtype": "float32", "pool_size": [3, 3], "padding": "same", "strides": [1, 1], "data_format": "channels_last"}, "name": "average_pooling2d_839_insert", "inbound_nodes": [[["custom_crop_layer_490", 0, 0, {}]]]}, {"class_name": "CustomPadLayer", "config": {"name": "custom_pad_layer_653", "trainable": true, "dtype": "float32", "padding": [[0, 0], [0, 0], [3, 4]], "constant_values": 2}, "name": "custom_pad_layer_653", "inbound_nodes": [[["average_pooling2d_839_insert", 0, 0, {}]]]}, {"class_name": "CustomCropLayer", "config": {"name": "custom_crop_layer_491", "trainable": true, "dtype": "float32", "cropping": [[0, 1], [2, 2], [0, 0]]}, "name": "custom_crop_layer_491", "inbound_nodes": [[["custom_pad_layer_653", 0, 0, {}]]]}, {"class_name": "BatchNormalization", "config": {"name": "batch_normalization_1475_insert", "trainable": true, "dtype": "float32", "axis": [3], "momentum": 0.99, "epsilon": 0.001, "center": true, "scale": false, "beta_initializer": {"class_name": "Zeros", "config": {}}, "gamma_initializer": {"class_name": "Ones", "config": {}}, "moving_mean_initializer": {"class_name": "Zeros", "config": {}}, "moving_variance_initializer": {"class_name": "Ones", "config": {}}, "beta_regularizer": null, "gamma_regularizer": null, "beta_constraint": null, "gamma_constraint": null}, "name": "batch_normalization_1475_insert", "inbound_nodes": [[["custom_crop_layer_491", 0, 0, {}]]]}, {"class_name": "CustomPadLayer", "config": {"name": "custom_pad_layer_654", "trainable": true, "dtype": "float32", "padding": [[0, 0], [7, 7], [3, 4]], "constant_values": 2}, "name": "custom_pad_layer_654", "inbound_nodes": [[["batch_normalization_1475_insert", 0, 0, {}]]]}, {"class_name": "AveragePooling2D", "config": {"name": "average_pooling2d_841_insert", "trainable": true, "dtype": "float32", "pool_size": [3, 3], "padding": "same", "strides": [1, 1], "data_format": "channels_last"}, "name": "average_pooling2d_841_insert", "inbound_nodes": [[["custom_pad_layer_654", 0, 0, {}]]]}, {"class_name": "Conv2D", "config": {"name": "conv2d_3403_insert_2", "trainable": true, "dtype": "float32", "filters": 6, "kernel_size": [1, 7], "strides": [1, 1], "padding": "same", "data_format": "channels_last", "dilation_rate": [1, 1], "groups": 1, "activation": "linear", "use_bias": false, "kernel_initializer": {"class_name": "VarianceScaling", "config": {"scale": 1.0, "mode": "fan_avg", "distribution": "uniform", "seed": null}}, "bias_initializer": {"class_name": "Zeros", "config": {}}, "kernel_regularizer": null, "bias_regularizer": null, "activity_regularizer": null, "kernel_constraint": null, "bias_constraint": null}, "name": "conv2d_3403_insert_2", "inbound_nodes": [[["average_pooling2d_839_insert", 0, 0, {}]]]}, {"class_name": "AveragePooling2D", "config": {"name": "average_pooling2d_833_insert_2", "trainable": true, "dtype": "float32", "pool_size": [3, 3], "padding": "same", "strides": [1, 1], "data_format": "channels_last"}, "name": "average_pooling2d_833_insert_2", "inbound_nodes": [[["max_pooling2d_1169_insert", 0, 0, {}]]]}], "input_layers": [["input_640", 0, 0]], "output_layers": [["average_pooling2d_841_insert", 0, 0], ["conv2d_3403_insert_2", 0, 0], ["average_pooling2d_833_insert_2", 0, 0]]}, "keras_version": "2.7.0", "backend": "tensorflow"}