{"class_name": "Functional", "config": {"name": "model_2643", "layers": [{"class_name": "InputLayer", "config": {"batch_input_shape": [null, 224, 224, 3], "dtype": "float32", "sparse": false, "ragged": false, "name": "input_340"}, "name": "input_340", "inbound_nodes": []}, {"class_name": "ZeroPadding2D", "config": {"name": "zero_padding2d_1", "trainable": true, "dtype": "float32", "padding": [[3, 3], [3, 3]], "data_format": "channels_last"}, "name": "zero_padding2d_1", "inbound_nodes": [[["input_340", 0, 0, {}]]]}, {"class_name": "Conv2D", "config": {"name": "conv2d_1729_insert", "trainable": true, "dtype": "float32", "filters": 4, "kernel_size": [7, 7], "strides": [2, 2], "padding": "valid", "data_format": "channels_last", "dilation_rate": [1, 1], "groups": 1, "activation": "linear", "use_bias": false, "kernel_initializer": {"class_name": "VarianceScaling", "config": {"scale": 1.0, "mode": "fan_avg", "distribution": "uniform", "seed": null}}, "bias_initializer": {"class_name": "Zeros", "config": {}}, "kernel_regularizer": null, "bias_regularizer": null, "activity_regularizer": null, "kernel_constraint": null, "bias_constraint": null}, "name": "conv2d_1729_insert", "inbound_nodes": [[["zero_padding2d_1", 0, 0, {}]]]}, {"class_name": "MaxPooling2D", "config": {"name": "max_pooling2d_585_insert_1", "trainable": true, "dtype": "float32", "pool_size": [3, 3], "padding": "valid", "strides": [2, 2], "data_format": "channels_last"}, "name": "max_pooling2d_585_insert_1", "inbound_nodes": [[["conv2d_1729_insert", 0, 0, {}]]]}, {"class_name": "Conv2D", "config": {"name": "conv2d_1731_insert", "trainable": true, "dtype": "float32", "filters": 3, "kernel_size": [1, 1], "strides": [1, 1], "padding": "valid", "data_format": "channels_last", "dilation_rate": [1, 1], "groups": 1, "activation": "linear", "use_bias": false, "kernel_initializer": {"class_name": "VarianceScaling", "config": {"scale": 1.0, "mode": "fan_avg", "distribution": "uniform", "seed": null}}, "bias_initializer": {"class_name": "Zeros", "config": {}}, "kernel_regularizer": null, "bias_regularizer": null, "activity_regularizer": null, "kernel_constraint": null, "bias_constraint": null}, "name": "conv2d_1731_insert", "inbound_nodes": [[["max_pooling2d_585_insert_1", 0, 0, {}]]]}, {"class_name": "BatchNormalization", "config": {"name": "batch_normalization_763_insert_merge1", "trainable": true, "dtype": "float32", "axis": [3], "momentum": 0.99, "epsilon": 1.001e-05, "center": true, "scale": true, "beta_initializer": {"class_name": "Zeros", "config": {}}, "gamma_initializer": {"class_name": "Ones", "config": {}}, "moving_mean_initializer": {"class_name": "Zeros", "config": {}}, "moving_variance_initializer": {"class_name": "Ones", "config": {}}, "beta_regularizer": null, "gamma_regularizer": null, "beta_constraint": null, "gamma_constraint": null}, "name": "batch_normalization_763_insert_merge1", "inbound_nodes": [[["conv2d_1731_insert", 0, 0, {}]]]}, {"class_name": "Concatenate", "config": {"name": "concatenate_17_copy_ML", "trainable": true, "dtype": "float32", "axis": 3}, "name": "concatenate_17_copy_ML", "inbound_nodes": [[["batch_normalization_763_insert_merge1", 0, 0, {}], ["conv2d_1731_insert", 0, 0, {}]]]}, {"class_name": "ZeroPadding2D", "config": {"name": "zero_padding2d_145_insert", "trainable": true, "dtype": "float32", "padding": [[1, 1], [1, 1]], "data_format": "channels_last"}, "name": "zero_padding2d_145_insert", "inbound_nodes": [[["concatenate_17_copy_ML", 0, 0, {}]]]}, {"class_name": "AveragePooling2D", "config": {"name": "average_pooling2d_421_insert_1", "trainable": true, "dtype": "float32", "pool_size": [2, 2], "padding": "valid", "strides": [2, 2], "data_format": "channels_last"}, "name": "average_pooling2d_421_insert_1", "inbound_nodes": [[["zero_padding2d_145_insert", 0, 0, {}]]]}, {"class_name": "GlobalAveragePooling2D", "config": {"name": "global_average_pooling2d_553_insert", "trainable": true, "dtype": "float32", "data_format": "channels_last", "keepdims": false}, "name": "global_average_pooling2d_553_insert", "inbound_nodes": [[["average_pooling2d_421_insert_1", 0, 0, {}]]]}, {"class_name": "CustomExpandLayer", "config": {"name": "custom_expand_layer_582_insert", "trainable": true, "dtype": "float32", "axis": 1}, "name": "custom_expand_layer_582_insert", "inbound_nodes": [[["global_average_pooling2d_553_insert", 0, 0, {}]]]}, {"class_name": "CustomExpandLayer", "config": {"name": "custom_expand_layer_583_insert", "trainable": true, "dtype": "float32", "axis": 1}, "name": "custom_expand_layer_583_insert", "inbound_nodes": [[["custom_expand_layer_582_insert", 0, 0, {}]]]}, {"class_name": "Conv2D", "config": {"name": "conv2d_1733_insert", "trainable": true, "dtype": "float32", "filters": 7, "kernel_size": [3, 3], "strides": [1, 1], "padding": "same", "data_format": "channels_last", "dilation_rate": [1, 1], "groups": 1, "activation": "linear", "use_bias": false, "kernel_initializer": {"class_name": "VarianceScaling", "config": {"scale": 1.0, "mode": "fan_avg", "distribution": "uniform", "seed": null}}, "bias_initializer": {"class_name": "Zeros", "config": {}}, "kernel_regularizer": null, "bias_regularizer": null, "activity_regularizer": null, "kernel_constraint": null, "bias_constraint": null}, "name": "conv2d_1733_insert", "inbound_nodes": [[["custom_expand_layer_583_insert", 0, 0, {}]]]}, {"class_name": "CustomPadLayer", "config": {"name": "custom_pad_layer_334", "trainable": true, "dtype": "float32", "padding": [[9, 9], [7, 8], [6, 6]], "constant_values": 2}, "name": "custom_pad_layer_334", "inbound_nodes": [[["conv2d_1733_insert", 0, 0, {}]]]}, {"class_name": "Conv2D", "config": {"name": "conv2d_1735_insert", "trainable": true, "dtype": "float32", "filters": 2, "kernel_size": [1, 1], "strides": [1, 1], "padding": "valid", "data_format": "channels_last", "dilation_rate": [1, 1], "groups": 1, "activation": "linear", "use_bias": false, "kernel_initializer": {"class_name": "VarianceScaling", "config": {"scale": 1.0, "mode": "fan_avg", "distribution": "uniform", "seed": null}}, "bias_initializer": {"class_name": "Zeros", "config": {}}, "kernel_regularizer": null, "bias_regularizer": null, "activity_regularizer": null, "kernel_constraint": null, "bias_constraint": null}, "name": "conv2d_1735_insert", "inbound_nodes": [[["custom_pad_layer_334", 0, 0, {}]]]}, {"class_name": "CustomPadLayer", "config": {"name": "custom_pad_layer_335", "trainable": true, "dtype": "float32", "padding": [[0, 0], [0, 0], [8, 8]], "constant_values": 2}, "name": "custom_pad_layer_335", "inbound_nodes": [[["conv2d_1735_insert", 0, 0, {}]]]}, {"class_name": "CustomCropLayer", "config": {"name": "custom_crop_layer_247", "trainable": true, "dtype": "float32", "cropping": [[0, 1], [3, 3], [0, 0]]}, "name": "custom_crop_layer_247", "inbound_nodes": [[["custom_pad_layer_335", 0, 0, {}]]]}, {"class_name": "Conv2D", "config": {"name": "conv2d_1737_insert", "trainable": true, "dtype": "float32", "filters": 6, "kernel_size": [3, 3], "strides": [1, 1], "padding": "same", "data_format": "channels_last", "dilation_rate": [1, 1], "groups": 1, "activation": "linear", "use_bias": false, "kernel_initializer": {"class_name": "VarianceScaling", "config": {"scale": 1.0, "mode": "fan_avg", "distribution": "uniform", "seed": null}}, "bias_initializer": {"class_name": "Zeros", "config": {}}, "kernel_regularizer": null, "bias_regularizer": null, "activity_regularizer": null, "kernel_constraint": null, "bias_constraint": null}, "name": "conv2d_1737_insert", "inbound_nodes": [[["custom_crop_layer_247", 0, 0, {}]]]}, {"class_name": "CustomPadLayer", "config": {"name": "custom_pad_layer_336", "trainable": true, "dtype": "float32", "padding": [[0, 0], [0, 1], [0, 0]], "constant_values": 2}, "name": "custom_pad_layer_336", "inbound_nodes": [[["conv2d_1737_insert", 0, 0, {}]]]}, {"class_name": "CustomCropLayer", "config": {"name": "custom_crop_layer_248", "trainable": true, "dtype": "float32", "cropping": [[2, 2], [0, 0], [0, 1]]}, "name": "custom_crop_layer_248", "inbound_nodes": [[["custom_pad_layer_336", 0, 0, {}]]]}, {"class_name": "AveragePooling2D", "config": {"name": "average_pooling2d_423_insert", "trainable": true, "dtype": "float32", "pool_size": [2, 2], "padding": "valid", "strides": [2, 2], "data_format": "channels_last"}, "name": "average_pooling2d_423_insert", "inbound_nodes": [[["custom_crop_layer_248", 0, 0, {}]]]}, {"class_name": "CustomPadLayer", "config": {"name": "custom_pad_layer_337", "trainable": true, "dtype": "float32", "padding": [[1, 2], [1, 1], [3, 3]], "constant_values": 2}, "name": "custom_pad_layer_337", "inbound_nodes": [[["average_pooling2d_423_insert", 0, 0, {}]]]}, {"class_name": "AveragePooling2D", "config": {"name": "average_pooling2d_425_insert", "trainable": true, "dtype": "float32", "pool_size": [2, 2], "padding": "valid", "strides": [2, 2], "data_format": "channels_last"}, "name": "average_pooling2d_425_insert", "inbound_nodes": [[["custom_pad_layer_337", 0, 0, {}]]]}, {"class_name": "CustomPadLayer", "config": {"name": "custom_pad_layer_338", "trainable": true, "dtype": "float32", "padding": [[5, 5], [1, 1], [2, 2]], "constant_values": 2}, "name": "custom_pad_layer_338", "inbound_nodes": [[["average_pooling2d_425_insert", 0, 0, {}]]]}, {"class_name": "BatchNormalization", "config": {"name": "batch_normalization_765_insert_1", "trainable": true, "dtype": "float32", "axis": [3], "momentum": 0.99, "epsilon": 1.001e-05, "center": true, "scale": true, "beta_initializer": {"class_name": "Zeros", "config": {}}, "gamma_initializer": {"class_name": "Ones", "config": {}}, "moving_mean_initializer": {"class_name": "Zeros", "config": {}}, "moving_variance_initializer": {"class_name": "Ones", "config": {}}, "beta_regularizer": null, "gamma_regularizer": null, "beta_constraint": null, "gamma_constraint": null}, "name": "batch_normalization_765_insert_1", "inbound_nodes": [[["custom_pad_layer_338", 0, 0, {}]]]}, {"class_name": "CustomPadLayer", "config": {"name": "custom_pad_layer_339", "trainable": true, "dtype": "float32", "padding": [[2, 2], [2, 2], [0, 0]], "constant_values": 2}, "name": "custom_pad_layer_339", "inbound_nodes": [[["batch_normalization_765_insert_1", 0, 0, {}]]]}, {"class_name": "CustomCropLayer", "config": {"name": "custom_crop_layer_249", "trainable": true, "dtype": "float32", "cropping": [[0, 0], [0, 0], [0, 1]]}, "name": "custom_crop_layer_249", "inbound_nodes": [[["custom_pad_layer_339", 0, 0, {}]]]}, {"class_name": "BatchNormalization", "config": {"name": "batch_normalization_767_insert_1", "trainable": true, "dtype": "float32", "axis": [3], "momentum": 0.99, "epsilon": 1.001e-05, "center": true, "scale": true, "beta_initializer": {"class_name": "Zeros", "config": {}}, "gamma_initializer": {"class_name": "Ones", "config": {}}, "moving_mean_initializer": {"class_name": "Zeros", "config": {}}, "moving_variance_initializer": {"class_name": "Ones", "config": {}}, "beta_regularizer": null, "gamma_regularizer": null, "beta_constraint": null, "gamma_constraint": null}, "name": "batch_normalization_767_insert_1", "inbound_nodes": [[["custom_crop_layer_249", 0, 0, {}]]]}, {"class_name": "CustomCropLayer", "config": {"name": "custom_crop_layer_250", "trainable": true, "dtype": "float32", "cropping": [[2, 3], [1, 2], [1, 2]]}, "name": "custom_crop_layer_250", "inbound_nodes": [[["batch_normalization_767_insert_1", 0, 0, {}]]]}, {"class_name": "BatchNormalization", "config": {"name": "batch_normalization_769_insert", "trainable": true, "dtype": "float32", "axis": [3], "momentum": 0.99, "epsilon": 1.001e-05, "center": true, "scale": true, "beta_initializer": {"class_name": "Zeros", "config": {}}, "gamma_initializer": {"class_name": "Ones", "config": {}}, "moving_mean_initializer": {"class_name": "Zeros", "config": {}}, "moving_variance_initializer": {"class_name": "Ones", "config": {}}, "beta_regularizer": null, "gamma_regularizer": null, "beta_constraint": null, "gamma_constraint": null}, "name": "batch_normalization_769_insert", "inbound_nodes": [[["custom_crop_layer_250", 0, 0, {}]]]}, {"class_name": "CustomPadLayer", "config": {"name": "custom_pad_layer_340", "trainable": true, "dtype": "float32", "padding": [[0, 0], [1, 1], [2, 3]], "constant_values": 2}, "name": "custom_pad_layer_340", "inbound_nodes": [[["batch_normalization_769_insert", 0, 0, {}]]]}, {"class_name": "MaxPooling2D", "config": {"name": "max_pooling2d_585_insert_2", "trainable": true, "dtype": "float32", "pool_size": [3, 3], "padding": "valid", "strides": [2, 2], "data_format": "channels_last"}, "name": "max_pooling2d_585_insert_2", "inbound_nodes": [[["zero_padding2d_145_insert", 0, 0, {}]]]}, {"class_name": "AveragePooling2D", "config": {"name": "average_pooling2d_421_insert_2", "trainable": true, "dtype": "float32", "pool_size": [2, 2], "padding": "valid", "strides": [2, 2], "data_format": "channels_last"}, "name": "average_pooling2d_421_insert_2", "inbound_nodes": [[["conv2d_1729_insert", 0, 0, {}]]]}, {"class_name": "BatchNormalization", "config": {"name": "batch_normalization_765_insert_2", "trainable": true, "dtype": "float32", "axis": [3], "momentum": 0.99, "epsilon": 1.001e-05, "center": true, "scale": true, "beta_initializer": {"class_name": "Zeros", "config": {}}, "gamma_initializer": {"class_name": "Ones", "config": {}}, "moving_mean_initializer": {"class_name": "Zeros", "config": {}}, "moving_variance_initializer": {"class_name": "Ones", "config": {}}, "beta_regularizer": null, "gamma_regularizer": null, "beta_constraint": null, "gamma_constraint": null}, "name": "batch_normalization_765_insert_2", "inbound_nodes": [[["max_pooling2d_585_insert_1", 0, 0, {}]]]}, {"class_name": "BatchNormalization", "config": {"name": "batch_normalization_771_insert", "trainable": true, "dtype": "float32", "axis": [3], "momentum": 0.99, "epsilon": 1.001e-05, "center": true, "scale": true, "beta_initializer": {"class_name": "Zeros", "config": {}}, "gamma_initializer": {"class_name": "Ones", "config": {}}, "moving_mean_initializer": {"class_name": "Zeros", "config": {}}, "moving_variance_initializer": {"class_name": "Ones", "config": {}}, "beta_regularizer": null, "gamma_regularizer": null, "beta_constraint": null, "gamma_constraint": null}, "name": "batch_normalization_771_insert", "inbound_nodes": [[["custom_pad_layer_340", 0, 0, {}]]]}, {"class_name": "Cropping2D", "config": {"name": "cropping2d_33", "trainable": true, "dtype": "float32", "cropping": [[9, 9], [9, 9]], "data_format": "channels_last"}, "name": "cropping2d_33", "inbound_nodes": [[["max_pooling2d_585_insert_2", 0, 0, {}]]]}, {"class_name": "BatchNormalization", "config": {"name": "batch_normalization_767_insert_2", "trainable": true, "dtype": "float32", "axis": [3], "momentum": 0.99, "epsilon": 1.001e-05, "center": true, "scale": true, "beta_initializer": {"class_name": "Zeros", "config": {}}, "gamma_initializer": {"class_name": "Ones", "config": {}}, "moving_mean_initializer": {"class_name": "Zeros", "config": {}}, "moving_variance_initializer": {"class_name": "Ones", "config": {}}, "beta_regularizer": null, "gamma_regularizer": null, "beta_constraint": null, "gamma_constraint": null}, "name": "batch_normalization_767_insert_2", "inbound_nodes": [[["average_pooling2d_423_insert", 0, 0, {}]]]}, {"class_name": "Cropping2D", "config": {"name": "cropping2d_34", "trainable": true, "dtype": "float32", "cropping": [[23, 23], [23, 23]], "data_format": "channels_last"}, "name": "cropping2d_34", "inbound_nodes": [[["average_pooling2d_421_insert_2", 0, 0, {}]]]}, {"class_name": "Cropping2D", "config": {"name": "cropping2d_35", "trainable": true, "dtype": "float32", "cropping": [[22, 22], [22, 22]], "data_format": "channels_last"}, "name": "cropping2d_35", "inbound_nodes": [[["batch_normalization_765_insert_2", 0, 0, {}]]]}], "input_layers": [["input_340", 0, 0]], "output_layers": [["batch_normalization_771_insert", 0, 0], ["cropping2d_33", 0, 0], ["batch_normalization_767_insert_2", 0, 0], ["cropping2d_34", 0, 0], ["cropping2d_35", 0, 0]]}, "keras_version": "2.7.0", "backend": "tensorflow"}