{"class_name": "Functional", "config": {"name": "model_2733", "layers": [{"class_name": "InputLayer", "config": {"batch_input_shape": [null, 224, 224, 3], "dtype": "float32", "sparse": false, "ragged": false, "name": "input_347"}, "name": "input_347", "inbound_nodes": []}, {"class_name": "ZeroPadding2D", "config": {"name": "conv1_pad", "trainable": true, "dtype": "float32", "padding": [[3, 3], [3, 3]], "data_format": "channels_last"}, "name": "conv1_pad", "inbound_nodes": [[["input_347", 0, 0, {}]]]}, {"class_name": "BatchNormalization", "config": {"name": "batch_normalization_797_insert", "trainable": true, "dtype": "float32", "axis": [3], "momentum": 0.99, "epsilon": 1.001e-05, "center": true, "scale": true, "beta_initializer": {"class_name": "Zeros", "config": {}}, "gamma_initializer": {"class_name": "Ones", "config": {}}, "moving_mean_initializer": {"class_name": "Zeros", "config": {}}, "moving_variance_initializer": {"class_name": "Ones", "config": {}}, "beta_regularizer": null, "gamma_regularizer": null, "beta_constraint": null, "gamma_constraint": null}, "name": "batch_normalization_797_insert", "inbound_nodes": [[["conv1_pad", 0, 0, {}]]]}, {"class_name": "ZeroPadding2D", "config": {"name": "zero_padding2d_149_insert", "trainable": true, "dtype": "float32", "padding": [[1, 1], [1, 1]], "data_format": "channels_last"}, "name": "zero_padding2d_149_insert", "inbound_nodes": [[["batch_normalization_797_insert", 0, 0, {}]]]}, {"class_name": "MaxPooling2D", "config": {"name": "max_pooling2d_611_insert", "trainable": true, "dtype": "float32", "pool_size": [3, 3], "padding": "valid", "strides": [2, 2], "data_format": "channels_last"}, "name": "max_pooling2d_611_insert", "inbound_nodes": [[["zero_padding2d_149_insert", 0, 0, {}]]]}, {"class_name": "Conv2D", "config": {"name": "conv2d_1793_insert", "trainable": true, "dtype": "float32", "filters": 8, "kernel_size": [1, 1], "strides": [2, 2], "padding": "valid", "data_format": "channels_last", "dilation_rate": [1, 1], "groups": 1, "activation": "linear", "use_bias": true, "kernel_initializer": {"class_name": "VarianceScaling", "config": {"scale": 1.0, "mode": "fan_avg", "distribution": "uniform", "seed": null}}, "bias_initializer": {"class_name": "Zeros", "config": {}}, "kernel_regularizer": null, "bias_regularizer": null, "activity_regularizer": null, "kernel_constraint": null, "bias_constraint": null}, "name": "conv2d_1793_insert", "inbound_nodes": [[["max_pooling2d_611_insert", 0, 0, {}]]]}, {"class_name": "Conv2D", "config": {"name": "conv2d_1795_insert", "trainable": true, "dtype": "float32", "filters": 2, "kernel_size": [1, 1], "strides": [1, 1], "padding": "valid", "data_format": "channels_last", "dilation_rate": [1, 1], "groups": 1, "activation": "linear", "use_bias": true, "kernel_initializer": {"class_name": "VarianceScaling", "config": {"scale": 1.0, "mode": "fan_avg", "distribution": "uniform", "seed": null}}, "bias_initializer": {"class_name": "Zeros", "config": {}}, "kernel_regularizer": null, "bias_regularizer": null, "activity_regularizer": null, "kernel_constraint": null, "bias_constraint": null}, "name": "conv2d_1795_insert", "inbound_nodes": [[["conv2d_1793_insert", 0, 0, {}]]]}, {"class_name": "Conv2D", "config": {"name": "conv2d_1797_insert_1", "trainable": true, "dtype": "float32", "filters": 3, "kernel_size": [7, 7], "strides": [2, 2], "padding": "valid", "data_format": "channels_last", "dilation_rate": [1, 1], "groups": 1, "activation": "linear", "use_bias": true, "kernel_initializer": {"class_name": "VarianceScaling", "config": {"scale": 1.0, "mode": "fan_avg", "distribution": "uniform", "seed": null}}, "bias_initializer": {"class_name": "Zeros", "config": {}}, "kernel_regularizer": null, "bias_regularizer": null, "activity_regularizer": null, "kernel_constraint": null, "bias_constraint": null}, "name": "conv2d_1797_insert_1", "inbound_nodes": [[["conv2d_1795_insert", 0, 0, {}]]]}, {"class_name": "GlobalAveragePooling2D", "config": {"name": "global_average_pooling2d_567_insert", "trainable": true, "dtype": "float32", "data_format": "channels_last", "keepdims": false}, "name": "global_average_pooling2d_567_insert", "inbound_nodes": [[["conv2d_1797_insert_1", 0, 0, {}]]]}, {"class_name": "CustomExpandLayer", "config": {"name": "custom_expand_layer_596_insert", "trainable": true, "dtype": "float32", "axis": 1}, "name": "custom_expand_layer_596_insert", "inbound_nodes": [[["global_average_pooling2d_567_insert", 0, 0, {}]]]}, {"class_name": "CustomExpandLayer", "config": {"name": "custom_expand_layer_597_insert", "trainable": true, "dtype": "float32", "axis": 1}, "name": "custom_expand_layer_597_insert", "inbound_nodes": [[["custom_expand_layer_596_insert", 0, 0, {}]]]}, {"class_name": "Conv2D", "config": {"name": "conv2d_1799_insert", "trainable": true, "dtype": "float32", "filters": 9, "kernel_size": [3, 3], "strides": [1, 1], "padding": "same", "data_format": "channels_last", "dilation_rate": [1, 1], "groups": 1, "activation": "linear", "use_bias": true, "kernel_initializer": {"class_name": "VarianceScaling", "config": {"scale": 1.0, "mode": "fan_avg", "distribution": "uniform", "seed": null}}, "bias_initializer": {"class_name": "Zeros", "config": {}}, "kernel_regularizer": null, "bias_regularizer": null, "activity_regularizer": null, "kernel_constraint": null, "bias_constraint": null}, "name": "conv2d_1799_insert", "inbound_nodes": [[["custom_expand_layer_597_insert", 0, 0, {}]]]}, {"class_name": "CustomPadLayer", "config": {"name": "custom_pad_layer_358", "trainable": true, "dtype": "float32", "padding": [[7, 8], [5, 5], [0, 0]], "constant_values": 2}, "name": "custom_pad_layer_358", "inbound_nodes": [[["conv2d_1799_insert", 0, 0, {}]]]}, {"class_name": "CustomCropLayer", "config": {"name": "custom_crop_layer_264", "trainable": true, "dtype": "float32", "cropping": [[0, 0], [0, 0], [0, 1]]}, "name": "custom_crop_layer_264", "inbound_nodes": [[["custom_pad_layer_358", 0, 0, {}]]]}, {"class_name": "BatchNormalization", "config": {"name": "batch_normalization_799_insert", "trainable": true, "dtype": "float32", "axis": [3], "momentum": 0.99, "epsilon": 1.001e-05, "center": true, "scale": true, "beta_initializer": {"class_name": "Zeros", "config": {}}, "gamma_initializer": {"class_name": "Ones", "config": {}}, "moving_mean_initializer": {"class_name": "Zeros", "config": {}}, "moving_variance_initializer": {"class_name": "Ones", "config": {}}, "beta_regularizer": null, "gamma_regularizer": null, "beta_constraint": null, "gamma_constraint": null}, "name": "batch_normalization_799_insert", "inbound_nodes": [[["custom_crop_layer_264", 0, 0, {}]]]}, {"class_name": "CustomPadLayer", "config": {"name": "custom_pad_layer_359", "trainable": true, "dtype": "float32", "padding": [[0, 1], [3, 4], [2, 2]], "constant_values": 2}, "name": "custom_pad_layer_359", "inbound_nodes": [[["batch_normalization_799_insert", 0, 0, {}]]]}, {"class_name": "BatchNormalization", "config": {"name": "batch_normalization_801_insert_1_merge1", "trainable": true, "dtype": "float32", "axis": [3], "momentum": 0.99, "epsilon": 1.001e-05, "center": true, "scale": true, "beta_initializer": {"class_name": "Zeros", "config": {}}, "gamma_initializer": {"class_name": "Ones", "config": {}}, "moving_mean_initializer": {"class_name": "Zeros", "config": {}}, "moving_variance_initializer": {"class_name": "Ones", "config": {}}, "beta_regularizer": null, "gamma_regularizer": null, "beta_constraint": null, "gamma_constraint": null}, "name": "batch_normalization_801_insert_1_merge1", "inbound_nodes": [[["custom_pad_layer_359", 0, 0, {}]]]}, {"class_name": "Add", "config": {"name": "add_17_copy_ML", "trainable": true, "dtype": "float32"}, "name": "add_17_copy_ML", "inbound_nodes": [[["batch_normalization_801_insert_1_merge1", 0, 0, {}], ["custom_pad_layer_359", 0, 0, {}]]]}, {"class_name": "CustomCropLayer", "config": {"name": "custom_crop_layer_265", "trainable": true, "dtype": "float32", "cropping": [[6, 6], [1, 2], [3, 3]]}, "name": "custom_crop_layer_265", "inbound_nodes": [[["add_17_copy_ML", 0, 0, {}]]]}, {"class_name": "BatchNormalization", "config": {"name": "batch_normalization_803_insert", "trainable": true, "dtype": "float32", "axis": [3], "momentum": 0.99, "epsilon": 1.001e-05, "center": true, "scale": true, "beta_initializer": {"class_name": "Zeros", "config": {}}, "gamma_initializer": {"class_name": "Ones", "config": {}}, "moving_mean_initializer": {"class_name": "Zeros", "config": {}}, "moving_variance_initializer": {"class_name": "Ones", "config": {}}, "beta_regularizer": null, "gamma_regularizer": null, "beta_constraint": null, "gamma_constraint": null}, "name": "batch_normalization_803_insert", "inbound_nodes": [[["custom_crop_layer_265", 0, 0, {}]]]}, {"class_name": "CustomPadLayer", "config": {"name": "custom_pad_layer_360", "trainable": true, "dtype": "float32", "padding": [[3, 4], [0, 0], [5, 6]], "constant_values": 2}, "name": "custom_pad_layer_360", "inbound_nodes": [[["batch_normalization_803_insert", 0, 0, {}]]]}, {"class_name": "CustomCropLayer", "config": {"name": "custom_crop_layer_266", "trainable": true, "dtype": "float32", "cropping": [[0, 0], [1, 1], [0, 0]]}, "name": "custom_crop_layer_266", "inbound_nodes": [[["custom_pad_layer_360", 0, 0, {}]]]}, {"class_name": "BatchNormalization", "config": {"name": "batch_normalization_805_insert", "trainable": true, "dtype": "float32", "axis": [3], "momentum": 0.99, "epsilon": 1.001e-05, "center": true, "scale": true, "beta_initializer": {"class_name": "Zeros", "config": {}}, "gamma_initializer": {"class_name": "Ones", "config": {}}, "moving_mean_initializer": {"class_name": "Zeros", "config": {}}, "moving_variance_initializer": {"class_name": "Ones", "config": {}}, "beta_regularizer": null, "gamma_regularizer": null, "beta_constraint": null, "gamma_constraint": null}, "name": "batch_normalization_805_insert", "inbound_nodes": [[["custom_crop_layer_266", 0, 0, {}]]]}, {"class_name": "CustomPadLayer", "config": {"name": "custom_pad_layer_361", "trainable": true, "dtype": "float32", "padding": [[0, 1], [0, 0], [0, 0]], "constant_values": 2}, "name": "custom_pad_layer_361", "inbound_nodes": [[["batch_normalization_805_insert", 0, 0, {}]]]}, {"class_name": "CustomCropLayer", "config": {"name": "custom_crop_layer_267", "trainable": true, "dtype": "float32", "cropping": [[0, 0], [2, 3], [4, 4]]}, "name": "custom_crop_layer_267", "inbound_nodes": [[["custom_pad_layer_361", 0, 0, {}]]]}, {"class_name": "Conv2D", "config": {"name": "conv2d_1797_insert_2", "trainable": true, "dtype": "float32", "filters": 3, "kernel_size": [7, 7], "strides": [2, 2], "padding": "valid", "data_format": "channels_last", "dilation_rate": [1, 1], "groups": 1, "activation": "linear", "use_bias": true, "kernel_initializer": {"class_name": "VarianceScaling", "config": {"scale": 1.0, "mode": "fan_avg", "distribution": "uniform", "seed": null}}, "bias_initializer": {"class_name": "Zeros", "config": {}}, "kernel_regularizer": null, "bias_regularizer": null, "activity_regularizer": null, "kernel_constraint": null, "bias_constraint": null}, "name": "conv2d_1797_insert_2", "inbound_nodes": [[["zero_padding2d_149_insert", 0, 0, {}]]]}, {"class_name": "BatchNormalization", "config": {"name": "batch_normalization_801_insert_2", "trainable": true, "dtype": "float32", "axis": [3], "momentum": 0.99, "epsilon": 1.001e-05, "center": true, "scale": true, "beta_initializer": {"class_name": "Zeros", "config": {}}, "gamma_initializer": {"class_name": "Ones", "config": {}}, "moving_mean_initializer": {"class_name": "Zeros", "config": {}}, "moving_variance_initializer": {"class_name": "Ones", "config": {}}, "beta_regularizer": null, "gamma_regularizer": null, "beta_constraint": null, "gamma_constraint": null}, "name": "batch_normalization_801_insert_2", "inbound_nodes": [[["conv2d_1797_insert_1", 0, 0, {}]]]}, {"class_name": "Conv2D", "config": {"name": "conv2d_1801_insert", "trainable": true, "dtype": "float32", "filters": 9, "kernel_size": [1, 1], "strides": [2, 2], "padding": "valid", "data_format": "channels_last", "dilation_rate": [1, 1], "groups": 1, "activation": "linear", "use_bias": true, "kernel_initializer": {"class_name": "VarianceScaling", "config": {"scale": 1.0, "mode": "fan_avg", "distribution": "uniform", "seed": null}}, "bias_initializer": {"class_name": "Zeros", "config": {}}, "kernel_regularizer": null, "bias_regularizer": null, "activity_regularizer": null, "kernel_constraint": null, "bias_constraint": null}, "name": "conv2d_1801_insert", "inbound_nodes": [[["custom_crop_layer_267", 0, 0, {}]]]}, {"class_name": "Cropping2D", "config": {"name": "cropping2d_36", "trainable": true, "dtype": "float32", "cropping": [[51, 51], [51, 51]], "data_format": "channels_last"}, "name": "cropping2d_36", "inbound_nodes": [[["conv2d_1797_insert_2", 0, 0, {}]]]}, {"class_name": "Cropping2D", "config": {"name": "cropping2d_37", "trainable": true, "dtype": "float32", "cropping": [[8, 8], [8, 8]], "data_format": "channels_last"}, "name": "cropping2d_37", "inbound_nodes": [[["batch_normalization_801_insert_2", 0, 0, {}]]]}], "input_layers": [["input_347", 0, 0]], "output_layers": [["conv2d_1801_insert", 0, 0], ["cropping2d_36", 0, 0], ["cropping2d_37", 0, 0]]}, "keras_version": "2.7.0", "backend": "tensorflow"}