{"class_name": "Functional", "config": {"name": "model_4197", "layers": [{"class_name": "InputLayer", "config": {"batch_input_shape": [null, 299, 299, 3], "dtype": "float32", "sparse": false, "ragged": false, "name": "input_542"}, "name": "input_542", "inbound_nodes": []}, {"class_name": "Conv2D", "config": {"name": "conv2d_1", "trainable": true, "dtype": "float32", "filters": 32, "kernel_size": [3, 3], "strides": [2, 2], "padding": "valid", "data_format": "channels_last", "dilation_rate": [1, 1], "groups": 1, "activation": "linear", "use_bias": false, "kernel_initializer": {"class_name": "VarianceScaling", "config": {"scale": 1.0, "mode": "fan_avg", "distribution": "uniform", "seed": null}}, "bias_initializer": {"class_name": "Zeros", "config": {}}, "kernel_regularizer": null, "bias_regularizer": null, "activity_regularizer": null, "kernel_constraint": null, "bias_constraint": null}, "name": "conv2d_1", "inbound_nodes": [[["input_542", 0, 0, {}]]]}, {"class_name": "Conv2D", "config": {"name": "conv2d_2777_insert", "trainable": true, "dtype": "float32", "filters": 3, "kernel_size": [7, 1], "strides": [1, 1], "padding": "same", "data_format": "channels_last", "dilation_rate": [1, 1], "groups": 1, "activation": "linear", "use_bias": false, "kernel_initializer": {"class_name": "VarianceScaling", "config": {"scale": 1.0, "mode": "fan_avg", "distribution": "uniform", "seed": null}}, "bias_initializer": {"class_name": "Zeros", "config": {}}, "kernel_regularizer": null, "bias_regularizer": null, "activity_regularizer": null, "kernel_constraint": null, "bias_constraint": null}, "name": "conv2d_2777_insert", "inbound_nodes": [[["conv2d_1", 0, 0, {}]]]}, {"class_name": "MaxPooling2D", "config": {"name": "max_pooling2d_963_insert", "trainable": true, "dtype": "float32", "pool_size": [3, 3], "padding": "valid", "strides": [2, 2], "data_format": "channels_last"}, "name": "max_pooling2d_963_insert", "inbound_nodes": [[["conv2d_2777_insert", 0, 0, {}]]]}, {"class_name": "BatchNormalization", "config": {"name": "batch_normalization_1223_insert", "trainable": true, "dtype": "float32", "axis": [3], "momentum": 0.99, "epsilon": 0.001, "center": true, "scale": false, "beta_initializer": {"class_name": "Zeros", "config": {}}, "gamma_initializer": {"class_name": "Ones", "config": {}}, "moving_mean_initializer": {"class_name": "Zeros", "config": {}}, "moving_variance_initializer": {"class_name": "Ones", "config": {}}, "beta_regularizer": null, "gamma_regularizer": null, "beta_constraint": null, "gamma_constraint": null}, "name": "batch_normalization_1223_insert", "inbound_nodes": [[["max_pooling2d_963_insert", 0, 0, {}]]]}, {"class_name": "AveragePooling2D", "config": {"name": "average_pooling2d_675_insert", "trainable": true, "dtype": "float32", "pool_size": [3, 3], "padding": "same", "strides": [1, 1], "data_format": "channels_last"}, "name": "average_pooling2d_675_insert", "inbound_nodes": [[["batch_normalization_1223_insert", 0, 0, {}]]]}, {"class_name": "Conv2D", "config": {"name": "conv2d_2779_insert", "trainable": true, "dtype": "float32", "filters": 7, "kernel_size": [1, 1], "strides": [1, 1], "padding": "valid", "data_format": "channels_last", "dilation_rate": [1, 1], "groups": 1, "activation": "linear", "use_bias": false, "kernel_initializer": {"class_name": "VarianceScaling", "config": {"scale": 1.0, "mode": "fan_avg", "distribution": "uniform", "seed": null}}, "bias_initializer": {"class_name": "Zeros", "config": {}}, "kernel_regularizer": null, "bias_regularizer": null, "activity_regularizer": null, "kernel_constraint": null, "bias_constraint": null}, "name": "conv2d_2779_insert", "inbound_nodes": [[["average_pooling2d_675_insert", 0, 0, {}]]]}, {"class_name": "Conv2D", "config": {"name": "conv2d_2781_insert", "trainable": true, "dtype": "float32", "filters": 9, "kernel_size": [1, 7], "strides": [1, 1], "padding": "same", "data_format": "channels_last", "dilation_rate": [1, 1], "groups": 1, "activation": "linear", "use_bias": false, "kernel_initializer": {"class_name": "VarianceScaling", "config": {"scale": 1.0, "mode": "fan_avg", "distribution": "uniform", "seed": null}}, "bias_initializer": {"class_name": "Zeros", "config": {}}, "kernel_regularizer": null, "bias_regularizer": null, "activity_regularizer": null, "kernel_constraint": null, "bias_constraint": null}, "name": "conv2d_2781_insert", "inbound_nodes": [[["conv2d_2779_insert", 0, 0, {}]]]}, {"class_name": "Conv2D", "config": {"name": "conv2d_2783_insert", "trainable": true, "dtype": "float32", "filters": 2, "kernel_size": [3, 3], "strides": [1, 1], "padding": "valid", "data_format": "channels_last", "dilation_rate": [1, 1], "groups": 1, "activation": "linear", "use_bias": false, "kernel_initializer": {"class_name": "VarianceScaling", "config": {"scale": 1.0, "mode": "fan_avg", "distribution": "uniform", "seed": null}}, "bias_initializer": {"class_name": "Zeros", "config": {}}, "kernel_regularizer": null, "bias_regularizer": null, "activity_regularizer": null, "kernel_constraint": null, "bias_constraint": null}, "name": "conv2d_2783_insert", "inbound_nodes": [[["conv2d_2781_insert", 0, 0, {}]]]}, {"class_name": "GlobalAveragePooling2D", "config": {"name": "global_average_pooling2d_897_insert", "trainable": true, "dtype": "float32", "data_format": "channels_last", "keepdims": false}, "name": "global_average_pooling2d_897_insert", "inbound_nodes": [[["conv2d_2783_insert", 0, 0, {}]]]}, {"class_name": "CustomExpandLayer", "config": {"name": "custom_expand_layer_923_insert", "trainable": true, "dtype": "float32", "axis": 1}, "name": "custom_expand_layer_923_insert", "inbound_nodes": [[["global_average_pooling2d_897_insert", 0, 0, {}]]]}, {"class_name": "CustomExpandLayer", "config": {"name": "custom_expand_layer_924_insert", "trainable": true, "dtype": "float32", "axis": 1}, "name": "custom_expand_layer_924_insert", "inbound_nodes": [[["custom_expand_layer_923_insert", 0, 0, {}]]]}, {"class_name": "Conv2D", "config": {"name": "conv2d_2785_insert", "trainable": true, "dtype": "float32", "filters": 5, "kernel_size": [1, 1], "strides": [1, 1], "padding": "same", "data_format": "channels_last", "dilation_rate": [1, 1], "groups": 1, "activation": "linear", "use_bias": false, "kernel_initializer": {"class_name": "VarianceScaling", "config": {"scale": 1.0, "mode": "fan_avg", "distribution": "uniform", "seed": null}}, "bias_initializer": {"class_name": "Zeros", "config": {}}, "kernel_regularizer": null, "bias_regularizer": null, "activity_regularizer": null, "kernel_constraint": null, "bias_constraint": null}, "name": "conv2d_2785_insert", "inbound_nodes": [[["custom_expand_layer_924_insert", 0, 0, {}]]]}, {"class_name": "Conv2D", "config": {"name": "conv2d_2787_insert", "trainable": true, "dtype": "float32", "filters": 9, "kernel_size": [5, 5], "strides": [1, 1], "padding": "same", "data_format": "channels_last", "dilation_rate": [1, 1], "groups": 1, "activation": "linear", "use_bias": false, "kernel_initializer": {"class_name": "VarianceScaling", "config": {"scale": 1.0, "mode": "fan_avg", "distribution": "uniform", "seed": null}}, "bias_initializer": {"class_name": "Zeros", "config": {}}, "kernel_regularizer": null, "bias_regularizer": null, "activity_regularizer": null, "kernel_constraint": null, "bias_constraint": null}, "name": "conv2d_2787_insert", "inbound_nodes": [[["conv2d_2785_insert", 0, 0, {}]]]}, {"class_name": "Conv2D", "config": {"name": "conv2d_2789_insert_1", "trainable": true, "dtype": "float32", "filters": 7, "kernel_size": [3, 1], "strides": [1, 1], "padding": "same", "data_format": "channels_last", "dilation_rate": [1, 1], "groups": 1, "activation": "linear", "use_bias": false, "kernel_initializer": {"class_name": "VarianceScaling", "config": {"scale": 1.0, "mode": "fan_avg", "distribution": "uniform", "seed": null}}, "bias_initializer": {"class_name": "Zeros", "config": {}}, "kernel_regularizer": null, "bias_regularizer": null, "activity_regularizer": null, "kernel_constraint": null, "bias_constraint": null}, "name": "conv2d_2789_insert_1", "inbound_nodes": [[["conv2d_2787_insert", 0, 0, {}]]]}, {"class_name": "Conv2D", "config": {"name": "conv2d_2791_insert", "trainable": true, "dtype": "float32", "filters": 6, "kernel_size": [1, 3], "strides": [1, 1], "padding": "same", "data_format": "channels_last", "dilation_rate": [1, 1], "groups": 1, "activation": "linear", "use_bias": false, "kernel_initializer": {"class_name": "VarianceScaling", "config": {"scale": 1.0, "mode": "fan_avg", "distribution": "uniform", "seed": null}}, "bias_initializer": {"class_name": "Zeros", "config": {}}, "kernel_regularizer": null, "bias_regularizer": null, "activity_regularizer": null, "kernel_constraint": null, "bias_constraint": null}, "name": "conv2d_2791_insert", "inbound_nodes": [[["conv2d_2789_insert_1", 0, 0, {}]]]}, {"class_name": "Conv2D", "config": {"name": "conv2d_2793_insert", "trainable": true, "dtype": "float32", "filters": 9, "kernel_size": [3, 3], "strides": [1, 1], "padding": "same", "data_format": "channels_last", "dilation_rate": [1, 1], "groups": 1, "activation": "linear", "use_bias": false, "kernel_initializer": {"class_name": "VarianceScaling", "config": {"scale": 1.0, "mode": "fan_avg", "distribution": "uniform", "seed": null}}, "bias_initializer": {"class_name": "Zeros", "config": {}}, "kernel_regularizer": null, "bias_regularizer": null, "activity_regularizer": null, "kernel_constraint": null, "bias_constraint": null}, "name": "conv2d_2793_insert", "inbound_nodes": [[["conv2d_2791_insert", 0, 0, {}]]]}, {"class_name": "CustomPadLayer", "config": {"name": "custom_pad_layer_528", "trainable": true, "dtype": "float32", "padding": [[3, 3], [3, 4], [0, 0]], "constant_values": 2}, "name": "custom_pad_layer_528", "inbound_nodes": [[["conv2d_2793_insert", 0, 0, {}]]]}, {"class_name": "CustomCropLayer", "config": {"name": "custom_crop_layer_391", "trainable": true, "dtype": "float32", "cropping": [[0, 0], [0, 0], [1, 2]]}, "name": "custom_crop_layer_391", "inbound_nodes": [[["custom_pad_layer_528", 0, 0, {}]]]}, {"class_name": "MaxPooling2D", "config": {"name": "max_pooling2d_965_insert", "trainable": true, "dtype": "float32", "pool_size": [3, 3], "padding": "valid", "strides": [2, 2], "data_format": "channels_last"}, "name": "max_pooling2d_965_insert", "inbound_nodes": [[["custom_crop_layer_391", 0, 0, {}]]]}, {"class_name": "CustomPadLayer", "config": {"name": "custom_pad_layer_529", "trainable": true, "dtype": "float32", "padding": [[6, 6], [6, 7], [0, 0]], "constant_values": 2}, "name": "custom_pad_layer_529", "inbound_nodes": [[["max_pooling2d_965_insert", 0, 0, {}]]]}, {"class_name": "CustomCropLayer", "config": {"name": "custom_crop_layer_392", "trainable": true, "dtype": "float32", "cropping": [[0, 0], [0, 0], [0, 1]]}, "name": "custom_crop_layer_392", "inbound_nodes": [[["custom_pad_layer_529", 0, 0, {}]]]}, {"class_name": "MaxPooling2D", "config": {"name": "max_pooling2d_967_insert", "trainable": true, "dtype": "float32", "pool_size": [3, 3], "padding": "valid", "strides": [2, 2], "data_format": "channels_last"}, "name": "max_pooling2d_967_insert", "inbound_nodes": [[["custom_crop_layer_392", 0, 0, {}]]]}, {"class_name": "CustomPadLayer", "config": {"name": "custom_pad_layer_530", "trainable": true, "dtype": "float32", "padding": [[2, 3], [0, 0], [0, 0]], "constant_values": 2}, "name": "custom_pad_layer_530", "inbound_nodes": [[["max_pooling2d_967_insert", 0, 0, {}]]]}, {"class_name": "CustomCropLayer", "config": {"name": "custom_crop_layer_393", "trainable": true, "dtype": "float32", "cropping": [[0, 0], [0, 1], [0, 0]]}, "name": "custom_crop_layer_393", "inbound_nodes": [[["custom_pad_layer_530", 0, 0, {}]]]}, {"class_name": "MaxPooling2D", "config": {"name": "max_pooling2d_969_insert", "trainable": true, "dtype": "float32", "pool_size": [3, 3], "padding": "valid", "strides": [2, 2], "data_format": "channels_last"}, "name": "max_pooling2d_969_insert", "inbound_nodes": [[["custom_crop_layer_393", 0, 0, {}]]]}, {"class_name": "CustomPadLayer", "config": {"name": "custom_pad_layer_531", "trainable": true, "dtype": "float32", "padding": [[4, 5], [8, 8], [3, 4]], "constant_values": 2}, "name": "custom_pad_layer_531", "inbound_nodes": [[["max_pooling2d_969_insert", 0, 0, {}]]]}, {"class_name": "BatchNormalization", "config": {"name": "batch_normalization_1225_insert", "trainable": true, "dtype": "float32", "axis": [3], "momentum": 0.99, "epsilon": 0.001, "center": true, "scale": false, "beta_initializer": {"class_name": "Zeros", "config": {}}, "gamma_initializer": {"class_name": "Ones", "config": {}}, "moving_mean_initializer": {"class_name": "Zeros", "config": {}}, "moving_variance_initializer": {"class_name": "Ones", "config": {}}, "beta_regularizer": null, "gamma_regularizer": null, "beta_constraint": null, "gamma_constraint": null}, "name": "batch_normalization_1225_insert", "inbound_nodes": [[["custom_pad_layer_531", 0, 0, {}]]]}, {"class_name": "CustomPadLayer", "config": {"name": "custom_pad_layer_532", "trainable": true, "dtype": "float32", "padding": [[2, 3], [0, 0], [0, 0]], "constant_values": 2}, "name": "custom_pad_layer_532", "inbound_nodes": [[["batch_normalization_1225_insert", 0, 0, {}]]]}, {"class_name": "CustomCropLayer", "config": {"name": "custom_crop_layer_394", "trainable": true, "dtype": "float32", "cropping": [[0, 0], [1, 1], [1, 1]]}, "name": "custom_crop_layer_394", "inbound_nodes": [[["custom_pad_layer_532", 0, 0, {}]]]}, {"class_name": "BatchNormalization", "config": {"name": "batch_normalization_1227_insert_1", "trainable": true, "dtype": "float32", "axis": [3], "momentum": 0.99, "epsilon": 0.001, "center": true, "scale": false, "beta_initializer": {"class_name": "Zeros", "config": {}}, "gamma_initializer": {"class_name": "Ones", "config": {}}, "moving_mean_initializer": {"class_name": "Zeros", "config": {}}, "moving_variance_initializer": {"class_name": "Ones", "config": {}}, "beta_regularizer": null, "gamma_regularizer": null, "beta_constraint": null, "gamma_constraint": null}, "name": "batch_normalization_1227_insert_1", "inbound_nodes": [[["custom_crop_layer_394", 0, 0, {}]]]}, {"class_name": "CustomCropLayer", "config": {"name": "custom_crop_layer_395", "trainable": true, "dtype": "float32", "cropping": [[5, 5], [1, 2], [0, 0]]}, "name": "custom_crop_layer_395", "inbound_nodes": [[["batch_normalization_1227_insert_1", 0, 0, {}]]]}, {"class_name": "AveragePooling2D", "config": {"name": "average_pooling2d_677_insert", "trainable": true, "dtype": "float32", "pool_size": [3, 3], "padding": "same", "strides": [1, 1], "data_format": "channels_last"}, "name": "average_pooling2d_677_insert", "inbound_nodes": [[["custom_crop_layer_395", 0, 0, {}]]]}, {"class_name": "CustomPadLayer", "config": {"name": "custom_pad_layer_533", "trainable": true, "dtype": "float32", "padding": [[4, 4], [3, 3], [2, 2]], "constant_values": 2}, "name": "custom_pad_layer_533", "inbound_nodes": [[["average_pooling2d_677_insert", 0, 0, {}]]]}, {"class_name": "BatchNormalization", "config": {"name": "batch_normalization_1229_insert", "trainable": true, "dtype": "float32", "axis": [3], "momentum": 0.99, "epsilon": 0.001, "center": true, "scale": false, "beta_initializer": {"class_name": "Zeros", "config": {}}, "gamma_initializer": {"class_name": "Ones", "config": {}}, "moving_mean_initializer": {"class_name": "Zeros", "config": {}}, "moving_variance_initializer": {"class_name": "Ones", "config": {}}, "beta_regularizer": null, "gamma_regularizer": null, "beta_constraint": null, "gamma_constraint": null}, "name": "batch_normalization_1229_insert", "inbound_nodes": [[["custom_pad_layer_533", 0, 0, {}]]]}, {"class_name": "CustomCropLayer", "config": {"name": "custom_crop_layer_396", "trainable": true, "dtype": "float32", "cropping": [[5, 6], [5, 6], [2, 3]]}, "name": "custom_crop_layer_396", "inbound_nodes": [[["batch_normalization_1229_insert", 0, 0, {}]]]}, {"class_name": "BatchNormalization", "config": {"name": "batch_normalization_1231_insert", "trainable": true, "dtype": "float32", "axis": [3], "momentum": 0.99, "epsilon": 0.001, "center": true, "scale": false, "beta_initializer": {"class_name": "Zeros", "config": {}}, "gamma_initializer": {"class_name": "Ones", "config": {}}, "moving_mean_initializer": {"class_name": "Zeros", "config": {}}, "moving_variance_initializer": {"class_name": "Ones", "config": {}}, "beta_regularizer": null, "gamma_regularizer": null, "beta_constraint": null, "gamma_constraint": null}, "name": "batch_normalization_1231_insert", "inbound_nodes": [[["custom_crop_layer_396", 0, 0, {}]]]}, {"class_name": "CustomPadLayer", "config": {"name": "custom_pad_layer_534", "trainable": true, "dtype": "float32", "padding": [[3, 3], [2, 2], [1, 1]], "constant_values": 2}, "name": "custom_pad_layer_534", "inbound_nodes": [[["batch_normalization_1231_insert", 0, 0, {}]]]}, {"class_name": "AveragePooling2D", "config": {"name": "average_pooling2d_679_insert_1", "trainable": true, "dtype": "float32", "pool_size": [3, 3], "padding": "same", "strides": [1, 1], "data_format": "channels_last"}, "name": "average_pooling2d_679_insert_1", "inbound_nodes": [[["custom_pad_layer_534", 0, 0, {}]]]}, {"class_name": "CustomPadLayer", "config": {"name": "custom_pad_layer_535", "trainable": true, "dtype": "float32", "padding": [[0, 1], [0, 0], [1, 2]], "constant_values": 2}, "name": "custom_pad_layer_535", "inbound_nodes": [[["average_pooling2d_679_insert_1", 0, 0, {}]]]}, {"class_name": "CustomCropLayer", "config": {"name": "custom_crop_layer_397", "trainable": true, "dtype": "float32", "cropping": [[0, 0], [1, 1], [0, 0]]}, "name": "custom_crop_layer_397", "inbound_nodes": [[["custom_pad_layer_535", 0, 0, {}]]]}, {"class_name": "AveragePooling2D", "config": {"name": "average_pooling2d_681_insert", "trainable": true, "dtype": "float32", "pool_size": [3, 3], "padding": "same", "strides": [1, 1], "data_format": "channels_last"}, "name": "average_pooling2d_681_insert", "inbound_nodes": [[["custom_crop_layer_397", 0, 0, {}]]]}, {"class_name": "CustomPadLayer", "config": {"name": "custom_pad_layer_536", "trainable": true, "dtype": "float32", "padding": [[0, 0], [1, 2], [0, 0]], "constant_values": 2}, "name": "custom_pad_layer_536", "inbound_nodes": [[["average_pooling2d_681_insert", 0, 0, {}]]]}, {"class_name": "Conv2D", "config": {"name": "conv2d_2789_insert_2_merge1", "trainable": true, "dtype": "float32", "filters": 7, "kernel_size": [3, 1], "strides": [1, 1], "padding": "same", "data_format": "channels_last", "dilation_rate": [1, 1], "groups": 1, "activation": "linear", "use_bias": false, "kernel_initializer": {"class_name": "VarianceScaling", "config": {"scale": 1.0, "mode": "fan_avg", "distribution": "uniform", "seed": null}}, "bias_initializer": {"class_name": "Zeros", "config": {}}, "kernel_regularizer": null, "bias_regularizer": null, "activity_regularizer": null, "kernel_constraint": null, "bias_constraint": null}, "name": "conv2d_2789_insert_2_merge1", "inbound_nodes": [[["max_pooling2d_963_insert", 0, 0, {}]]]}, {"class_name": "CustomCropLayer", "config": {"name": "custom_crop_layer_398", "trainable": true, "dtype": "float32", "cropping": [[2, 3], [0, 0], [4, 5]]}, "name": "custom_crop_layer_398", "inbound_nodes": [[["custom_pad_layer_536", 0, 0, {}]]]}, {"class_name": "BatchNormalization", "config": {"name": "batch_normalization_1227_insert_2", "trainable": true, "dtype": "float32", "axis": [3], "momentum": 0.99, "epsilon": 0.001, "center": true, "scale": false, "beta_initializer": {"class_name": "Zeros", "config": {}}, "gamma_initializer": {"class_name": "Ones", "config": {}}, "moving_mean_initializer": {"class_name": "Zeros", "config": {}}, "moving_variance_initializer": {"class_name": "Ones", "config": {}}, "beta_regularizer": null, "gamma_regularizer": null, "beta_constraint": null, "gamma_constraint": null}, "name": "batch_normalization_1227_insert_2", "inbound_nodes": [[["conv2d_2779_insert", 0, 0, {}]]]}, {"class_name": "Concatenate", "config": {"name": "concatenate_29_copy_ML", "trainable": true, "dtype": "float32", "axis": 3}, "name": "concatenate_29_copy_ML", "inbound_nodes": [[["conv2d_2789_insert_2_merge1", 0, 0, {}], ["conv2d_2779_insert", 0, 0, {}]]]}, {"class_name": "AveragePooling2D", "config": {"name": "average_pooling2d_683_insert", "trainable": true, "dtype": "float32", "pool_size": [3, 3], "padding": "same", "strides": [1, 1], "data_format": "channels_last"}, "name": "average_pooling2d_683_insert", "inbound_nodes": [[["custom_crop_layer_398", 0, 0, {}]]]}, {"class_name": "Cropping2D", "config": {"name": "cropping2d_53", "trainable": true, "dtype": "float32", "cropping": [[32, 32], [32, 32]], "data_format": "channels_last"}, "name": "cropping2d_53", "inbound_nodes": [[["batch_normalization_1227_insert_2", 0, 0, {}]]]}, {"class_name": "Cropping2D", "config": {"name": "cropping2d_54", "trainable": true, "dtype": "float32", "cropping": [[32, 32], [32, 32]], "data_format": "channels_last"}, "name": "cropping2d_54", "inbound_nodes": [[["concatenate_29_copy_ML", 0, 0, {}]]]}, {"class_name": "AveragePooling2D", "config": {"name": "average_pooling2d_679_insert_2", "trainable": true, "dtype": "float32", "pool_size": [3, 3], "padding": "same", "strides": [1, 1], "data_format": "channels_last"}, "name": "average_pooling2d_679_insert_2", "inbound_nodes": [[["max_pooling2d_969_insert", 0, 0, {}]]]}], "input_layers": [["input_542", 0, 0]], "output_layers": [["average_pooling2d_683_insert", 0, 0], ["cropping2d_53", 0, 0], ["cropping2d_54", 0, 0], ["average_pooling2d_679_insert_2", 0, 0]]}, "keras_version": "2.7.0", "backend": "tensorflow"}