{"class_name": "Functional", "config": {"name": "model_4125", "layers": [{"class_name": "InputLayer", "config": {"batch_input_shape": [null, 299, 299, 3], "dtype": "float32", "sparse": false, "ragged": false, "name": "input_532"}, "name": "input_532", "inbound_nodes": []}, {"class_name": "Conv2D", "config": {"name": "conv2d_1", "trainable": true, "dtype": "float32", "filters": 32, "kernel_size": [3, 3], "strides": [2, 2], "padding": "valid", "data_format": "channels_last", "dilation_rate": [1, 1], "groups": 1, "activation": "linear", "use_bias": false, "kernel_initializer": {"class_name": "VarianceScaling", "config": {"scale": 1.0, "mode": "fan_avg", "distribution": "uniform", "seed": null}}, "bias_initializer": {"class_name": "Zeros", "config": {}}, "kernel_regularizer": null, "bias_regularizer": null, "activity_regularizer": null, "kernel_constraint": null, "bias_constraint": null}, "name": "conv2d_1", "inbound_nodes": [[["input_532", 0, 0, {}]]]}, {"class_name": "AveragePooling2D", "config": {"name": "average_pooling2d_663_insert_1", "trainable": true, "dtype": "float32", "pool_size": [3, 3], "padding": "same", "strides": [1, 1], "data_format": "channels_last"}, "name": "average_pooling2d_663_insert_1", "inbound_nodes": [[["conv2d_1", 0, 0, {}]]]}, {"class_name": "BatchNormalization", "config": {"name": "batch_normalization_1199_insert", "trainable": true, "dtype": "float32", "axis": [3], "momentum": 0.99, "epsilon": 0.001, "center": true, "scale": false, "beta_initializer": {"class_name": "Zeros", "config": {}}, "gamma_initializer": {"class_name": "Ones", "config": {}}, "moving_mean_initializer": {"class_name": "Zeros", "config": {}}, "moving_variance_initializer": {"class_name": "Ones", "config": {}}, "beta_regularizer": null, "gamma_regularizer": null, "beta_constraint": null, "gamma_constraint": null}, "name": "batch_normalization_1199_insert", "inbound_nodes": [[["average_pooling2d_663_insert_1", 0, 0, {}]]]}, {"class_name": "Conv2D", "config": {"name": "conv2d_2729_insert", "trainable": true, "dtype": "float32", "filters": 3, "kernel_size": [1, 7], "strides": [1, 1], "padding": "same", "data_format": "channels_last", "dilation_rate": [1, 1], "groups": 1, "activation": "linear", "use_bias": false, "kernel_initializer": {"class_name": "VarianceScaling", "config": {"scale": 1.0, "mode": "fan_avg", "distribution": "uniform", "seed": null}}, "bias_initializer": {"class_name": "Zeros", "config": {}}, "kernel_regularizer": null, "bias_regularizer": null, "activity_regularizer": null, "kernel_constraint": null, "bias_constraint": null}, "name": "conv2d_2729_insert", "inbound_nodes": [[["batch_normalization_1199_insert", 0, 0, {}]]]}, {"class_name": "MaxPooling2D", "config": {"name": "max_pooling2d_939_insert", "trainable": true, "dtype": "float32", "pool_size": [3, 3], "padding": "valid", "strides": [2, 2], "data_format": "channels_last"}, "name": "max_pooling2d_939_insert", "inbound_nodes": [[["conv2d_2729_insert", 0, 0, {}]]]}, {"class_name": "Conv2D", "config": {"name": "conv2d_2731_insert", "trainable": true, "dtype": "float32", "filters": 5, "kernel_size": [3, 3], "strides": [1, 1], "padding": "valid", "data_format": "channels_last", "dilation_rate": [1, 1], "groups": 1, "activation": "linear", "use_bias": false, "kernel_initializer": {"class_name": "VarianceScaling", "config": {"scale": 1.0, "mode": "fan_avg", "distribution": "uniform", "seed": null}}, "bias_initializer": {"class_name": "Zeros", "config": {}}, "kernel_regularizer": null, "bias_regularizer": null, "activity_regularizer": null, "kernel_constraint": null, "bias_constraint": null}, "name": "conv2d_2731_insert", "inbound_nodes": [[["max_pooling2d_939_insert", 0, 0, {}]]]}, {"class_name": "Conv2D", "config": {"name": "conv2d_2733_insert", "trainable": true, "dtype": "float32", "filters": 5, "kernel_size": [3, 3], "strides": [1, 1], "padding": "same", "data_format": "channels_last", "dilation_rate": [1, 1], "groups": 1, "activation": "linear", "use_bias": false, "kernel_initializer": {"class_name": "VarianceScaling", "config": {"scale": 1.0, "mode": "fan_avg", "distribution": "uniform", "seed": null}}, "bias_initializer": {"class_name": "Zeros", "config": {}}, "kernel_regularizer": null, "bias_regularizer": null, "activity_regularizer": null, "kernel_constraint": null, "bias_constraint": null}, "name": "conv2d_2733_insert", "inbound_nodes": [[["conv2d_2731_insert", 0, 0, {}]]]}, {"class_name": "Conv2D", "config": {"name": "conv2d_2735_insert", "trainable": true, "dtype": "float32", "filters": 2, "kernel_size": [7, 1], "strides": [1, 1], "padding": "same", "data_format": "channels_last", "dilation_rate": [1, 1], "groups": 1, "activation": "linear", "use_bias": false, "kernel_initializer": {"class_name": "VarianceScaling", "config": {"scale": 1.0, "mode": "fan_avg", "distribution": "uniform", "seed": null}}, "bias_initializer": {"class_name": "Zeros", "config": {}}, "kernel_regularizer": null, "bias_regularizer": null, "activity_regularizer": null, "kernel_constraint": null, "bias_constraint": null}, "name": "conv2d_2735_insert", "inbound_nodes": [[["conv2d_2733_insert", 0, 0, {}]]]}, {"class_name": "GlobalAveragePooling2D", "config": {"name": "global_average_pooling2d_877_insert", "trainable": true, "dtype": "float32", "data_format": "channels_last", "keepdims": false}, "name": "global_average_pooling2d_877_insert", "inbound_nodes": [[["conv2d_2735_insert", 0, 0, {}]]]}, {"class_name": "CustomExpandLayer", "config": {"name": "custom_expand_layer_907_insert", "trainable": true, "dtype": "float32", "axis": 1}, "name": "custom_expand_layer_907_insert", "inbound_nodes": [[["global_average_pooling2d_877_insert", 0, 0, {}]]]}, {"class_name": "CustomExpandLayer", "config": {"name": "custom_expand_layer_908_insert", "trainable": true, "dtype": "float32", "axis": 1}, "name": "custom_expand_layer_908_insert", "inbound_nodes": [[["custom_expand_layer_907_insert", 0, 0, {}]]]}, {"class_name": "Conv2D", "config": {"name": "conv2d_2737_insert", "trainable": true, "dtype": "float32", "filters": 4, "kernel_size": [1, 1], "strides": [1, 1], "padding": "same", "data_format": "channels_last", "dilation_rate": [1, 1], "groups": 1, "activation": "linear", "use_bias": false, "kernel_initializer": {"class_name": "VarianceScaling", "config": {"scale": 1.0, "mode": "fan_avg", "distribution": "uniform", "seed": null}}, "bias_initializer": {"class_name": "Zeros", "config": {}}, "kernel_regularizer": null, "bias_regularizer": null, "activity_regularizer": null, "kernel_constraint": null, "bias_constraint": null}, "name": "conv2d_2737_insert", "inbound_nodes": [[["custom_expand_layer_908_insert", 0, 0, {}]]]}, {"class_name": "Conv2D", "config": {"name": "conv2d_2739_insert", "trainable": true, "dtype": "float32", "filters": 5, "kernel_size": [3, 1], "strides": [1, 1], "padding": "same", "data_format": "channels_last", "dilation_rate": [1, 1], "groups": 1, "activation": "linear", "use_bias": false, "kernel_initializer": {"class_name": "VarianceScaling", "config": {"scale": 1.0, "mode": "fan_avg", "distribution": "uniform", "seed": null}}, "bias_initializer": {"class_name": "Zeros", "config": {}}, "kernel_regularizer": null, "bias_regularizer": null, "activity_regularizer": null, "kernel_constraint": null, "bias_constraint": null}, "name": "conv2d_2739_insert", "inbound_nodes": [[["conv2d_2737_insert", 0, 0, {}]]]}, {"class_name": "Conv2D", "config": {"name": "conv2d_2741_insert_1", "trainable": true, "dtype": "float32", "filters": 1, "kernel_size": [5, 5], "strides": [1, 1], "padding": "same", "data_format": "channels_last", "dilation_rate": [1, 1], "groups": 1, "activation": "linear", "use_bias": false, "kernel_initializer": {"class_name": "VarianceScaling", "config": {"scale": 1.0, "mode": "fan_avg", "distribution": "uniform", "seed": null}}, "bias_initializer": {"class_name": "Zeros", "config": {}}, "kernel_regularizer": null, "bias_regularizer": null, "activity_regularizer": null, "kernel_constraint": null, "bias_constraint": null}, "name": "conv2d_2741_insert_1", "inbound_nodes": [[["conv2d_2739_insert", 0, 0, {}]]]}, {"class_name": "Conv2D", "config": {"name": "conv2d_2743_insert_merge1", "trainable": true, "dtype": "float32", "filters": 2, "kernel_size": [1, 1], "strides": [1, 1], "padding": "valid", "data_format": "channels_last", "dilation_rate": [1, 1], "groups": 1, "activation": "linear", "use_bias": false, "kernel_initializer": {"class_name": "VarianceScaling", "config": {"scale": 1.0, "mode": "fan_avg", "distribution": "uniform", "seed": null}}, "bias_initializer": {"class_name": "Zeros", "config": {}}, "kernel_regularizer": null, "bias_regularizer": null, "activity_regularizer": null, "kernel_constraint": null, "bias_constraint": null}, "name": "conv2d_2743_insert_merge1", "inbound_nodes": [[["conv2d_2741_insert_1", 0, 0, {}]]]}, {"class_name": "Concatenate", "config": {"name": "concatenate_28_copy_ML", "trainable": true, "dtype": "float32", "axis": 3}, "name": "concatenate_28_copy_ML", "inbound_nodes": [[["conv2d_2743_insert_merge1", 0, 0, {}], ["custom_expand_layer_908_insert", 0, 0, {}]]]}, {"class_name": "Conv2D", "config": {"name": "conv2d_2745_insert", "trainable": true, "dtype": "float32", "filters": 4, "kernel_size": [1, 3], "strides": [1, 1], "padding": "same", "data_format": "channels_last", "dilation_rate": [1, 1], "groups": 1, "activation": "linear", "use_bias": false, "kernel_initializer": {"class_name": "VarianceScaling", "config": {"scale": 1.0, "mode": "fan_avg", "distribution": "uniform", "seed": null}}, "bias_initializer": {"class_name": "Zeros", "config": {}}, "kernel_regularizer": null, "bias_regularizer": null, "activity_regularizer": null, "kernel_constraint": null, "bias_constraint": null}, "name": "conv2d_2745_insert", "inbound_nodes": [[["concatenate_28_copy_ML", 0, 0, {}]]]}, {"class_name": "Conv2D", "config": {"name": "conv2d_2747_insert", "trainable": true, "dtype": "float32", "filters": 7, "kernel_size": [1, 1], "strides": [1, 1], "padding": "same", "data_format": "channels_last", "dilation_rate": [1, 1], "groups": 1, "activation": "linear", "use_bias": true, "kernel_initializer": {"class_name": "VarianceScaling", "config": {"scale": 1.0, "mode": "fan_avg", "distribution": "uniform", "seed": null}}, "bias_initializer": {"class_name": "Zeros", "config": {}}, "kernel_regularizer": null, "bias_regularizer": null, "activity_regularizer": null, "kernel_constraint": null, "bias_constraint": null}, "name": "conv2d_2747_insert", "inbound_nodes": [[["conv2d_2745_insert", 0, 0, {}]]]}, {"class_name": "CustomPadLayer", "config": {"name": "custom_pad_layer_522", "trainable": true, "dtype": "float32", "padding": [[9, 9], [5, 6], [0, 1]], "constant_values": 2}, "name": "custom_pad_layer_522", "inbound_nodes": [[["conv2d_2747_insert", 0, 0, {}]]]}, {"class_name": "MaxPooling2D", "config": {"name": "max_pooling2d_941_insert", "trainable": true, "dtype": "float32", "pool_size": [3, 3], "padding": "valid", "strides": [2, 2], "data_format": "channels_last"}, "name": "max_pooling2d_941_insert", "inbound_nodes": [[["custom_pad_layer_522", 0, 0, {}]]]}, {"class_name": "CustomPadLayer", "config": {"name": "custom_pad_layer_523", "trainable": true, "dtype": "float32", "padding": [[0, 0], [0, 0], [2, 2]], "constant_values": 2}, "name": "custom_pad_layer_523", "inbound_nodes": [[["max_pooling2d_941_insert", 0, 0, {}]]]}, {"class_name": "CustomCropLayer", "config": {"name": "custom_crop_layer_387", "trainable": true, "dtype": "float32", "cropping": [[0, 1], [0, 0], [0, 0]]}, "name": "custom_crop_layer_387", "inbound_nodes": [[["custom_pad_layer_523", 0, 0, {}]]]}, {"class_name": "MaxPooling2D", "config": {"name": "max_pooling2d_943_insert", "trainable": true, "dtype": "float32", "pool_size": [3, 3], "padding": "valid", "strides": [2, 2], "data_format": "channels_last"}, "name": "max_pooling2d_943_insert", "inbound_nodes": [[["custom_crop_layer_387", 0, 0, {}]]]}, {"class_name": "CustomPadLayer", "config": {"name": "custom_pad_layer_524", "trainable": true, "dtype": "float32", "padding": [[1, 2], [6, 7], [0, 0]], "constant_values": 2}, "name": "custom_pad_layer_524", "inbound_nodes": [[["max_pooling2d_943_insert", 0, 0, {}]]]}, {"class_name": "MaxPooling2D", "config": {"name": "max_pooling2d_945_insert", "trainable": true, "dtype": "float32", "pool_size": [3, 3], "padding": "valid", "strides": [2, 2], "data_format": "channels_last"}, "name": "max_pooling2d_945_insert", "inbound_nodes": [[["custom_pad_layer_524", 0, 0, {}]]]}, {"class_name": "CustomPadLayer", "config": {"name": "custom_pad_layer_525", "trainable": true, "dtype": "float32", "padding": [[3, 4], [0, 0], [0, 1]], "constant_values": 2}, "name": "custom_pad_layer_525", "inbound_nodes": [[["max_pooling2d_945_insert", 0, 0, {}]]]}, {"class_name": "CustomCropLayer", "config": {"name": "custom_crop_layer_388", "trainable": true, "dtype": "float32", "cropping": [[0, 0], [0, 1], [0, 0]]}, "name": "custom_crop_layer_388", "inbound_nodes": [[["custom_pad_layer_525", 0, 0, {}]]]}, {"class_name": "BatchNormalization", "config": {"name": "batch_normalization_1201_insert", "trainable": true, "dtype": "float32", "axis": [3], "momentum": 0.99, "epsilon": 0.001, "center": true, "scale": false, "beta_initializer": {"class_name": "Zeros", "config": {}}, "gamma_initializer": {"class_name": "Ones", "config": {}}, "moving_mean_initializer": {"class_name": "Zeros", "config": {}}, "moving_variance_initializer": {"class_name": "Ones", "config": {}}, "beta_regularizer": null, "gamma_regularizer": null, "beta_constraint": null, "gamma_constraint": null}, "name": "batch_normalization_1201_insert", "inbound_nodes": [[["custom_crop_layer_388", 0, 0, {}]]]}, {"class_name": "CustomPadLayer", "config": {"name": "custom_pad_layer_526", "trainable": true, "dtype": "float32", "padding": [[0, 1], [1, 2], [0, 0]], "constant_values": 2}, "name": "custom_pad_layer_526", "inbound_nodes": [[["batch_normalization_1201_insert", 0, 0, {}]]]}, {"class_name": "BatchNormalization", "config": {"name": "batch_normalization_1203_insert", "trainable": true, "dtype": "float32", "axis": [3], "momentum": 0.99, "epsilon": 0.001, "center": true, "scale": false, "beta_initializer": {"class_name": "Zeros", "config": {}}, "gamma_initializer": {"class_name": "Ones", "config": {}}, "moving_mean_initializer": {"class_name": "Zeros", "config": {}}, "moving_variance_initializer": {"class_name": "Ones", "config": {}}, "beta_regularizer": null, "gamma_regularizer": null, "beta_constraint": null, "gamma_constraint": null}, "name": "batch_normalization_1203_insert", "inbound_nodes": [[["custom_pad_layer_526", 0, 0, {}]]]}, {"class_name": "CustomPadLayer", "config": {"name": "custom_pad_layer_527", "trainable": true, "dtype": "float32", "padding": [[3, 4], [0, 0], [0, 0]], "constant_values": 2}, "name": "custom_pad_layer_527", "inbound_nodes": [[["batch_normalization_1203_insert", 0, 0, {}]]]}, {"class_name": "CustomCropLayer", "config": {"name": "custom_crop_layer_389", "trainable": true, "dtype": "float32", "cropping": [[0, 0], [2, 2], [3, 4]]}, "name": "custom_crop_layer_389", "inbound_nodes": [[["custom_pad_layer_527", 0, 0, {}]]]}, {"class_name": "BatchNormalization", "config": {"name": "batch_normalization_1205_insert_1", "trainable": true, "dtype": "float32", "axis": [3], "momentum": 0.99, "epsilon": 0.001, "center": true, "scale": false, "beta_initializer": {"class_name": "Zeros", "config": {}}, "gamma_initializer": {"class_name": "Ones", "config": {}}, "moving_mean_initializer": {"class_name": "Zeros", "config": {}}, "moving_variance_initializer": {"class_name": "Ones", "config": {}}, "beta_regularizer": null, "gamma_regularizer": null, "beta_constraint": null, "gamma_constraint": null}, "name": "batch_normalization_1205_insert_1", "inbound_nodes": [[["custom_crop_layer_389", 0, 0, {}]]]}, {"class_name": "CustomCropLayer", "config": {"name": "custom_crop_layer_390", "trainable": true, "dtype": "float32", "cropping": [[4, 4], [0, 0], [0, 0]]}, "name": "custom_crop_layer_390", "inbound_nodes": [[["batch_normalization_1205_insert_1", 0, 0, {}]]]}, {"class_name": "BatchNormalization", "config": {"name": "batch_normalization_1205_insert_2", "trainable": true, "dtype": "float32", "axis": [3], "momentum": 0.99, "epsilon": 0.001, "center": true, "scale": false, "beta_initializer": {"class_name": "Zeros", "config": {}}, "gamma_initializer": {"class_name": "Ones", "config": {}}, "moving_mean_initializer": {"class_name": "Zeros", "config": {}}, "moving_variance_initializer": {"class_name": "Ones", "config": {}}, "beta_regularizer": null, "gamma_regularizer": null, "beta_constraint": null, "gamma_constraint": null}, "name": "batch_normalization_1205_insert_2", "inbound_nodes": [[["conv2d_2733_insert", 0, 0, {}]]]}, {"class_name": "Conv2D", "config": {"name": "conv2d_2741_insert_2", "trainable": true, "dtype": "float32", "filters": 1, "kernel_size": [5, 5], "strides": [1, 1], "padding": "same", "data_format": "channels_last", "dilation_rate": [1, 1], "groups": 1, "activation": "linear", "use_bias": false, "kernel_initializer": {"class_name": "VarianceScaling", "config": {"scale": 1.0, "mode": "fan_avg", "distribution": "uniform", "seed": null}}, "bias_initializer": {"class_name": "Zeros", "config": {}}, "kernel_regularizer": null, "bias_regularizer": null, "activity_regularizer": null, "kernel_constraint": null, "bias_constraint": null}, "name": "conv2d_2741_insert_2", "inbound_nodes": [[["average_pooling2d_663_insert_1", 0, 0, {}]]]}, {"class_name": "BatchNormalization", "config": {"name": "batch_normalization_1207_insert", "trainable": true, "dtype": "float32", "axis": [3], "momentum": 0.99, "epsilon": 0.001, "center": true, "scale": false, "beta_initializer": {"class_name": "Zeros", "config": {}}, "gamma_initializer": {"class_name": "Ones", "config": {}}, "moving_mean_initializer": {"class_name": "Zeros", "config": {}}, "moving_variance_initializer": {"class_name": "Ones", "config": {}}, "beta_regularizer": null, "gamma_regularizer": null, "beta_constraint": null, "gamma_constraint": null}, "name": "batch_normalization_1207_insert", "inbound_nodes": [[["custom_crop_layer_390", 0, 0, {}]]]}, {"class_name": "Cropping2D", "config": {"name": "cropping2d_51", "trainable": true, "dtype": "float32", "cropping": [[31, 31], [31, 31]], "data_format": "channels_last"}, "name": "cropping2d_51", "inbound_nodes": [[["batch_normalization_1205_insert_2", 0, 0, {}]]]}, {"class_name": "AveragePooling2D", "config": {"name": "average_pooling2d_663_insert_2", "trainable": true, "dtype": "float32", "pool_size": [3, 3], "padding": "same", "strides": [1, 1], "data_format": "channels_last"}, "name": "average_pooling2d_663_insert_2", "inbound_nodes": [[["max_pooling2d_941_insert", 0, 0, {}]]]}, {"class_name": "Cropping2D", "config": {"name": "cropping2d_52", "trainable": true, "dtype": "float32", "cropping": [[69, 69], [69, 69]], "data_format": "channels_last"}, "name": "cropping2d_52", "inbound_nodes": [[["conv2d_2741_insert_2", 0, 0, {}]]]}], "input_layers": [["input_532", 0, 0]], "output_layers": [["batch_normalization_1207_insert", 0, 0], ["cropping2d_51", 0, 0], ["average_pooling2d_663_insert_2", 0, 0], ["cropping2d_52", 0, 0]]}, "keras_version": "2.7.0", "backend": "tensorflow"}