{"class_name": "Functional", "config": {"name": "model_8550", "layers": [{"class_name": "InputLayer", "config": {"batch_input_shape": [null, 224, 224, 3], "dtype": "float32", "sparse": false, "ragged": false, "name": "input_1072"}, "name": "input_1072", "inbound_nodes": []}, {"class_name": "ZeroPadding2D", "config": {"name": "zero_padding2d_1", "trainable": true, "dtype": "float32", "padding": [[3, 3], [3, 3]], "data_format": "channels_last"}, "name": "zero_padding2d_1", "inbound_nodes": [[["input_1072", 0, 0, {}]]]}, {"class_name": "MaxPooling2D", "config": {"name": "max_pooling2d_2007_insert", "trainable": true, "dtype": "float32", "pool_size": [3, 3], "padding": "valid", "strides": [2, 2], "data_format": "channels_last"}, "name": "max_pooling2d_2007_insert", "inbound_nodes": [[["zero_padding2d_1", 0, 0, {}]]]}, {"class_name": "BatchNormalization", "config": {"name": "batch_normalization_2527_insert_1_1", "trainable": true, "dtype": "float32", "axis": [3], "momentum": 0.99, "epsilon": 1.001e-05, "center": true, "scale": true, "beta_initializer": {"class_name": "Zeros", "config": {}}, "gamma_initializer": {"class_name": "Ones", "config": {}}, "moving_mean_initializer": {"class_name": "Zeros", "config": {}}, "moving_variance_initializer": {"class_name": "Ones", "config": {}}, "beta_regularizer": null, "gamma_regularizer": null, "beta_constraint": null, "gamma_constraint": null}, "name": "batch_normalization_2527_insert_1_1", "inbound_nodes": [[["max_pooling2d_2007_insert", 0, 0, {}]]]}, {"class_name": "Conv2D", "config": {"name": "conv2d_5771_insert", "trainable": true, "dtype": "float32", "filters": 9, "kernel_size": [3, 3], "strides": [1, 1], "padding": "same", "data_format": "channels_last", "dilation_rate": [1, 1], "groups": 1, "activation": "linear", "use_bias": false, "kernel_initializer": {"class_name": "VarianceScaling", "config": {"scale": 1.0, "mode": "fan_avg", "distribution": "uniform", "seed": null}}, "bias_initializer": {"class_name": "Zeros", "config": {}}, "kernel_regularizer": null, "bias_regularizer": null, "activity_regularizer": null, "kernel_constraint": null, "bias_constraint": null}, "name": "conv2d_5771_insert", "inbound_nodes": [[["batch_normalization_2527_insert_1_1", 0, 0, {}]]]}, {"class_name": "AveragePooling2D", "config": {"name": "average_pooling2d_1371_insert", "trainable": true, "dtype": "float32", "pool_size": [2, 2], "padding": "valid", "strides": [2, 2], "data_format": "channels_last"}, "name": "average_pooling2d_1371_insert", "inbound_nodes": [[["conv2d_5771_insert", 0, 0, {}]]]}, {"class_name": "Conv2D", "config": {"name": "conv2d_5773_insert", "trainable": true, "dtype": "float32", "filters": 1, "kernel_size": [7, 7], "strides": [2, 2], "padding": "valid", "data_format": "channels_last", "dilation_rate": [1, 1], "groups": 1, "activation": "linear", "use_bias": false, "kernel_initializer": {"class_name": "VarianceScaling", "config": {"scale": 1.0, "mode": "fan_avg", "distribution": "uniform", "seed": null}}, "bias_initializer": {"class_name": "Zeros", "config": {}}, "kernel_regularizer": null, "bias_regularizer": null, "activity_regularizer": null, "kernel_constraint": null, "bias_constraint": null}, "name": "conv2d_5773_insert", "inbound_nodes": [[["average_pooling2d_1371_insert", 0, 0, {}]]]}, {"class_name": "GlobalAveragePooling2D", "config": {"name": "global_average_pooling2d_1797_insert", "trainable": true, "dtype": "float32", "data_format": "channels_last", "keepdims": false}, "name": "global_average_pooling2d_1797_insert", "inbound_nodes": [[["conv2d_5773_insert", 0, 0, {}]]]}, {"class_name": "CustomExpandLayer", "config": {"name": "custom_expand_layer_1809_insert", "trainable": true, "dtype": "float32", "axis": 1}, "name": "custom_expand_layer_1809_insert", "inbound_nodes": [[["global_average_pooling2d_1797_insert", 0, 0, {}]]]}, {"class_name": "CustomExpandLayer", "config": {"name": "custom_expand_layer_1810_insert", "trainable": true, "dtype": "float32", "axis": 1}, "name": "custom_expand_layer_1810_insert", "inbound_nodes": [[["custom_expand_layer_1809_insert", 0, 0, {}]]]}, {"class_name": "Conv2D", "config": {"name": "conv2d_5775_insert", "trainable": true, "dtype": "float32", "filters": 9, "kernel_size": [1, 1], "strides": [1, 1], "padding": "valid", "data_format": "channels_last", "dilation_rate": [1, 1], "groups": 1, "activation": "linear", "use_bias": false, "kernel_initializer": {"class_name": "VarianceScaling", "config": {"scale": 1.0, "mode": "fan_avg", "distribution": "uniform", "seed": null}}, "bias_initializer": {"class_name": "Zeros", "config": {}}, "kernel_regularizer": null, "bias_regularizer": null, "activity_regularizer": null, "kernel_constraint": null, "bias_constraint": null}, "name": "conv2d_5775_insert", "inbound_nodes": [[["custom_expand_layer_1810_insert", 0, 0, {}]]]}, {"class_name": "ZeroPadding2D", "config": {"name": "zero_padding2d_477_insert", "trainable": true, "dtype": "float32", "padding": [[1, 1], [1, 1]], "data_format": "channels_last"}, "name": "zero_padding2d_477_insert", "inbound_nodes": [[["conv2d_5775_insert", 0, 0, {}]]]}, {"class_name": "CustomPadLayer", "config": {"name": "custom_pad_layer_1137", "trainable": true, "dtype": "float32", "padding": [[6, 6], [5, 5], [4, 5]], "constant_values": 2}, "name": "custom_pad_layer_1137", "inbound_nodes": [[["zero_padding2d_477_insert", 0, 0, {}]]]}, {"class_name": "AveragePooling2D", "config": {"name": "average_pooling2d_1373_insert", "trainable": true, "dtype": "float32", "pool_size": [2, 2], "padding": "valid", "strides": [2, 2], "data_format": "channels_last"}, "name": "average_pooling2d_1373_insert", "inbound_nodes": [[["custom_pad_layer_1137", 0, 0, {}]]]}, {"class_name": "CustomPadLayer", "config": {"name": "custom_pad_layer_1138", "trainable": true, "dtype": "float32", "padding": [[2, 3], [6, 7], [0, 1]], "constant_values": 2}, "name": "custom_pad_layer_1138", "inbound_nodes": [[["average_pooling2d_1373_insert", 0, 0, {}]]]}, {"class_name": "BatchNormalization", "config": {"name": "batch_normalization_2529_insert", "trainable": true, "dtype": "float32", "axis": [3], "momentum": 0.99, "epsilon": 1.001e-05, "center": true, "scale": true, "beta_initializer": {"class_name": "Zeros", "config": {}}, "gamma_initializer": {"class_name": "Ones", "config": {}}, "moving_mean_initializer": {"class_name": "Zeros", "config": {}}, "moving_variance_initializer": {"class_name": "Ones", "config": {}}, "beta_regularizer": null, "gamma_regularizer": null, "beta_constraint": null, "gamma_constraint": null}, "name": "batch_normalization_2529_insert", "inbound_nodes": [[["custom_pad_layer_1138", 0, 0, {}]]]}, {"class_name": "CustomPadLayer", "config": {"name": "custom_pad_layer_1139", "trainable": true, "dtype": "float32", "padding": [[3, 3], [0, 0], [0, 0]], "constant_values": 2}, "name": "custom_pad_layer_1139", "inbound_nodes": [[["batch_normalization_2529_insert", 0, 0, {}]]]}, {"class_name": "CustomCropLayer", "config": {"name": "custom_crop_layer_841", "trainable": true, "dtype": "float32", "cropping": [[0, 0], [4, 5], [3, 4]]}, "name": "custom_crop_layer_841", "inbound_nodes": [[["custom_pad_layer_1139", 0, 0, {}]]]}, {"class_name": "AveragePooling2D", "config": {"name": "average_pooling2d_1375_insert", "trainable": true, "dtype": "float32", "pool_size": [2, 2], "padding": "valid", "strides": [2, 2], "data_format": "channels_last"}, "name": "average_pooling2d_1375_insert", "inbound_nodes": [[["custom_crop_layer_841", 0, 0, {}]]]}, {"class_name": "CustomPadLayer", "config": {"name": "custom_pad_layer_1140", "trainable": true, "dtype": "float32", "padding": [[2, 2], [6, 7], [0, 1]], "constant_values": 2}, "name": "custom_pad_layer_1140", "inbound_nodes": [[["average_pooling2d_1375_insert", 0, 0, {}]]]}, {"class_name": "Conv2D", "config": {"name": "conv2d_5777_insert_1", "trainable": true, "dtype": "float32", "filters": 2, "kernel_size": [3, 3], "strides": [1, 1], "padding": "same", "data_format": "channels_last", "dilation_rate": [1, 1], "groups": 1, "activation": "linear", "use_bias": false, "kernel_initializer": {"class_name": "VarianceScaling", "config": {"scale": 1.0, "mode": "fan_avg", "distribution": "uniform", "seed": null}}, "bias_initializer": {"class_name": "Zeros", "config": {}}, "kernel_regularizer": null, "bias_regularizer": null, "activity_regularizer": null, "kernel_constraint": null, "bias_constraint": null}, "name": "conv2d_5777_insert_1", "inbound_nodes": [[["custom_pad_layer_1140", 0, 0, {}]]]}, {"class_name": "CustomPadLayer", "config": {"name": "custom_pad_layer_1141", "trainable": true, "dtype": "float32", "padding": [[3, 3], [0, 0], [4, 4]], "constant_values": 2}, "name": "custom_pad_layer_1141", "inbound_nodes": [[["conv2d_5777_insert_1", 0, 0, {}]]]}, {"class_name": "CustomCropLayer", "config": {"name": "custom_crop_layer_842", "trainable": true, "dtype": "float32", "cropping": [[0, 0], [5, 6], [0, 0]]}, "name": "custom_crop_layer_842", "inbound_nodes": [[["custom_pad_layer_1141", 0, 0, {}]]]}, {"class_name": "BatchNormalization", "config": {"name": "batch_normalization_2531_insert", "trainable": true, "dtype": "float32", "axis": [3], "momentum": 0.99, "epsilon": 1.001e-05, "center": true, "scale": true, "beta_initializer": {"class_name": "Zeros", "config": {}}, "gamma_initializer": {"class_name": "Ones", "config": {}}, "moving_mean_initializer": {"class_name": "Zeros", "config": {}}, "moving_variance_initializer": {"class_name": "Ones", "config": {}}, "beta_regularizer": null, "gamma_regularizer": null, "beta_constraint": null, "gamma_constraint": null}, "name": "batch_normalization_2531_insert", "inbound_nodes": [[["custom_crop_layer_842", 0, 0, {}]]]}, {"class_name": "CustomPadLayer", "config": {"name": "custom_pad_layer_1142", "trainable": true, "dtype": "float32", "padding": [[0, 0], [4, 4], [0, 0]], "constant_values": 2}, "name": "custom_pad_layer_1142", "inbound_nodes": [[["batch_normalization_2531_insert", 0, 0, {}]]]}, {"class_name": "CustomCropLayer", "config": {"name": "custom_crop_layer_843", "trainable": true, "dtype": "float32", "cropping": [[6, 7], [0, 0], [0, 0]]}, "name": "custom_crop_layer_843", "inbound_nodes": [[["custom_pad_layer_1142", 0, 0, {}]]]}, {"class_name": "BatchNormalization", "config": {"name": "batch_normalization_2533_insert", "trainable": true, "dtype": "float32", "axis": [3], "momentum": 0.99, "epsilon": 1.001e-05, "center": true, "scale": true, "beta_initializer": {"class_name": "Zeros", "config": {}}, "gamma_initializer": {"class_name": "Ones", "config": {}}, "moving_mean_initializer": {"class_name": "Zeros", "config": {}}, "moving_variance_initializer": {"class_name": "Ones", "config": {}}, "beta_regularizer": null, "gamma_regularizer": null, "beta_constraint": null, "gamma_constraint": null}, "name": "batch_normalization_2533_insert", "inbound_nodes": [[["custom_crop_layer_843", 0, 0, {}]]]}, {"class_name": "CustomPadLayer", "config": {"name": "custom_pad_layer_1143", "trainable": true, "dtype": "float32", "padding": [[5, 5], [2, 2], [1, 1]], "constant_values": 2}, "name": "custom_pad_layer_1143", "inbound_nodes": [[["batch_normalization_2533_insert", 0, 0, {}]]]}, {"class_name": "Conv2D", "config": {"name": "conv2d_5779_insert", "trainable": true, "dtype": "float32", "filters": 9, "kernel_size": [7, 7], "strides": [2, 2], "padding": "valid", "data_format": "channels_last", "dilation_rate": [1, 1], "groups": 1, "activation": "linear", "use_bias": false, "kernel_initializer": {"class_name": "VarianceScaling", "config": {"scale": 1.0, "mode": "fan_avg", "distribution": "uniform", "seed": null}}, "bias_initializer": {"class_name": "Zeros", "config": {}}, "kernel_regularizer": null, "bias_regularizer": null, "activity_regularizer": null, "kernel_constraint": null, "bias_constraint": null}, "name": "conv2d_5779_insert", "inbound_nodes": [[["custom_pad_layer_1143", 0, 0, {}]]]}, {"class_name": "BatchNormalization", "config": {"name": "batch_normalization_2527_insert_2_merge1", "trainable": true, "dtype": "float32", "axis": [3], "momentum": 0.99, "epsilon": 1.001e-05, "center": true, "scale": true, "beta_initializer": {"class_name": "Zeros", "config": {}}, "gamma_initializer": {"class_name": "Ones", "config": {}}, "moving_mean_initializer": {"class_name": "Zeros", "config": {}}, "moving_variance_initializer": {"class_name": "Ones", "config": {}}, "beta_regularizer": null, "gamma_regularizer": null, "beta_constraint": null, "gamma_constraint": null}, "name": "batch_normalization_2527_insert_2_merge1", "inbound_nodes": [[["average_pooling2d_1371_insert", 0, 0, {}]]]}, {"class_name": "CustomPadLayer", "config": {"name": "custom_pad_layer_1144", "trainable": true, "dtype": "float32", "padding": [[1, 2], [1, 2], [3, 3]], "constant_values": 2}, "name": "custom_pad_layer_1144", "inbound_nodes": [[["conv2d_5779_insert", 0, 0, {}]]]}, {"class_name": "Conv2D", "config": {"name": "conv2d_5777_insert_2", "trainable": true, "dtype": "float32", "filters": 2, "kernel_size": [3, 3], "strides": [1, 1], "padding": "same", "data_format": "channels_last", "dilation_rate": [1, 1], "groups": 1, "activation": "linear", "use_bias": false, "kernel_initializer": {"class_name": "VarianceScaling", "config": {"scale": 1.0, "mode": "fan_avg", "distribution": "uniform", "seed": null}}, "bias_initializer": {"class_name": "Zeros", "config": {}}, "kernel_regularizer": null, "bias_regularizer": null, "activity_regularizer": null, "kernel_constraint": null, "bias_constraint": null}, "name": "conv2d_5777_insert_2", "inbound_nodes": [[["zero_padding2d_1", 0, 0, {}]]]}, {"class_name": "Concatenate", "config": {"name": "concatenate_58_copy_ML", "trainable": true, "dtype": "float32", "axis": 3}, "name": "concatenate_58_copy_ML", "inbound_nodes": [[["batch_normalization_2527_insert_2_merge1", 0, 0, {}], ["average_pooling2d_1371_insert", 0, 0, {}]]]}, {"class_name": "BatchNormalization", "config": {"name": "batch_normalization_2527_insert_1_2", "trainable": true, "dtype": "float32", "axis": [3], "momentum": 0.99, "epsilon": 1.001e-05, "center": true, "scale": true, "beta_initializer": {"class_name": "Zeros", "config": {}}, "gamma_initializer": {"class_name": "Ones", "config": {}}, "moving_mean_initializer": {"class_name": "Zeros", "config": {}}, "moving_variance_initializer": {"class_name": "Ones", "config": {}}, "beta_regularizer": null, "gamma_regularizer": null, "beta_constraint": null, "gamma_constraint": null}, "name": "batch_normalization_2527_insert_1_2", "inbound_nodes": [[["conv2d_5773_insert", 0, 0, {}]]]}, {"class_name": "BatchNormalization", "config": {"name": "batch_normalization_2535_insert", "trainable": true, "dtype": "float32", "axis": [3], "momentum": 0.99, "epsilon": 1.001e-05, "center": true, "scale": true, "beta_initializer": {"class_name": "Zeros", "config": {}}, "gamma_initializer": {"class_name": "Ones", "config": {}}, "moving_mean_initializer": {"class_name": "Zeros", "config": {}}, "moving_variance_initializer": {"class_name": "Ones", "config": {}}, "beta_regularizer": null, "gamma_regularizer": null, "beta_constraint": null, "gamma_constraint": null}, "name": "batch_normalization_2535_insert", "inbound_nodes": [[["custom_pad_layer_1144", 0, 0, {}]]]}, {"class_name": "Cropping2D", "config": {"name": "cropping2d_118", "trainable": true, "dtype": "float32", "cropping": [[110, 110], [110, 110]], "data_format": "channels_last"}, "name": "cropping2d_118", "inbound_nodes": [[["conv2d_5777_insert_2", 0, 0, {}]]]}, {"class_name": "Cropping2D", "config": {"name": "cropping2d_119", "trainable": true, "dtype": "float32", "cropping": [[23, 23], [23, 23]], "data_format": "channels_last"}, "name": "cropping2d_119", "inbound_nodes": [[["concatenate_58_copy_ML", 0, 0, {}]]]}, {"class_name": "Cropping2D", "config": {"name": "cropping2d_120", "trainable": true, "dtype": "float32", "cropping": [[8, 8], [8, 8]], "data_format": "channels_last"}, "name": "cropping2d_120", "inbound_nodes": [[["batch_normalization_2527_insert_1_2", 0, 0, {}]]]}], "input_layers": [["input_1072", 0, 0]], "output_layers": [["batch_normalization_2535_insert", 0, 0], ["cropping2d_118", 0, 0], ["cropping2d_119", 0, 0], ["cropping2d_120", 0, 0]]}, "keras_version": "2.7.0", "backend": "tensorflow"}