{"class_name": "Functional", "config": {"name": "model_8674", "layers": [{"class_name": "InputLayer", "config": {"batch_input_shape": [null, 299, 299, 3], "dtype": "float32", "sparse": false, "ragged": false, "name": "input_1085"}, "name": "input_1085", "inbound_nodes": []}, {"class_name": "Conv2D", "config": {"name": "conv2d_1", "trainable": true, "dtype": "float32", "filters": 32, "kernel_size": [3, 3], "strides": [2, 2], "padding": "valid", "data_format": "channels_last", "dilation_rate": [1, 1], "groups": 1, "activation": "linear", "use_bias": false, "kernel_initializer": {"class_name": "VarianceScaling", "config": {"scale": 1.0, "mode": "fan_avg", "distribution": "uniform", "seed": null}}, "bias_initializer": {"class_name": "Zeros", "config": {}}, "kernel_regularizer": null, "bias_regularizer": null, "activity_regularizer": null, "kernel_constraint": null, "bias_constraint": null}, "name": "conv2d_1", "inbound_nodes": [[["input_1085", 0, 0, {}]]]}, {"class_name": "BatchNormalization", "config": {"name": "batch_normalization_2561_insert", "trainable": true, "dtype": "float32", "axis": [3], "momentum": 0.99, "epsilon": 0.001, "center": true, "scale": false, "beta_initializer": {"class_name": "Zeros", "config": {}}, "gamma_initializer": {"class_name": "Ones", "config": {}}, "moving_mean_initializer": {"class_name": "Zeros", "config": {}}, "moving_variance_initializer": {"class_name": "Ones", "config": {}}, "beta_regularizer": null, "gamma_regularizer": null, "beta_constraint": null, "gamma_constraint": null}, "name": "batch_normalization_2561_insert", "inbound_nodes": [[["conv2d_1", 0, 0, {}]]]}, {"class_name": "AveragePooling2D", "config": {"name": "average_pooling2d_1399_insert", "trainable": true, "dtype": "float32", "pool_size": [3, 3], "padding": "same", "strides": [1, 1], "data_format": "channels_last"}, "name": "average_pooling2d_1399_insert", "inbound_nodes": [[["batch_normalization_2561_insert", 0, 0, {}]]]}, {"class_name": "MaxPooling2D", "config": {"name": "max_pooling2d_2033_insert", "trainable": true, "dtype": "float32", "pool_size": [3, 3], "padding": "valid", "strides": [2, 2], "data_format": "channels_last"}, "name": "max_pooling2d_2033_insert", "inbound_nodes": [[["average_pooling2d_1399_insert", 0, 0, {}]]]}, {"class_name": "Conv2D", "config": {"name": "conv2d_5873_insert", "trainable": true, "dtype": "float32", "filters": 4, "kernel_size": [3, 1], "strides": [1, 1], "padding": "same", "data_format": "channels_last", "dilation_rate": [1, 1], "groups": 1, "activation": "linear", "use_bias": false, "kernel_initializer": {"class_name": "VarianceScaling", "config": {"scale": 1.0, "mode": "fan_avg", "distribution": "uniform", "seed": null}}, "bias_initializer": {"class_name": "Zeros", "config": {}}, "kernel_regularizer": null, "bias_regularizer": null, "activity_regularizer": null, "kernel_constraint": null, "bias_constraint": null}, "name": "conv2d_5873_insert", "inbound_nodes": [[["max_pooling2d_2033_insert", 0, 0, {}]]]}, {"class_name": "Conv2D", "config": {"name": "conv2d_5875_insert", "trainable": true, "dtype": "float32", "filters": 7, "kernel_size": [1, 1], "strides": [1, 1], "padding": "same", "data_format": "channels_last", "dilation_rate": [1, 1], "groups": 1, "activation": "linear", "use_bias": false, "kernel_initializer": {"class_name": "VarianceScaling", "config": {"scale": 1.0, "mode": "fan_avg", "distribution": "uniform", "seed": null}}, "bias_initializer": {"class_name": "Zeros", "config": {}}, "kernel_regularizer": null, "bias_regularizer": null, "activity_regularizer": null, "kernel_constraint": null, "bias_constraint": null}, "name": "conv2d_5875_insert", "inbound_nodes": [[["conv2d_5873_insert", 0, 0, {}]]]}, {"class_name": "Conv2D", "config": {"name": "conv2d_5877_insert", "trainable": true, "dtype": "float32", "filters": 4, "kernel_size": [3, 3], "strides": [1, 1], "padding": "valid", "data_format": "channels_last", "dilation_rate": [1, 1], "groups": 1, "activation": "linear", "use_bias": false, "kernel_initializer": {"class_name": "VarianceScaling", "config": {"scale": 1.0, "mode": "fan_avg", "distribution": "uniform", "seed": null}}, "bias_initializer": {"class_name": "Zeros", "config": {}}, "kernel_regularizer": null, "bias_regularizer": null, "activity_regularizer": null, "kernel_constraint": null, "bias_constraint": null}, "name": "conv2d_5877_insert", "inbound_nodes": [[["conv2d_5875_insert", 0, 0, {}]]]}, {"class_name": "Conv2D", "config": {"name": "conv2d_5879_insert", "trainable": true, "dtype": "float32", "filters": 4, "kernel_size": [1, 1], "strides": [1, 1], "padding": "valid", "data_format": "channels_last", "dilation_rate": [1, 1], "groups": 1, "activation": "linear", "use_bias": false, "kernel_initializer": {"class_name": "VarianceScaling", "config": {"scale": 1.0, "mode": "fan_avg", "distribution": "uniform", "seed": null}}, "bias_initializer": {"class_name": "Zeros", "config": {}}, "kernel_regularizer": null, "bias_regularizer": null, "activity_regularizer": null, "kernel_constraint": null, "bias_constraint": null}, "name": "conv2d_5879_insert", "inbound_nodes": [[["conv2d_5877_insert", 0, 0, {}]]]}, {"class_name": "GlobalAveragePooling2D", "config": {"name": "global_average_pooling2d_1823_insert", "trainable": true, "dtype": "float32", "data_format": "channels_last", "keepdims": false}, "name": "global_average_pooling2d_1823_insert", "inbound_nodes": [[["conv2d_5879_insert", 0, 0, {}]]]}, {"class_name": "CustomExpandLayer", "config": {"name": "custom_expand_layer_1831_insert", "trainable": true, "dtype": "float32", "axis": 1}, "name": "custom_expand_layer_1831_insert", "inbound_nodes": [[["global_average_pooling2d_1823_insert", 0, 0, {}]]]}, {"class_name": "CustomExpandLayer", "config": {"name": "custom_expand_layer_1832_insert", "trainable": true, "dtype": "float32", "axis": 1}, "name": "custom_expand_layer_1832_insert", "inbound_nodes": [[["custom_expand_layer_1831_insert", 0, 0, {}]]]}, {"class_name": "Conv2D", "config": {"name": "conv2d_5881_insert", "trainable": true, "dtype": "float32", "filters": 1, "kernel_size": [7, 1], "strides": [1, 1], "padding": "same", "data_format": "channels_last", "dilation_rate": [1, 1], "groups": 1, "activation": "linear", "use_bias": false, "kernel_initializer": {"class_name": "VarianceScaling", "config": {"scale": 1.0, "mode": "fan_avg", "distribution": "uniform", "seed": null}}, "bias_initializer": {"class_name": "Zeros", "config": {}}, "kernel_regularizer": null, "bias_regularizer": null, "activity_regularizer": null, "kernel_constraint": null, "bias_constraint": null}, "name": "conv2d_5881_insert", "inbound_nodes": [[["custom_expand_layer_1832_insert", 0, 0, {}]]]}, {"class_name": "Conv2D", "config": {"name": "conv2d_5883_insert", "trainable": true, "dtype": "float32", "filters": 5, "kernel_size": [1, 3], "strides": [1, 1], "padding": "same", "data_format": "channels_last", "dilation_rate": [1, 1], "groups": 1, "activation": "linear", "use_bias": false, "kernel_initializer": {"class_name": "VarianceScaling", "config": {"scale": 1.0, "mode": "fan_avg", "distribution": "uniform", "seed": null}}, "bias_initializer": {"class_name": "Zeros", "config": {}}, "kernel_regularizer": null, "bias_regularizer": null, "activity_regularizer": null, "kernel_constraint": null, "bias_constraint": null}, "name": "conv2d_5883_insert", "inbound_nodes": [[["conv2d_5881_insert", 0, 0, {}]]]}, {"class_name": "Conv2D", "config": {"name": "conv2d_5885_insert", "trainable": true, "dtype": "float32", "filters": 2, "kernel_size": [1, 7], "strides": [1, 1], "padding": "same", "data_format": "channels_last", "dilation_rate": [1, 1], "groups": 1, "activation": "linear", "use_bias": false, "kernel_initializer": {"class_name": "VarianceScaling", "config": {"scale": 1.0, "mode": "fan_avg", "distribution": "uniform", "seed": null}}, "bias_initializer": {"class_name": "Zeros", "config": {}}, "kernel_regularizer": null, "bias_regularizer": null, "activity_regularizer": null, "kernel_constraint": null, "bias_constraint": null}, "name": "conv2d_5885_insert", "inbound_nodes": [[["conv2d_5883_insert", 0, 0, {}]]]}, {"class_name": "Conv2D", "config": {"name": "conv2d_5887_insert", "trainable": true, "dtype": "float32", "filters": 6, "kernel_size": [5, 5], "strides": [1, 1], "padding": "same", "data_format": "channels_last", "dilation_rate": [1, 1], "groups": 1, "activation": "linear", "use_bias": false, "kernel_initializer": {"class_name": "VarianceScaling", "config": {"scale": 1.0, "mode": "fan_avg", "distribution": "uniform", "seed": null}}, "bias_initializer": {"class_name": "Zeros", "config": {}}, "kernel_regularizer": null, "bias_regularizer": null, "activity_regularizer": null, "kernel_constraint": null, "bias_constraint": null}, "name": "conv2d_5887_insert", "inbound_nodes": [[["conv2d_5885_insert", 0, 0, {}]]]}, {"class_name": "Conv2D", "config": {"name": "conv2d_5889_insert_1", "trainable": true, "dtype": "float32", "filters": 8, "kernel_size": [3, 3], "strides": [1, 1], "padding": "same", "data_format": "channels_last", "dilation_rate": [1, 1], "groups": 1, "activation": "linear", "use_bias": false, "kernel_initializer": {"class_name": "VarianceScaling", "config": {"scale": 1.0, "mode": "fan_avg", "distribution": "uniform", "seed": null}}, "bias_initializer": {"class_name": "Zeros", "config": {}}, "kernel_regularizer": null, "bias_regularizer": null, "activity_regularizer": null, "kernel_constraint": null, "bias_constraint": null}, "name": "conv2d_5889_insert_1", "inbound_nodes": [[["conv2d_5887_insert", 0, 0, {}]]]}, {"class_name": "CustomPadLayer", "config": {"name": "custom_pad_layer_1152", "trainable": true, "dtype": "float32", "padding": [[4, 4], [6, 6], [4, 5]], "constant_values": 2}, "name": "custom_pad_layer_1152", "inbound_nodes": [[["conv2d_5889_insert_1", 0, 0, {}]]]}, {"class_name": "AveragePooling2D", "config": {"name": "average_pooling2d_1401_insert_1", "trainable": true, "dtype": "float32", "pool_size": [3, 3], "padding": "same", "strides": [1, 1], "data_format": "channels_last"}, "name": "average_pooling2d_1401_insert_1", "inbound_nodes": [[["custom_pad_layer_1152", 0, 0, {}]]]}, {"class_name": "CustomPadLayer", "config": {"name": "custom_pad_layer_1153", "trainable": true, "dtype": "float32", "padding": [[4, 4], [0, 0], [0, 0]], "constant_values": 2}, "name": "custom_pad_layer_1153", "inbound_nodes": [[["average_pooling2d_1401_insert_1", 0, 0, {}]]]}, {"class_name": "CustomCropLayer", "config": {"name": "custom_crop_layer_847", "trainable": true, "dtype": "float32", "cropping": [[0, 0], [3, 4], [4, 4]]}, "name": "custom_crop_layer_847", "inbound_nodes": [[["custom_pad_layer_1153", 0, 0, {}]]]}, {"class_name": "BatchNormalization", "config": {"name": "batch_normalization_2563_insert", "trainable": true, "dtype": "float32", "axis": [3], "momentum": 0.99, "epsilon": 0.001, "center": true, "scale": false, "beta_initializer": {"class_name": "Zeros", "config": {}}, "gamma_initializer": {"class_name": "Ones", "config": {}}, "moving_mean_initializer": {"class_name": "Zeros", "config": {}}, "moving_variance_initializer": {"class_name": "Ones", "config": {}}, "beta_regularizer": null, "gamma_regularizer": null, "beta_constraint": null, "gamma_constraint": null}, "name": "batch_normalization_2563_insert", "inbound_nodes": [[["custom_crop_layer_847", 0, 0, {}]]]}, {"class_name": "CustomPadLayer", "config": {"name": "custom_pad_layer_1154", "trainable": true, "dtype": "float32", "padding": [[0, 0], [6, 7], [3, 3]], "constant_values": 2}, "name": "custom_pad_layer_1154", "inbound_nodes": [[["batch_normalization_2563_insert", 0, 0, {}]]]}, {"class_name": "CustomCropLayer", "config": {"name": "custom_crop_layer_848", "trainable": true, "dtype": "float32", "cropping": [[4, 5], [0, 0], [0, 0]]}, "name": "custom_crop_layer_848", "inbound_nodes": [[["custom_pad_layer_1154", 0, 0, {}]]]}, {"class_name": "MaxPooling2D", "config": {"name": "max_pooling2d_2035_insert", "trainable": true, "dtype": "float32", "pool_size": [3, 3], "padding": "valid", "strides": [2, 2], "data_format": "channels_last"}, "name": "max_pooling2d_2035_insert", "inbound_nodes": [[["custom_crop_layer_848", 0, 0, {}]]]}, {"class_name": "CustomPadLayer", "config": {"name": "custom_pad_layer_1155", "trainable": true, "dtype": "float32", "padding": [[2, 3], [0, 0], [0, 0]], "constant_values": 2}, "name": "custom_pad_layer_1155", "inbound_nodes": [[["max_pooling2d_2035_insert", 0, 0, {}]]]}, {"class_name": "CustomCropLayer", "config": {"name": "custom_crop_layer_849", "trainable": true, "dtype": "float32", "cropping": [[0, 0], [2, 2], [4, 4]]}, "name": "custom_crop_layer_849", "inbound_nodes": [[["custom_pad_layer_1155", 0, 0, {}]]]}, {"class_name": "BatchNormalization", "config": {"name": "batch_normalization_2565_insert", "trainable": true, "dtype": "float32", "axis": [3], "momentum": 0.99, "epsilon": 0.001, "center": true, "scale": false, "beta_initializer": {"class_name": "Zeros", "config": {}}, "gamma_initializer": {"class_name": "Ones", "config": {}}, "moving_mean_initializer": {"class_name": "Zeros", "config": {}}, "moving_variance_initializer": {"class_name": "Ones", "config": {}}, "beta_regularizer": null, "gamma_regularizer": null, "beta_constraint": null, "gamma_constraint": null}, "name": "batch_normalization_2565_insert", "inbound_nodes": [[["custom_crop_layer_849", 0, 0, {}]]]}, {"class_name": "CustomPadLayer", "config": {"name": "custom_pad_layer_1156", "trainable": true, "dtype": "float32", "padding": [[0, 0], [1, 2], [2, 2]], "constant_values": 2}, "name": "custom_pad_layer_1156", "inbound_nodes": [[["batch_normalization_2565_insert", 0, 0, {}]]]}, {"class_name": "CustomCropLayer", "config": {"name": "custom_crop_layer_850", "trainable": true, "dtype": "float32", "cropping": [[0, 1], [0, 0], [0, 0]]}, "name": "custom_crop_layer_850", "inbound_nodes": [[["custom_pad_layer_1156", 0, 0, {}]]]}, {"class_name": "MaxPooling2D", "config": {"name": "max_pooling2d_2037_insert", "trainable": true, "dtype": "float32", "pool_size": [3, 3], "padding": "valid", "strides": [2, 2], "data_format": "channels_last"}, "name": "max_pooling2d_2037_insert", "inbound_nodes": [[["custom_crop_layer_850", 0, 0, {}]]]}, {"class_name": "CustomPadLayer", "config": {"name": "custom_pad_layer_1157", "trainable": true, "dtype": "float32", "padding": [[4, 5], [6, 6], [3, 3]], "constant_values": 2}, "name": "custom_pad_layer_1157", "inbound_nodes": [[["max_pooling2d_2037_insert", 0, 0, {}]]]}, {"class_name": "BatchNormalization", "config": {"name": "batch_normalization_2567_insert", "trainable": true, "dtype": "float32", "axis": [3], "momentum": 0.99, "epsilon": 0.001, "center": true, "scale": false, "beta_initializer": {"class_name": "Zeros", "config": {}}, "gamma_initializer": {"class_name": "Ones", "config": {}}, "moving_mean_initializer": {"class_name": "Zeros", "config": {}}, "moving_variance_initializer": {"class_name": "Ones", "config": {}}, "beta_regularizer": null, "gamma_regularizer": null, "beta_constraint": null, "gamma_constraint": null}, "name": "batch_normalization_2567_insert", "inbound_nodes": [[["custom_pad_layer_1157", 0, 0, {}]]]}, {"class_name": "CustomCropLayer", "config": {"name": "custom_crop_layer_851", "trainable": true, "dtype": "float32", "cropping": [[1, 1], [4, 5], [2, 3]]}, "name": "custom_crop_layer_851", "inbound_nodes": [[["batch_normalization_2567_insert", 0, 0, {}]]]}, {"class_name": "BatchNormalization", "config": {"name": "batch_normalization_2569_insert_merge1", "trainable": true, "dtype": "float32", "axis": [3], "momentum": 0.99, "epsilon": 0.001, "center": true, "scale": false, "beta_initializer": {"class_name": "Zeros", "config": {}}, "gamma_initializer": {"class_name": "Ones", "config": {}}, "moving_mean_initializer": {"class_name": "Zeros", "config": {}}, "moving_variance_initializer": {"class_name": "Ones", "config": {}}, "beta_regularizer": null, "gamma_regularizer": null, "beta_constraint": null, "gamma_constraint": null}, "name": "batch_normalization_2569_insert_merge1", "inbound_nodes": [[["custom_crop_layer_851", 0, 0, {}]]]}, {"class_name": "Concatenate", "config": {"name": "concatenate_60_copy_ML", "trainable": true, "dtype": "float32", "axis": 3}, "name": "concatenate_60_copy_ML", "inbound_nodes": [[["batch_normalization_2569_insert_merge1", 0, 0, {}], ["custom_crop_layer_851", 0, 0, {}]]]}, {"class_name": "CustomPadLayer", "config": {"name": "custom_pad_layer_1158", "trainable": true, "dtype": "float32", "padding": [[3, 3], [1, 1], [0, 0]], "constant_values": 2}, "name": "custom_pad_layer_1158", "inbound_nodes": [[["concatenate_60_copy_ML", 0, 0, {}]]]}, {"class_name": "CustomCropLayer", "config": {"name": "custom_crop_layer_852", "trainable": true, "dtype": "float32", "cropping": [[0, 0], [0, 0], [2, 2]]}, "name": "custom_crop_layer_852", "inbound_nodes": [[["custom_pad_layer_1158", 0, 0, {}]]]}, {"class_name": "AveragePooling2D", "config": {"name": "average_pooling2d_1403_insert", "trainable": true, "dtype": "float32", "pool_size": [3, 3], "padding": "same", "strides": [1, 1], "data_format": "channels_last"}, "name": "average_pooling2d_1403_insert", "inbound_nodes": [[["custom_crop_layer_852", 0, 0, {}]]]}, {"class_name": "CustomPadLayer", "config": {"name": "custom_pad_layer_1159", "trainable": true, "dtype": "float32", "padding": [[0, 0], [5, 5], [0, 0]], "constant_values": 2}, "name": "custom_pad_layer_1159", "inbound_nodes": [[["average_pooling2d_1403_insert", 0, 0, {}]]]}, {"class_name": "CustomCropLayer", "config": {"name": "custom_crop_layer_853", "trainable": true, "dtype": "float32", "cropping": [[4, 5], [0, 0], [1, 2]]}, "name": "custom_crop_layer_853", "inbound_nodes": [[["custom_pad_layer_1159", 0, 0, {}]]]}, {"class_name": "AveragePooling2D", "config": {"name": "average_pooling2d_1405_insert", "trainable": true, "dtype": "float32", "pool_size": [3, 3], "padding": "same", "strides": [1, 1], "data_format": "channels_last"}, "name": "average_pooling2d_1405_insert", "inbound_nodes": [[["custom_crop_layer_853", 0, 0, {}]]]}, {"class_name": "CustomPadLayer", "config": {"name": "custom_pad_layer_1160", "trainable": true, "dtype": "float32", "padding": [[0, 0], [0, 0], [1, 1]], "constant_values": 2}, "name": "custom_pad_layer_1160", "inbound_nodes": [[["average_pooling2d_1405_insert", 0, 0, {}]]]}, {"class_name": "CustomCropLayer", "config": {"name": "custom_crop_layer_854", "trainable": true, "dtype": "float32", "cropping": [[1, 1], [2, 3], [0, 0]]}, "name": "custom_crop_layer_854", "inbound_nodes": [[["custom_pad_layer_1160", 0, 0, {}]]]}, {"class_name": "AveragePooling2D", "config": {"name": "average_pooling2d_1407_insert", "trainable": true, "dtype": "float32", "pool_size": [3, 3], "padding": "same", "strides": [1, 1], "data_format": "channels_last"}, "name": "average_pooling2d_1407_insert", "inbound_nodes": [[["custom_crop_layer_854", 0, 0, {}]]]}, {"class_name": "CustomPadLayer", "config": {"name": "custom_pad_layer_1161", "trainable": true, "dtype": "float32", "padding": [[0, 0], [0, 0], [2, 2]], "constant_values": 2}, "name": "custom_pad_layer_1161", "inbound_nodes": [[["average_pooling2d_1407_insert", 0, 0, {}]]]}, {"class_name": "CustomCropLayer", "config": {"name": "custom_crop_layer_855", "trainable": true, "dtype": "float32", "cropping": [[0, 0], [1, 2], [0, 0]]}, "name": "custom_crop_layer_855", "inbound_nodes": [[["custom_pad_layer_1161", 0, 0, {}]]]}, {"class_name": "AveragePooling2D", "config": {"name": "average_pooling2d_1401_insert_2", "trainable": true, "dtype": "float32", "pool_size": [3, 3], "padding": "same", "strides": [1, 1], "data_format": "channels_last"}, "name": "average_pooling2d_1401_insert_2", "inbound_nodes": [[["max_pooling2d_2035_insert", 0, 0, {}]]]}, {"class_name": "MaxPooling2D", "config": {"name": "max_pooling2d_2039_insert", "trainable": true, "dtype": "float32", "pool_size": [3, 3], "padding": "valid", "strides": [2, 2], "data_format": "channels_last"}, "name": "max_pooling2d_2039_insert", "inbound_nodes": [[["custom_crop_layer_855", 0, 0, {}]]]}, {"class_name": "Conv2D", "config": {"name": "conv2d_5889_insert_2", "trainable": true, "dtype": "float32", "filters": 8, "kernel_size": [3, 3], "strides": [1, 1], "padding": "same", "data_format": "channels_last", "dilation_rate": [1, 1], "groups": 1, "activation": "linear", "use_bias": false, "kernel_initializer": {"class_name": "VarianceScaling", "config": {"scale": 1.0, "mode": "fan_avg", "distribution": "uniform", "seed": null}}, "bias_initializer": {"class_name": "Zeros", "config": {}}, "kernel_regularizer": null, "bias_regularizer": null, "activity_regularizer": null, "kernel_constraint": null, "bias_constraint": null}, "name": "conv2d_5889_insert_2", "inbound_nodes": [[["average_pooling2d_1401_insert_2", 0, 0, {}]]]}], "input_layers": [["input_1085", 0, 0]], "output_layers": [["max_pooling2d_2039_insert", 0, 0], ["conv2d_5889_insert_2", 0, 0]]}, "keras_version": "2.7.0", "backend": "tensorflow"}