{"class_name": "Functional", "config": {"name": "model_8706", "layers": [{"class_name": "InputLayer", "config": {"batch_input_shape": [null, 224, 224, 3], "dtype": "float32", "sparse": false, "ragged": false, "name": "input_1089"}, "name": "input_1089", "inbound_nodes": []}, {"class_name": "ZeroPadding2D", "config": {"name": "conv1_pad", "trainable": true, "dtype": "float32", "padding": [[3, 3], [3, 3]], "data_format": "channels_last"}, "name": "conv1_pad", "inbound_nodes": [[["input_1089", 0, 0, {}]]]}, {"class_name": "Conv2D", "config": {"name": "conv2d_5901_insert", "trainable": true, "dtype": "float32", "filters": 5, "kernel_size": [1, 1], "strides": [2, 2], "padding": "valid", "data_format": "channels_last", "dilation_rate": [1, 1], "groups": 1, "activation": "linear", "use_bias": true, "kernel_initializer": {"class_name": "VarianceScaling", "config": {"scale": 1.0, "mode": "fan_avg", "distribution": "uniform", "seed": null}}, "bias_initializer": {"class_name": "Zeros", "config": {}}, "kernel_regularizer": null, "bias_regularizer": null, "activity_regularizer": null, "kernel_constraint": null, "bias_constraint": null}, "name": "conv2d_5901_insert", "inbound_nodes": [[["conv1_pad", 0, 0, {}]]]}, {"class_name": "BatchNormalization", "config": {"name": "batch_normalization_2577_insert", "trainable": true, "dtype": "float32", "axis": [3], "momentum": 0.99, "epsilon": 1.001e-05, "center": true, "scale": true, "beta_initializer": {"class_name": "Zeros", "config": {}}, "gamma_initializer": {"class_name": "Ones", "config": {}}, "moving_mean_initializer": {"class_name": "Zeros", "config": {}}, "moving_variance_initializer": {"class_name": "Ones", "config": {}}, "beta_regularizer": null, "gamma_regularizer": null, "beta_constraint": null, "gamma_constraint": null}, "name": "batch_normalization_2577_insert", "inbound_nodes": [[["conv2d_5901_insert", 0, 0, {}]]]}, {"class_name": "MaxPooling2D", "config": {"name": "max_pooling2d_2045_insert_1", "trainable": true, "dtype": "float32", "pool_size": [3, 3], "padding": "valid", "strides": [2, 2], "data_format": "channels_last"}, "name": "max_pooling2d_2045_insert_1", "inbound_nodes": [[["batch_normalization_2577_insert", 0, 0, {}]]]}, {"class_name": "Conv2D", "config": {"name": "conv2d_5903_insert", "trainable": true, "dtype": "float32", "filters": 4, "kernel_size": [7, 7], "strides": [2, 2], "padding": "valid", "data_format": "channels_last", "dilation_rate": [1, 1], "groups": 1, "activation": "linear", "use_bias": true, "kernel_initializer": {"class_name": "VarianceScaling", "config": {"scale": 1.0, "mode": "fan_avg", "distribution": "uniform", "seed": null}}, "bias_initializer": {"class_name": "Zeros", "config": {}}, "kernel_regularizer": null, "bias_regularizer": null, "activity_regularizer": null, "kernel_constraint": null, "bias_constraint": null}, "name": "conv2d_5903_insert", "inbound_nodes": [[["max_pooling2d_2045_insert_1", 0, 0, {}]]]}, {"class_name": "Conv2D", "config": {"name": "conv2d_5905_insert", "trainable": true, "dtype": "float32", "filters": 7, "kernel_size": [3, 3], "strides": [1, 1], "padding": "same", "data_format": "channels_last", "dilation_rate": [1, 1], "groups": 1, "activation": "linear", "use_bias": true, "kernel_initializer": {"class_name": "VarianceScaling", "config": {"scale": 1.0, "mode": "fan_avg", "distribution": "uniform", "seed": null}}, "bias_initializer": {"class_name": "Zeros", "config": {}}, "kernel_regularizer": null, "bias_regularizer": null, "activity_regularizer": null, "kernel_constraint": null, "bias_constraint": null}, "name": "conv2d_5905_insert", "inbound_nodes": [[["conv2d_5903_insert", 0, 0, {}]]]}, {"class_name": "ZeroPadding2D", "config": {"name": "zero_padding2d_485_insert", "trainable": true, "dtype": "float32", "padding": [[1, 1], [1, 1]], "data_format": "channels_last"}, "name": "zero_padding2d_485_insert", "inbound_nodes": [[["conv2d_5905_insert", 0, 0, {}]]]}, {"class_name": "GlobalAveragePooling2D", "config": {"name": "global_average_pooling2d_1831_insert", "trainable": true, "dtype": "float32", "data_format": "channels_last", "keepdims": false}, "name": "global_average_pooling2d_1831_insert", "inbound_nodes": [[["zero_padding2d_485_insert", 0, 0, {}]]]}, {"class_name": "CustomExpandLayer", "config": {"name": "custom_expand_layer_1837_insert", "trainable": true, "dtype": "float32", "axis": 1}, "name": "custom_expand_layer_1837_insert", "inbound_nodes": [[["global_average_pooling2d_1831_insert", 0, 0, {}]]]}, {"class_name": "CustomExpandLayer", "config": {"name": "custom_expand_layer_1838_insert", "trainable": true, "dtype": "float32", "axis": 1}, "name": "custom_expand_layer_1838_insert", "inbound_nodes": [[["custom_expand_layer_1837_insert", 0, 0, {}]]]}, {"class_name": "Conv2D", "config": {"name": "conv2d_5907_insert", "trainable": true, "dtype": "float32", "filters": 2, "kernel_size": [1, 1], "strides": [1, 1], "padding": "valid", "data_format": "channels_last", "dilation_rate": [1, 1], "groups": 1, "activation": "linear", "use_bias": true, "kernel_initializer": {"class_name": "VarianceScaling", "config": {"scale": 1.0, "mode": "fan_avg", "distribution": "uniform", "seed": null}}, "bias_initializer": {"class_name": "Zeros", "config": {}}, "kernel_regularizer": null, "bias_regularizer": null, "activity_regularizer": null, "kernel_constraint": null, "bias_constraint": null}, "name": "conv2d_5907_insert", "inbound_nodes": [[["custom_expand_layer_1838_insert", 0, 0, {}]]]}, {"class_name": "CustomPadLayer", "config": {"name": "custom_pad_layer_1162", "trainable": true, "dtype": "float32", "padding": [[9, 9], [3, 3], [2, 2]], "constant_values": 2}, "name": "custom_pad_layer_1162", "inbound_nodes": [[["conv2d_5907_insert", 0, 0, {}]]]}, {"class_name": "Conv2D", "config": {"name": "conv2d_5909_insert", "trainable": true, "dtype": "float32", "filters": 9, "kernel_size": [7, 7], "strides": [2, 2], "padding": "valid", "data_format": "channels_last", "dilation_rate": [1, 1], "groups": 1, "activation": "linear", "use_bias": true, "kernel_initializer": {"class_name": "VarianceScaling", "config": {"scale": 1.0, "mode": "fan_avg", "distribution": "uniform", "seed": null}}, "bias_initializer": {"class_name": "Zeros", "config": {}}, "kernel_regularizer": null, "bias_regularizer": null, "activity_regularizer": null, "kernel_constraint": null, "bias_constraint": null}, "name": "conv2d_5909_insert", "inbound_nodes": [[["custom_pad_layer_1162", 0, 0, {}]]]}, {"class_name": "CustomPadLayer", "config": {"name": "custom_pad_layer_1163", "trainable": true, "dtype": "float32", "padding": [[0, 0], [8, 8], [0, 0]], "constant_values": 2}, "name": "custom_pad_layer_1163", "inbound_nodes": [[["conv2d_5909_insert", 0, 0, {}]]]}, {"class_name": "CustomCropLayer", "config": {"name": "custom_crop_layer_856", "trainable": true, "dtype": "float32", "cropping": [[0, 1], [0, 0], [1, 2]]}, "name": "custom_crop_layer_856", "inbound_nodes": [[["custom_pad_layer_1163", 0, 0, {}]]]}, {"class_name": "BatchNormalization", "config": {"name": "batch_normalization_2579_insert", "trainable": true, "dtype": "float32", "axis": [3], "momentum": 0.99, "epsilon": 1.001e-05, "center": true, "scale": true, "beta_initializer": {"class_name": "Zeros", "config": {}}, "gamma_initializer": {"class_name": "Ones", "config": {}}, "moving_mean_initializer": {"class_name": "Zeros", "config": {}}, "moving_variance_initializer": {"class_name": "Ones", "config": {}}, "beta_regularizer": null, "gamma_regularizer": null, "beta_constraint": null, "gamma_constraint": null}, "name": "batch_normalization_2579_insert", "inbound_nodes": [[["custom_crop_layer_856", 0, 0, {}]]]}, {"class_name": "CustomPadLayer", "config": {"name": "custom_pad_layer_1164", "trainable": true, "dtype": "float32", "padding": [[3, 4], [0, 0], [0, 0]], "constant_values": 2}, "name": "custom_pad_layer_1164", "inbound_nodes": [[["batch_normalization_2579_insert", 0, 0, {}]]]}, {"class_name": "CustomCropLayer", "config": {"name": "custom_crop_layer_857", "trainable": true, "dtype": "float32", "cropping": [[0, 0], [0, 0], [0, 1]]}, "name": "custom_crop_layer_857", "inbound_nodes": [[["custom_pad_layer_1164", 0, 0, {}]]]}, {"class_name": "BatchNormalization", "config": {"name": "batch_normalization_2581_insert", "trainable": true, "dtype": "float32", "axis": [3], "momentum": 0.99, "epsilon": 1.001e-05, "center": true, "scale": true, "beta_initializer": {"class_name": "Zeros", "config": {}}, "gamma_initializer": {"class_name": "Ones", "config": {}}, "moving_mean_initializer": {"class_name": "Zeros", "config": {}}, "moving_variance_initializer": {"class_name": "Ones", "config": {}}, "beta_regularizer": null, "gamma_regularizer": null, "beta_constraint": null, "gamma_constraint": null}, "name": "batch_normalization_2581_insert", "inbound_nodes": [[["custom_crop_layer_857", 0, 0, {}]]]}, {"class_name": "CustomPadLayer", "config": {"name": "custom_pad_layer_1165", "trainable": true, "dtype": "float32", "padding": [[1, 2], [0, 0], [6, 6]], "constant_values": 2}, "name": "custom_pad_layer_1165", "inbound_nodes": [[["batch_normalization_2581_insert", 0, 0, {}]]]}, {"class_name": "CustomCropLayer", "config": {"name": "custom_crop_layer_858", "trainable": true, "dtype": "float32", "cropping": [[0, 0], [3, 3], [0, 0]]}, "name": "custom_crop_layer_858", "inbound_nodes": [[["custom_pad_layer_1165", 0, 0, {}]]]}, {"class_name": "BatchNormalization", "config": {"name": "batch_normalization_2583_insert", "trainable": true, "dtype": "float32", "axis": [3], "momentum": 0.99, "epsilon": 1.001e-05, "center": true, "scale": true, "beta_initializer": {"class_name": "Zeros", "config": {}}, "gamma_initializer": {"class_name": "Ones", "config": {}}, "moving_mean_initializer": {"class_name": "Zeros", "config": {}}, "moving_variance_initializer": {"class_name": "Ones", "config": {}}, "beta_regularizer": null, "gamma_regularizer": null, "beta_constraint": null, "gamma_constraint": null}, "name": "batch_normalization_2583_insert", "inbound_nodes": [[["custom_crop_layer_858", 0, 0, {}]]]}, {"class_name": "CustomCropLayer", "config": {"name": "custom_crop_layer_859", "trainable": true, "dtype": "float32", "cropping": [[2, 2], [2, 3], [1, 1]]}, "name": "custom_crop_layer_859", "inbound_nodes": [[["batch_normalization_2583_insert", 0, 0, {}]]]}, {"class_name": "BatchNormalization", "config": {"name": "batch_normalization_2585_insert_merge1", "trainable": true, "dtype": "float32", "axis": [3], "momentum": 0.99, "epsilon": 1.001e-05, "center": true, "scale": true, "beta_initializer": {"class_name": "Zeros", "config": {}}, "gamma_initializer": {"class_name": "Ones", "config": {}}, "moving_mean_initializer": {"class_name": "Zeros", "config": {}}, "moving_variance_initializer": {"class_name": "Ones", "config": {}}, "beta_regularizer": null, "gamma_regularizer": null, "beta_constraint": null, "gamma_constraint": null}, "name": "batch_normalization_2585_insert_merge1", "inbound_nodes": [[["custom_crop_layer_859", 0, 0, {}]]]}, {"class_name": "MaxPooling2D", "config": {"name": "max_pooling2d_2045_insert_2", "trainable": true, "dtype": "float32", "pool_size": [3, 3], "padding": "valid", "strides": [2, 2], "data_format": "channels_last"}, "name": "max_pooling2d_2045_insert_2", "inbound_nodes": [[["conv1_pad", 0, 0, {}]]]}, {"class_name": "Add", "config": {"name": "add_68_copy_ML", "trainable": true, "dtype": "float32"}, "name": "add_68_copy_ML", "inbound_nodes": [[["batch_normalization_2585_insert_merge1", 0, 0, {}], ["custom_crop_layer_859", 0, 0, {}]]]}, {"class_name": "Cropping2D", "config": {"name": "cropping2d_122", "trainable": true, "dtype": "float32", "cropping": [[52, 52], [52, 52]], "data_format": "channels_last"}, "name": "cropping2d_122", "inbound_nodes": [[["max_pooling2d_2045_insert_2", 0, 0, {}]]]}], "input_layers": [["input_1089", 0, 0]], "output_layers": [["add_68_copy_ML", 0, 0], ["cropping2d_122", 0, 0]]}, "keras_version": "2.7.0", "backend": "tensorflow"}