{"class_name": "Functional", "config": {"name": "model_6583", "layers": [{"class_name": "InputLayer", "config": {"batch_input_shape": [null, 32, 32, 3], "dtype": "float32", "sparse": false, "ragged": false, "name": "input_841"}, "name": "input_841", "inbound_nodes": []}, {"class_name": "Conv2D", "config": {"name": "conv2d_1", "trainable": true, "batch_input_shape": [null, 32, 32, 3], "dtype": "float32", "filters": 96, "kernel_size": [3, 3], "strides": [2, 2], "padding": "same", "data_format": "channels_last", "dilation_rate": [1, 1], "groups": 1, "activation": "relu", "use_bias": true, "kernel_initializer": {"class_name": "VarianceScaling", "config": {"scale": 1.0, "mode": "fan_avg", "distribution": "uniform", "seed": null}}, "bias_initializer": {"class_name": "Zeros", "config": {}}, "kernel_regularizer": null, "bias_regularizer": null, "activity_regularizer": null, "kernel_constraint": null, "bias_constraint": null}, "name": "conv2d_1", "inbound_nodes": [[["input_841", 0, 0, {}]]]}, {"class_name": "MaxPooling2D", "config": {"name": "max_pooling2d_1547_insert", "trainable": true, "dtype": "float32", "pool_size": [3, 3], "padding": "valid", "strides": [2, 2], "data_format": "channels_last"}, "name": "max_pooling2d_1547_insert", "inbound_nodes": [[["conv2d_1", 0, 0, {}]]]}, {"class_name": "Conv2D", "config": {"name": "conv2d_4511_insert", "trainable": true, "dtype": "float32", "filters": 2, "kernel_size": [5, 5], "strides": [1, 1], "padding": "same", "data_format": "channels_last", "dilation_rate": [1, 1], "groups": 1, "activation": "relu", "use_bias": true, "kernel_initializer": {"class_name": "VarianceScaling", "config": {"scale": 1.0, "mode": "fan_avg", "distribution": "uniform", "seed": null}}, "bias_initializer": {"class_name": "Zeros", "config": {}}, "kernel_regularizer": null, "bias_regularizer": null, "activity_regularizer": null, "kernel_constraint": null, "bias_constraint": null}, "name": "conv2d_4511_insert", "inbound_nodes": [[["max_pooling2d_1547_insert", 0, 0, {}]]]}, {"class_name": "MaxPooling2D", "config": {"name": "max_pooling2d_1549_insert", "trainable": true, "dtype": "float32", "pool_size": [2, 2], "padding": "valid", "strides": [2, 2], "data_format": "channels_last"}, "name": "max_pooling2d_1549_insert", "inbound_nodes": [[["conv2d_4511_insert", 0, 0, {}]]]}, {"class_name": "Dropout", "config": {"name": "dropout_309_insert", "trainable": true, "dtype": "float32", "rate": 0.5, "noise_shape": null, "seed": null}, "name": "dropout_309_insert", "inbound_nodes": [[["max_pooling2d_1549_insert", 0, 0, {}]]]}, {"class_name": "BatchNormalization", "config": {"name": "batch_normalization_1921_insert", "trainable": true, "dtype": "float32", "axis": [3], "momentum": 0.99, "epsilon": 0.001, "center": true, "scale": true, "beta_initializer": {"class_name": "Zeros", "config": {}}, "gamma_initializer": {"class_name": "Ones", "config": {}}, "moving_mean_initializer": {"class_name": "Zeros", "config": {}}, "moving_variance_initializer": {"class_name": "Ones", "config": {}}, "beta_regularizer": null, "gamma_regularizer": null, "beta_constraint": null, "gamma_constraint": null}, "name": "batch_normalization_1921_insert", "inbound_nodes": [[["dropout_309_insert", 0, 0, {}]]]}, {"class_name": "Conv2D", "config": {"name": "conv2d_4513_insert", "trainable": true, "dtype": "float32", "filters": 3, "kernel_size": [3, 3], "strides": [1, 1], "padding": "same", "data_format": "channels_last", "dilation_rate": [1, 1], "groups": 1, "activation": "relu", "use_bias": true, "kernel_initializer": {"class_name": "VarianceScaling", "config": {"scale": 1.0, "mode": "fan_avg", "distribution": "uniform", "seed": null}}, "bias_initializer": {"class_name": "Zeros", "config": {}}, "kernel_regularizer": null, "bias_regularizer": null, "activity_regularizer": null, "kernel_constraint": null, "bias_constraint": null}, "name": "conv2d_4513_insert", "inbound_nodes": [[["batch_normalization_1921_insert", 0, 0, {}]]]}, {"class_name": "Flatten", "config": {"name": "flatten_113_insert_1", "trainable": true, "dtype": "float32", "data_format": "channels_last"}, "name": "flatten_113_insert_1", "inbound_nodes": [[["conv2d_4513_insert", 0, 0, {}]]]}, {"class_name": "Dropout", "config": {"name": "dropout_311_insert", "trainable": true, "dtype": "float32", "rate": 0.5, "noise_shape": null, "seed": null}, "name": "dropout_311_insert", "inbound_nodes": [[["flatten_113_insert_1", 0, 0, {}]]]}, {"class_name": "CustomExpandLayer", "config": {"name": "custom_expand_layer_1435", "trainable": true, "dtype": "float32", "axis": 1}, "name": "custom_expand_layer_1435", "inbound_nodes": [[["dropout_311_insert", 0, 0, {}]]]}, {"class_name": "CustomExpandLayer", "config": {"name": "custom_expand_layer_1436", "trainable": true, "dtype": "float32", "axis": 1}, "name": "custom_expand_layer_1436", "inbound_nodes": [[["custom_expand_layer_1435", 0, 0, {}]]]}, {"class_name": "CustomPadLayer", "config": {"name": "custom_pad_layer_812", "trainable": true, "dtype": "float32", "padding": [[6, 6], [6, 7], [0, 0]], "constant_values": 2}, "name": "custom_pad_layer_812", "inbound_nodes": [[["custom_expand_layer_1436", 0, 0, {}]]]}, {"class_name": "CustomCropLayer", "config": {"name": "custom_crop_layer_605", "trainable": true, "dtype": "float32", "cropping": [[0, 0], [0, 0], [5, 6]]}, "name": "custom_crop_layer_605", "inbound_nodes": [[["custom_pad_layer_812", 0, 0, {}]]]}, {"class_name": "BatchNormalization", "config": {"name": "batch_normalization_1923_insert", "trainable": true, "dtype": "float32", "axis": [3], "momentum": 0.99, "epsilon": 0.001, "center": true, "scale": true, "beta_initializer": {"class_name": "Zeros", "config": {}}, "gamma_initializer": {"class_name": "Ones", "config": {}}, "moving_mean_initializer": {"class_name": "Zeros", "config": {}}, "moving_variance_initializer": {"class_name": "Ones", "config": {}}, "beta_regularizer": null, "gamma_regularizer": null, "beta_constraint": null, "gamma_constraint": null}, "name": "batch_normalization_1923_insert", "inbound_nodes": [[["custom_crop_layer_605", 0, 0, {}]]]}, {"class_name": "CustomPadLayer", "config": {"name": "custom_pad_layer_813", "trainable": true, "dtype": "float32", "padding": [[0, 0], [2, 3], [1, 1]], "constant_values": 2}, "name": "custom_pad_layer_813", "inbound_nodes": [[["batch_normalization_1923_insert", 0, 0, {}]]]}, {"class_name": "Conv2D", "config": {"name": "conv2d_4515_insert_1", "trainable": true, "dtype": "float32", "filters": 1, "kernel_size": [5, 5], "strides": [1, 1], "padding": "same", "data_format": "channels_last", "dilation_rate": [1, 1], "groups": 1, "activation": "relu", "use_bias": true, "kernel_initializer": {"class_name": "VarianceScaling", "config": {"scale": 1.0, "mode": "fan_avg", "distribution": "uniform", "seed": null}}, "bias_initializer": {"class_name": "Zeros", "config": {}}, "kernel_regularizer": null, "bias_regularizer": null, "activity_regularizer": null, "kernel_constraint": null, "bias_constraint": null}, "name": "conv2d_4515_insert_1", "inbound_nodes": [[["custom_pad_layer_813", 0, 0, {}]]]}, {"class_name": "CustomPadLayer", "config": {"name": "custom_pad_layer_814", "trainable": true, "dtype": "float32", "padding": [[1, 2], [0, 0], [7, 8]], "constant_values": 2}, "name": "custom_pad_layer_814", "inbound_nodes": [[["conv2d_4515_insert_1", 0, 0, {}]]]}, {"class_name": "CustomCropLayer", "config": {"name": "custom_crop_layer_606", "trainable": true, "dtype": "float32", "cropping": [[0, 0], [3, 3], [0, 0]]}, "name": "custom_crop_layer_606", "inbound_nodes": [[["custom_pad_layer_814", 0, 0, {}]]]}, {"class_name": "BatchNormalization", "config": {"name": "batch_normalization_1925_insert_1", "trainable": true, "dtype": "float32", "axis": [3], "momentum": 0.99, "epsilon": 0.001, "center": true, "scale": true, "beta_initializer": {"class_name": "Zeros", "config": {}}, "gamma_initializer": {"class_name": "Ones", "config": {}}, "moving_mean_initializer": {"class_name": "Zeros", "config": {}}, "moving_variance_initializer": {"class_name": "Ones", "config": {}}, "beta_regularizer": null, "gamma_regularizer": null, "beta_constraint": null, "gamma_constraint": null}, "name": "batch_normalization_1925_insert_1", "inbound_nodes": [[["custom_crop_layer_606", 0, 0, {}]]]}, {"class_name": "CustomCropLayer", "config": {"name": "custom_crop_layer_607", "trainable": true, "dtype": "float32", "cropping": [[0, 0], [1, 2], [5, 5]]}, "name": "custom_crop_layer_607", "inbound_nodes": [[["batch_normalization_1925_insert_1", 0, 0, {}]]]}, {"class_name": "MaxPooling2D", "config": {"name": "max_pooling2d_1551_insert", "trainable": true, "dtype": "float32", "pool_size": [3, 3], "padding": "valid", "strides": [2, 2], "data_format": "channels_last"}, "name": "max_pooling2d_1551_insert", "inbound_nodes": [[["custom_crop_layer_607", 0, 0, {}]]]}, {"class_name": "Flatten", "config": {"name": "flatten_113_insert_2", "trainable": true, "dtype": "float32", "data_format": "channels_last"}, "name": "flatten_113_insert_2", "inbound_nodes": [[["batch_normalization_1923_insert", 0, 0, {}]]]}, {"class_name": "Conv2D", "config": {"name": "conv2d_4515_insert_2", "trainable": true, "dtype": "float32", "filters": 1, "kernel_size": [5, 5], "strides": [1, 1], "padding": "same", "data_format": "channels_last", "dilation_rate": [1, 1], "groups": 1, "activation": "relu", "use_bias": true, "kernel_initializer": {"class_name": "VarianceScaling", "config": {"scale": 1.0, "mode": "fan_avg", "distribution": "uniform", "seed": null}}, "bias_initializer": {"class_name": "Zeros", "config": {}}, "kernel_regularizer": null, "bias_regularizer": null, "activity_regularizer": null, "kernel_constraint": null, "bias_constraint": null}, "name": "conv2d_4515_insert_2", "inbound_nodes": [[["conv2d_4515_insert_1", 0, 0, {}]]]}, {"class_name": "BatchNormalization", "config": {"name": "batch_normalization_1925_insert_2", "trainable": true, "dtype": "float32", "axis": [3], "momentum": 0.99, "epsilon": 0.001, "center": true, "scale": true, "beta_initializer": {"class_name": "Zeros", "config": {}}, "gamma_initializer": {"class_name": "Ones", "config": {}}, "moving_mean_initializer": {"class_name": "Zeros", "config": {}}, "moving_variance_initializer": {"class_name": "Ones", "config": {}}, "beta_regularizer": null, "gamma_regularizer": null, "beta_constraint": null, "gamma_constraint": null}, "name": "batch_normalization_1925_insert_2", "inbound_nodes": [[["max_pooling2d_1547_insert", 0, 0, {}]]]}], "input_layers": [["input_841", 0, 0]], "output_layers": [["max_pooling2d_1551_insert", 0, 0], ["flatten_113_insert_2", 0, 0], ["conv2d_4515_insert_2", 0, 0], ["batch_normalization_1925_insert_2", 0, 0]]}, "keras_version": "2.7.0", "backend": "tensorflow"}