{"class_name": "Functional", "config": {"name": "model_6680", "layers": [{"class_name": "InputLayer", "config": {"batch_input_shape": [null, 224, 224, 3], "dtype": "float32", "sparse": false, "ragged": false, "name": "input_855"}, "name": "input_855", "inbound_nodes": []}, {"class_name": "ZeroPadding2D", "config": {"name": "zero_padding2d_1", "trainable": true, "dtype": "float32", "padding": [[3, 3], [3, 3]], "data_format": "channels_last"}, "name": "zero_padding2d_1", "inbound_nodes": [[["input_855", 0, 0, {}]]]}, {"class_name": "BatchNormalization", "config": {"name": "batch_normalization_1943_insert_1", "trainable": true, "dtype": "float32", "axis": [3], "momentum": 0.99, "epsilon": 1.001e-05, "center": true, "scale": true, "beta_initializer": {"class_name": "Zeros", "config": {}}, "gamma_initializer": {"class_name": "Ones", "config": {}}, "moving_mean_initializer": {"class_name": "Zeros", "config": {}}, "moving_variance_initializer": {"class_name": "Ones", "config": {}}, "beta_regularizer": null, "gamma_regularizer": null, "beta_constraint": null, "gamma_constraint": null}, "name": "batch_normalization_1943_insert_1", "inbound_nodes": [[["zero_padding2d_1", 0, 0, {}]]]}, {"class_name": "Conv2D", "config": {"name": "conv2d_4553_insert", "trainable": true, "dtype": "float32", "filters": 9, "kernel_size": [1, 1], "strides": [1, 1], "padding": "valid", "data_format": "channels_last", "dilation_rate": [1, 1], "groups": 1, "activation": "linear", "use_bias": false, "kernel_initializer": {"class_name": "VarianceScaling", "config": {"scale": 1.0, "mode": "fan_avg", "distribution": "uniform", "seed": null}}, "bias_initializer": {"class_name": "Zeros", "config": {}}, "kernel_regularizer": null, "bias_regularizer": null, "activity_regularizer": null, "kernel_constraint": null, "bias_constraint": null}, "name": "conv2d_4553_insert", "inbound_nodes": [[["batch_normalization_1943_insert_1", 0, 0, {}]]]}, {"class_name": "AveragePooling2D", "config": {"name": "average_pooling2d_1091_insert", "trainable": true, "dtype": "float32", "pool_size": [2, 2], "padding": "valid", "strides": [2, 2], "data_format": "channels_last"}, "name": "average_pooling2d_1091_insert", "inbound_nodes": [[["conv2d_4553_insert", 0, 0, {}]]]}, {"class_name": "MaxPooling2D", "config": {"name": "max_pooling2d_1563_insert_1", "trainable": true, "dtype": "float32", "pool_size": [3, 3], "padding": "valid", "strides": [2, 2], "data_format": "channels_last"}, "name": "max_pooling2d_1563_insert_1", "inbound_nodes": [[["average_pooling2d_1091_insert", 0, 0, {}]]]}, {"class_name": "Conv2D", "config": {"name": "conv2d_4555_insert", "trainable": true, "dtype": "float32", "filters": 5, "kernel_size": [7, 7], "strides": [2, 2], "padding": "valid", "data_format": "channels_last", "dilation_rate": [1, 1], "groups": 1, "activation": "linear", "use_bias": false, "kernel_initializer": {"class_name": "VarianceScaling", "config": {"scale": 1.0, "mode": "fan_avg", "distribution": "uniform", "seed": null}}, "bias_initializer": {"class_name": "Zeros", "config": {}}, "kernel_regularizer": null, "bias_regularizer": null, "activity_regularizer": null, "kernel_constraint": null, "bias_constraint": null}, "name": "conv2d_4555_insert", "inbound_nodes": [[["max_pooling2d_1563_insert_1", 0, 0, {}]]]}, {"class_name": "Conv2D", "config": {"name": "conv2d_4557_insert", "trainable": true, "dtype": "float32", "filters": 2, "kernel_size": [3, 3], "strides": [1, 1], "padding": "same", "data_format": "channels_last", "dilation_rate": [1, 1], "groups": 1, "activation": "linear", "use_bias": false, "kernel_initializer": {"class_name": "VarianceScaling", "config": {"scale": 1.0, "mode": "fan_avg", "distribution": "uniform", "seed": null}}, "bias_initializer": {"class_name": "Zeros", "config": {}}, "kernel_regularizer": null, "bias_regularizer": null, "activity_regularizer": null, "kernel_constraint": null, "bias_constraint": null}, "name": "conv2d_4557_insert", "inbound_nodes": [[["conv2d_4555_insert", 0, 0, {}]]]}, {"class_name": "ZeroPadding2D", "config": {"name": "zero_padding2d_375_insert", "trainable": true, "dtype": "float32", "padding": [[1, 1], [1, 1]], "data_format": "channels_last"}, "name": "zero_padding2d_375_insert", "inbound_nodes": [[["conv2d_4557_insert", 0, 0, {}]]]}, {"class_name": "GlobalAveragePooling2D", "config": {"name": "global_average_pooling2d_1417_insert", "trainable": true, "dtype": "float32", "data_format": "channels_last", "keepdims": false}, "name": "global_average_pooling2d_1417_insert", "inbound_nodes": [[["zero_padding2d_375_insert", 0, 0, {}]]]}, {"class_name": "CustomExpandLayer", "config": {"name": "custom_expand_layer_1459", "trainable": true, "dtype": "float32", "axis": 1}, "name": "custom_expand_layer_1459", "inbound_nodes": [[["global_average_pooling2d_1417_insert", 0, 0, {}]]]}, {"class_name": "CustomExpandLayer", "config": {"name": "custom_expand_layer_1460", "trainable": true, "dtype": "float32", "axis": 1}, "name": "custom_expand_layer_1460", "inbound_nodes": [[["custom_expand_layer_1459", 0, 0, {}]]]}, {"class_name": "CustomPadLayer", "config": {"name": "custom_pad_layer_824", "trainable": true, "dtype": "float32", "padding": [[9, 9], [6, 7], [2, 3]], "constant_values": 2}, "name": "custom_pad_layer_824", "inbound_nodes": [[["custom_expand_layer_1460", 0, 0, {}]]]}, {"class_name": "AveragePooling2D", "config": {"name": "average_pooling2d_1093_insert", "trainable": true, "dtype": "float32", "pool_size": [2, 2], "padding": "valid", "strides": [2, 2], "data_format": "channels_last"}, "name": "average_pooling2d_1093_insert", "inbound_nodes": [[["custom_pad_layer_824", 0, 0, {}]]]}, {"class_name": "CustomPadLayer", "config": {"name": "custom_pad_layer_825", "trainable": true, "dtype": "float32", "padding": [[0, 0], [6, 6], [0, 0]], "constant_values": 2}, "name": "custom_pad_layer_825", "inbound_nodes": [[["average_pooling2d_1093_insert", 0, 0, {}]]]}, {"class_name": "CustomCropLayer", "config": {"name": "custom_crop_layer_612", "trainable": true, "dtype": "float32", "cropping": [[0, 0], [0, 0], [0, 1]]}, "name": "custom_crop_layer_612", "inbound_nodes": [[["custom_pad_layer_825", 0, 0, {}]]]}, {"class_name": "BatchNormalization", "config": {"name": "batch_normalization_1945_insert", "trainable": true, "dtype": "float32", "axis": [3], "momentum": 0.99, "epsilon": 1.001e-05, "center": true, "scale": true, "beta_initializer": {"class_name": "Zeros", "config": {}}, "gamma_initializer": {"class_name": "Ones", "config": {}}, "moving_mean_initializer": {"class_name": "Zeros", "config": {}}, "moving_variance_initializer": {"class_name": "Ones", "config": {}}, "beta_regularizer": null, "gamma_regularizer": null, "beta_constraint": null, "gamma_constraint": null}, "name": "batch_normalization_1945_insert", "inbound_nodes": [[["custom_crop_layer_612", 0, 0, {}]]]}, {"class_name": "CustomPadLayer", "config": {"name": "custom_pad_layer_826", "trainable": true, "dtype": "float32", "padding": [[2, 3], [0, 0], [0, 1]], "constant_values": 2}, "name": "custom_pad_layer_826", "inbound_nodes": [[["batch_normalization_1945_insert", 0, 0, {}]]]}, {"class_name": "CustomCropLayer", "config": {"name": "custom_crop_layer_613", "trainable": true, "dtype": "float32", "cropping": [[0, 0], [1, 1], [0, 0]]}, "name": "custom_crop_layer_613", "inbound_nodes": [[["custom_pad_layer_826", 0, 0, {}]]]}, {"class_name": "AveragePooling2D", "config": {"name": "average_pooling2d_1095_insert", "trainable": true, "dtype": "float32", "pool_size": [2, 2], "padding": "valid", "strides": [2, 2], "data_format": "channels_last"}, "name": "average_pooling2d_1095_insert", "inbound_nodes": [[["custom_crop_layer_613", 0, 0, {}]]]}, {"class_name": "CustomPadLayer", "config": {"name": "custom_pad_layer_827", "trainable": true, "dtype": "float32", "padding": [[2, 2], [0, 0], [5, 5]], "constant_values": 2}, "name": "custom_pad_layer_827", "inbound_nodes": [[["average_pooling2d_1095_insert", 0, 0, {}]]]}, {"class_name": "CustomCropLayer", "config": {"name": "custom_crop_layer_614", "trainable": true, "dtype": "float32", "cropping": [[0, 0], [1, 2], [0, 0]]}, "name": "custom_crop_layer_614", "inbound_nodes": [[["custom_pad_layer_827", 0, 0, {}]]]}, {"class_name": "BatchNormalization", "config": {"name": "batch_normalization_1947_insert_merge1", "trainable": true, "dtype": "float32", "axis": [3], "momentum": 0.99, "epsilon": 1.001e-05, "center": true, "scale": true, "beta_initializer": {"class_name": "Zeros", "config": {}}, "gamma_initializer": {"class_name": "Ones", "config": {}}, "moving_mean_initializer": {"class_name": "Zeros", "config": {}}, "moving_variance_initializer": {"class_name": "Ones", "config": {}}, "beta_regularizer": null, "gamma_regularizer": null, "beta_constraint": null, "gamma_constraint": null}, "name": "batch_normalization_1947_insert_merge1", "inbound_nodes": [[["custom_crop_layer_614", 0, 0, {}]]]}, {"class_name": "Concatenate", "config": {"name": "concatenate_42_copy_ML", "trainable": true, "dtype": "float32", "axis": 3}, "name": "concatenate_42_copy_ML", "inbound_nodes": [[["batch_normalization_1947_insert_merge1", 0, 0, {}], ["custom_crop_layer_614", 0, 0, {}]]]}, {"class_name": "CustomPadLayer", "config": {"name": "custom_pad_layer_828", "trainable": true, "dtype": "float32", "padding": [[0, 0], [2, 2], [0, 0]], "constant_values": 2}, "name": "custom_pad_layer_828", "inbound_nodes": [[["concatenate_42_copy_ML", 0, 0, {}]]]}, {"class_name": "CustomCropLayer", "config": {"name": "custom_crop_layer_615", "trainable": true, "dtype": "float32", "cropping": [[2, 2], [0, 0], [5, 6]]}, "name": "custom_crop_layer_615", "inbound_nodes": [[["custom_pad_layer_828", 0, 0, {}]]]}, {"class_name": "BatchNormalization", "config": {"name": "batch_normalization_1949_insert", "trainable": true, "dtype": "float32", "axis": [3], "momentum": 0.99, "epsilon": 1.001e-05, "center": true, "scale": true, "beta_initializer": {"class_name": "Zeros", "config": {}}, "gamma_initializer": {"class_name": "Ones", "config": {}}, "moving_mean_initializer": {"class_name": "Zeros", "config": {}}, "moving_variance_initializer": {"class_name": "Ones", "config": {}}, "beta_regularizer": null, "gamma_regularizer": null, "beta_constraint": null, "gamma_constraint": null}, "name": "batch_normalization_1949_insert", "inbound_nodes": [[["custom_crop_layer_615", 0, 0, {}]]]}, {"class_name": "CustomPadLayer", "config": {"name": "custom_pad_layer_829", "trainable": true, "dtype": "float32", "padding": [[6, 6], [2, 2], [1, 1]], "constant_values": 2}, "name": "custom_pad_layer_829", "inbound_nodes": [[["batch_normalization_1949_insert", 0, 0, {}]]]}, {"class_name": "BatchNormalization", "config": {"name": "batch_normalization_1951_insert_1", "trainable": true, "dtype": "float32", "axis": [3], "momentum": 0.99, "epsilon": 1.001e-05, "center": true, "scale": true, "beta_initializer": {"class_name": "Zeros", "config": {}}, "gamma_initializer": {"class_name": "Ones", "config": {}}, "moving_mean_initializer": {"class_name": "Zeros", "config": {}}, "moving_variance_initializer": {"class_name": "Ones", "config": {}}, "beta_regularizer": null, "gamma_regularizer": null, "beta_constraint": null, "gamma_constraint": null}, "name": "batch_normalization_1951_insert_1", "inbound_nodes": [[["custom_pad_layer_829", 0, 0, {}]]]}, {"class_name": "CustomPadLayer", "config": {"name": "custom_pad_layer_830", "trainable": true, "dtype": "float32", "padding": [[0, 0], [2, 3], [5, 5]], "constant_values": 2}, "name": "custom_pad_layer_830", "inbound_nodes": [[["batch_normalization_1951_insert_1", 0, 0, {}]]]}, {"class_name": "CustomCropLayer", "config": {"name": "custom_crop_layer_616", "trainable": true, "dtype": "float32", "cropping": [[2, 3], [0, 0], [0, 0]]}, "name": "custom_crop_layer_616", "inbound_nodes": [[["custom_pad_layer_830", 0, 0, {}]]]}, {"class_name": "Conv2D", "config": {"name": "conv2d_4559_insert_1", "trainable": true, "dtype": "float32", "filters": 8, "kernel_size": [1, 1], "strides": [1, 1], "padding": "valid", "data_format": "channels_last", "dilation_rate": [1, 1], "groups": 1, "activation": "linear", "use_bias": false, "kernel_initializer": {"class_name": "VarianceScaling", "config": {"scale": 1.0, "mode": "fan_avg", "distribution": "uniform", "seed": null}}, "bias_initializer": {"class_name": "Zeros", "config": {}}, "kernel_regularizer": null, "bias_regularizer": null, "activity_regularizer": null, "kernel_constraint": null, "bias_constraint": null}, "name": "conv2d_4559_insert_1", "inbound_nodes": [[["custom_crop_layer_616", 0, 0, {}]]]}, {"class_name": "CustomPadLayer", "config": {"name": "custom_pad_layer_831", "trainable": true, "dtype": "float32", "padding": [[0, 0], [0, 1], [0, 1]], "constant_values": 2}, "name": "custom_pad_layer_831", "inbound_nodes": [[["conv2d_4559_insert_1", 0, 0, {}]]]}, {"class_name": "MaxPooling2D", "config": {"name": "max_pooling2d_1563_insert_2", "trainable": true, "dtype": "float32", "pool_size": [3, 3], "padding": "valid", "strides": [2, 2], "data_format": "channels_last"}, "name": "max_pooling2d_1563_insert_2", "inbound_nodes": [[["zero_padding2d_1", 0, 0, {}]]]}, {"class_name": "BatchNormalization", "config": {"name": "batch_normalization_1951_insert_2_1", "trainable": true, "dtype": "float32", "axis": [3], "momentum": 0.99, "epsilon": 1.001e-05, "center": true, "scale": true, "beta_initializer": {"class_name": "Zeros", "config": {}}, "gamma_initializer": {"class_name": "Ones", "config": {}}, "moving_mean_initializer": {"class_name": "Zeros", "config": {}}, "moving_variance_initializer": {"class_name": "Ones", "config": {}}, "beta_regularizer": null, "gamma_regularizer": null, "beta_constraint": null, "gamma_constraint": null}, "name": "batch_normalization_1951_insert_2_1", "inbound_nodes": [[["average_pooling2d_1091_insert", 0, 0, {}]]]}, {"class_name": "Conv2D", "config": {"name": "conv2d_4559_insert_2", "trainable": true, "dtype": "float32", "filters": 8, "kernel_size": [1, 1], "strides": [1, 1], "padding": "valid", "data_format": "channels_last", "dilation_rate": [1, 1], "groups": 1, "activation": "linear", "use_bias": false, "kernel_initializer": {"class_name": "VarianceScaling", "config": {"scale": 1.0, "mode": "fan_avg", "distribution": "uniform", "seed": null}}, "bias_initializer": {"class_name": "Zeros", "config": {}}, "kernel_regularizer": null, "bias_regularizer": null, "activity_regularizer": null, "kernel_constraint": null, "bias_constraint": null}, "name": "conv2d_4559_insert_2", "inbound_nodes": [[["zero_padding2d_375_insert", 0, 0, {}]]]}, {"class_name": "BatchNormalization", "config": {"name": "batch_normalization_1951_insert_2_2", "trainable": true, "dtype": "float32", "axis": [3], "momentum": 0.99, "epsilon": 1.001e-05, "center": true, "scale": true, "beta_initializer": {"class_name": "Zeros", "config": {}}, "gamma_initializer": {"class_name": "Ones", "config": {}}, "moving_mean_initializer": {"class_name": "Zeros", "config": {}}, "moving_variance_initializer": {"class_name": "Ones", "config": {}}, "beta_regularizer": null, "gamma_regularizer": null, "beta_constraint": null, "gamma_constraint": null}, "name": "batch_normalization_1951_insert_2_2", "inbound_nodes": [[["max_pooling2d_1563_insert_1", 0, 0, {}]]]}, {"class_name": "Conv2D", "config": {"name": "conv2d_4561_insert", "trainable": true, "dtype": "float32", "filters": 2, "kernel_size": [1, 1], "strides": [1, 1], "padding": "valid", "data_format": "channels_last", "dilation_rate": [1, 1], "groups": 1, "activation": "linear", "use_bias": false, "kernel_initializer": {"class_name": "VarianceScaling", "config": {"scale": 1.0, "mode": "fan_avg", "distribution": "uniform", "seed": null}}, "bias_initializer": {"class_name": "Zeros", "config": {}}, "kernel_regularizer": null, "bias_regularizer": null, "activity_regularizer": null, "kernel_constraint": null, "bias_constraint": null}, "name": "conv2d_4561_insert", "inbound_nodes": [[["custom_pad_layer_831", 0, 0, {}]]]}, {"class_name": "Cropping2D", "config": {"name": "cropping2d_79", "trainable": true, "dtype": "float32", "cropping": [[52, 52], [52, 52]], "data_format": "channels_last"}, "name": "cropping2d_79", "inbound_nodes": [[["max_pooling2d_1563_insert_2", 0, 0, {}]]]}, {"class_name": "Cropping2D", "config": {"name": "cropping2d_80", "trainable": true, "dtype": "float32", "cropping": [[52, 52], [52, 52]], "data_format": "channels_last"}, "name": "cropping2d_80", "inbound_nodes": [[["batch_normalization_1951_insert_2_1", 0, 0, {}]]]}, {"class_name": "Cropping2D", "config": {"name": "cropping2d_81", "trainable": true, "dtype": "float32", "cropping": [[9, 9], [9, 9]], "data_format": "channels_last"}, "name": "cropping2d_81", "inbound_nodes": [[["conv2d_4559_insert_2", 0, 0, {}]]]}, {"class_name": "Cropping2D", "config": {"name": "cropping2d_82", "trainable": true, "dtype": "float32", "cropping": [[23, 23], [23, 23]], "data_format": "channels_last"}, "name": "cropping2d_82", "inbound_nodes": [[["batch_normalization_1951_insert_2_2", 0, 0, {}]]]}, {"class_name": "BatchNormalization", "config": {"name": "batch_normalization_1943_insert_2", "trainable": true, "dtype": "float32", "axis": [3], "momentum": 0.99, "epsilon": 1.001e-05, "center": true, "scale": true, "beta_initializer": {"class_name": "Zeros", "config": {}}, "gamma_initializer": {"class_name": "Ones", "config": {}}, "moving_mean_initializer": {"class_name": "Zeros", "config": {}}, "moving_variance_initializer": {"class_name": "Ones", "config": {}}, "beta_regularizer": null, "gamma_regularizer": null, "beta_constraint": null, "gamma_constraint": null}, "name": "batch_normalization_1943_insert_2", "inbound_nodes": [[["conv2d_4561_insert", 0, 0, {}]]]}], "input_layers": [["input_855", 0, 0]], "output_layers": [["cropping2d_79", 0, 0], ["cropping2d_80", 0, 0], ["cropping2d_81", 0, 0], ["cropping2d_82", 0, 0], ["batch_normalization_1943_insert_2", 0, 0]]}, "keras_version": "2.7.0", "backend": "tensorflow"}