{"class_name": "Functional", "config": {"name": "model_6987", "layers": [{"class_name": "InputLayer", "config": {"batch_input_shape": [null, 224, 224, 3], "dtype": "float32", "sparse": false, "ragged": false, "name": "input_898"}, "name": "input_898", "inbound_nodes": []}, {"class_name": "ZeroPadding2D", "config": {"name": "conv1_pad", "trainable": true, "dtype": "float32", "padding": [[3, 3], [3, 3]], "data_format": "channels_last"}, "name": "conv1_pad", "inbound_nodes": [[["input_898", 0, 0, {}]]]}, {"class_name": "Conv2D", "config": {"name": "conv2d_4813_insert", "trainable": true, "dtype": "float32", "filters": 4, "kernel_size": [1, 1], "strides": [1, 1], "padding": "valid", "data_format": "channels_last", "dilation_rate": [1, 1], "groups": 1, "activation": "linear", "use_bias": true, "kernel_initializer": {"class_name": "VarianceScaling", "config": {"scale": 1.0, "mode": "fan_avg", "distribution": "uniform", "seed": null}}, "bias_initializer": {"class_name": "Zeros", "config": {}}, "kernel_regularizer": null, "bias_regularizer": null, "activity_regularizer": null, "kernel_constraint": null, "bias_constraint": null}, "name": "conv2d_4813_insert", "inbound_nodes": [[["conv1_pad", 0, 0, {}]]]}, {"class_name": "BatchNormalization", "config": {"name": "batch_normalization_2031_insert", "trainable": true, "dtype": "float32", "axis": [3], "momentum": 0.99, "epsilon": 1.001e-05, "center": true, "scale": true, "beta_initializer": {"class_name": "Zeros", "config": {}}, "gamma_initializer": {"class_name": "Ones", "config": {}}, "moving_mean_initializer": {"class_name": "Zeros", "config": {}}, "moving_variance_initializer": {"class_name": "Ones", "config": {}}, "beta_regularizer": null, "gamma_regularizer": null, "beta_constraint": null, "gamma_constraint": null}, "name": "batch_normalization_2031_insert", "inbound_nodes": [[["conv2d_4813_insert", 0, 0, {}]]]}, {"class_name": "Conv2D", "config": {"name": "conv2d_4815_insert", "trainable": true, "dtype": "float32", "filters": 7, "kernel_size": [1, 1], "strides": [2, 2], "padding": "valid", "data_format": "channels_last", "dilation_rate": [1, 1], "groups": 1, "activation": "linear", "use_bias": true, "kernel_initializer": {"class_name": "VarianceScaling", "config": {"scale": 1.0, "mode": "fan_avg", "distribution": "uniform", "seed": null}}, "bias_initializer": {"class_name": "Zeros", "config": {}}, "kernel_regularizer": null, "bias_regularizer": null, "activity_regularizer": null, "kernel_constraint": null, "bias_constraint": null}, "name": "conv2d_4815_insert", "inbound_nodes": [[["batch_normalization_2031_insert", 0, 0, {}]]]}, {"class_name": "MaxPooling2D", "config": {"name": "max_pooling2d_1651_insert_1", "trainable": true, "dtype": "float32", "pool_size": [3, 3], "padding": "valid", "strides": [2, 2], "data_format": "channels_last"}, "name": "max_pooling2d_1651_insert_1", "inbound_nodes": [[["conv2d_4815_insert", 0, 0, {}]]]}, {"class_name": "Conv2D", "config": {"name": "conv2d_4817_insert", "trainable": true, "dtype": "float32", "filters": 6, "kernel_size": [3, 3], "strides": [1, 1], "padding": "same", "data_format": "channels_last", "dilation_rate": [1, 1], "groups": 1, "activation": "linear", "use_bias": true, "kernel_initializer": {"class_name": "VarianceScaling", "config": {"scale": 1.0, "mode": "fan_avg", "distribution": "uniform", "seed": null}}, "bias_initializer": {"class_name": "Zeros", "config": {}}, "kernel_regularizer": null, "bias_regularizer": null, "activity_regularizer": null, "kernel_constraint": null, "bias_constraint": null}, "name": "conv2d_4817_insert", "inbound_nodes": [[["max_pooling2d_1651_insert_1", 0, 0, {}]]]}, {"class_name": "Conv2D", "config": {"name": "conv2d_4819_insert", "trainable": true, "dtype": "float32", "filters": 6, "kernel_size": [7, 7], "strides": [2, 2], "padding": "valid", "data_format": "channels_last", "dilation_rate": [1, 1], "groups": 1, "activation": "linear", "use_bias": true, "kernel_initializer": {"class_name": "VarianceScaling", "config": {"scale": 1.0, "mode": "fan_avg", "distribution": "uniform", "seed": null}}, "bias_initializer": {"class_name": "Zeros", "config": {}}, "kernel_regularizer": null, "bias_regularizer": null, "activity_regularizer": null, "kernel_constraint": null, "bias_constraint": null}, "name": "conv2d_4819_insert", "inbound_nodes": [[["conv2d_4817_insert", 0, 0, {}]]]}, {"class_name": "ZeroPadding2D", "config": {"name": "zero_padding2d_395_insert", "trainable": true, "dtype": "float32", "padding": [[1, 1], [1, 1]], "data_format": "channels_last"}, "name": "zero_padding2d_395_insert", "inbound_nodes": [[["conv2d_4819_insert", 0, 0, {}]]]}, {"class_name": "GlobalAveragePooling2D", "config": {"name": "global_average_pooling2d_1503_insert", "trainable": true, "dtype": "float32", "data_format": "channels_last", "keepdims": false}, "name": "global_average_pooling2d_1503_insert", "inbound_nodes": [[["zero_padding2d_395_insert", 0, 0, {}]]]}, {"class_name": "CustomExpandLayer", "config": {"name": "custom_expand_layer_1533", "trainable": true, "dtype": "float32", "axis": 1}, "name": "custom_expand_layer_1533", "inbound_nodes": [[["global_average_pooling2d_1503_insert", 0, 0, {}]]]}, {"class_name": "CustomExpandLayer", "config": {"name": "custom_expand_layer_1534", "trainable": true, "dtype": "float32", "axis": 1}, "name": "custom_expand_layer_1534", "inbound_nodes": [[["custom_expand_layer_1533", 0, 0, {}]]]}, {"class_name": "CustomPadLayer", "config": {"name": "custom_pad_layer_849", "trainable": true, "dtype": "float32", "padding": [[7, 7], [8, 9], [3, 3]], "constant_values": 2}, "name": "custom_pad_layer_849", "inbound_nodes": [[["custom_expand_layer_1534", 0, 0, {}]]]}, {"class_name": "BatchNormalization", "config": {"name": "batch_normalization_2033_insert", "trainable": true, "dtype": "float32", "axis": [3], "momentum": 0.99, "epsilon": 1.001e-05, "center": true, "scale": true, "beta_initializer": {"class_name": "Zeros", "config": {}}, "gamma_initializer": {"class_name": "Ones", "config": {}}, "moving_mean_initializer": {"class_name": "Zeros", "config": {}}, "moving_variance_initializer": {"class_name": "Ones", "config": {}}, "beta_regularizer": null, "gamma_regularizer": null, "beta_constraint": null, "gamma_constraint": null}, "name": "batch_normalization_2033_insert", "inbound_nodes": [[["custom_pad_layer_849", 0, 0, {}]]]}, {"class_name": "CustomCropLayer", "config": {"name": "custom_crop_layer_633", "trainable": true, "dtype": "float32", "cropping": [[4, 5], [5, 5], [0, 1]]}, "name": "custom_crop_layer_633", "inbound_nodes": [[["batch_normalization_2033_insert", 0, 0, {}]]]}, {"class_name": "BatchNormalization", "config": {"name": "batch_normalization_2035_insert", "trainable": true, "dtype": "float32", "axis": [3], "momentum": 0.99, "epsilon": 1.001e-05, "center": true, "scale": true, "beta_initializer": {"class_name": "Zeros", "config": {}}, "gamma_initializer": {"class_name": "Ones", "config": {}}, "moving_mean_initializer": {"class_name": "Zeros", "config": {}}, "moving_variance_initializer": {"class_name": "Ones", "config": {}}, "beta_regularizer": null, "gamma_regularizer": null, "beta_constraint": null, "gamma_constraint": null}, "name": "batch_normalization_2035_insert", "inbound_nodes": [[["custom_crop_layer_633", 0, 0, {}]]]}, {"class_name": "CustomPadLayer", "config": {"name": "custom_pad_layer_850", "trainable": true, "dtype": "float32", "padding": [[1, 1], [2, 2], [1, 1]], "constant_values": 2}, "name": "custom_pad_layer_850", "inbound_nodes": [[["batch_normalization_2035_insert", 0, 0, {}]]]}, {"class_name": "Conv2D", "config": {"name": "conv2d_4821_insert", "trainable": true, "dtype": "float32", "filters": 9, "kernel_size": [3, 3], "strides": [1, 1], "padding": "same", "data_format": "channels_last", "dilation_rate": [1, 1], "groups": 1, "activation": "linear", "use_bias": true, "kernel_initializer": {"class_name": "VarianceScaling", "config": {"scale": 1.0, "mode": "fan_avg", "distribution": "uniform", "seed": null}}, "bias_initializer": {"class_name": "Zeros", "config": {}}, "kernel_regularizer": null, "bias_regularizer": null, "activity_regularizer": null, "kernel_constraint": null, "bias_constraint": null}, "name": "conv2d_4821_insert", "inbound_nodes": [[["custom_pad_layer_850", 0, 0, {}]]]}, {"class_name": "CustomPadLayer", "config": {"name": "custom_pad_layer_851", "trainable": true, "dtype": "float32", "padding": [[0, 0], [0, 0], [5, 5]], "constant_values": 2}, "name": "custom_pad_layer_851", "inbound_nodes": [[["conv2d_4821_insert", 0, 0, {}]]]}, {"class_name": "CustomCropLayer", "config": {"name": "custom_crop_layer_634", "trainable": true, "dtype": "float32", "cropping": [[0, 0], [0, 1], [0, 0]]}, "name": "custom_crop_layer_634", "inbound_nodes": [[["custom_pad_layer_851", 0, 0, {}]]]}, {"class_name": "BatchNormalization", "config": {"name": "batch_normalization_2037_insert", "trainable": true, "dtype": "float32", "axis": [3], "momentum": 0.99, "epsilon": 1.001e-05, "center": true, "scale": true, "beta_initializer": {"class_name": "Zeros", "config": {}}, "gamma_initializer": {"class_name": "Ones", "config": {}}, "moving_mean_initializer": {"class_name": "Zeros", "config": {}}, "moving_variance_initializer": {"class_name": "Ones", "config": {}}, "beta_regularizer": null, "gamma_regularizer": null, "beta_constraint": null, "gamma_constraint": null}, "name": "batch_normalization_2037_insert", "inbound_nodes": [[["custom_crop_layer_634", 0, 0, {}]]]}, {"class_name": "CustomPadLayer", "config": {"name": "custom_pad_layer_852", "trainable": true, "dtype": "float32", "padding": [[4, 5], [1, 1], [0, 0]], "constant_values": 2}, "name": "custom_pad_layer_852", "inbound_nodes": [[["batch_normalization_2037_insert", 0, 0, {}]]]}, {"class_name": "CustomCropLayer", "config": {"name": "custom_crop_layer_635", "trainable": true, "dtype": "float32", "cropping": [[0, 0], [0, 0], [2, 2]]}, "name": "custom_crop_layer_635", "inbound_nodes": [[["custom_pad_layer_852", 0, 0, {}]]]}, {"class_name": "BatchNormalization", "config": {"name": "batch_normalization_2039_insert_merge1", "trainable": true, "dtype": "float32", "axis": [3], "momentum": 0.99, "epsilon": 1.001e-05, "center": true, "scale": true, "beta_initializer": {"class_name": "Zeros", "config": {}}, "gamma_initializer": {"class_name": "Ones", "config": {}}, "moving_mean_initializer": {"class_name": "Zeros", "config": {}}, "moving_variance_initializer": {"class_name": "Ones", "config": {}}, "beta_regularizer": null, "gamma_regularizer": null, "beta_constraint": null, "gamma_constraint": null}, "name": "batch_normalization_2039_insert_merge1", "inbound_nodes": [[["custom_crop_layer_635", 0, 0, {}]]]}, {"class_name": "MaxPooling2D", "config": {"name": "max_pooling2d_1651_insert_2", "trainable": true, "dtype": "float32", "pool_size": [3, 3], "padding": "valid", "strides": [2, 2], "data_format": "channels_last"}, "name": "max_pooling2d_1651_insert_2", "inbound_nodes": [[["conv1_pad", 0, 0, {}]]]}, {"class_name": "Add", "config": {"name": "add_52_copy_ML", "trainable": true, "dtype": "float32"}, "name": "add_52_copy_ML", "inbound_nodes": [[["batch_normalization_2039_insert_merge1", 0, 0, {}], ["custom_crop_layer_635", 0, 0, {}]]]}, {"class_name": "Cropping2D", "config": {"name": "cropping2d_83", "trainable": true, "dtype": "float32", "cropping": [[52, 52], [52, 52]], "data_format": "channels_last"}, "name": "cropping2d_83", "inbound_nodes": [[["max_pooling2d_1651_insert_2", 0, 0, {}]]]}], "input_layers": [["input_898", 0, 0]], "output_layers": [["add_52_copy_ML", 0, 0], ["cropping2d_83", 0, 0]]}, "keras_version": "2.7.0", "backend": "tensorflow"}