{"class_name": "Functional", "config": {"name": "model_2970", "layers": [{"class_name": "InputLayer", "config": {"batch_input_shape": [null, 224, 224, 3], "dtype": "float32", "sparse": false, "ragged": false, "name": "input_379"}, "name": "input_379", "inbound_nodes": []}, {"class_name": "ZeroPadding2D", "config": {"name": "zero_padding2d_1", "trainable": true, "dtype": "float32", "padding": [[3, 3], [3, 3]], "data_format": "channels_last"}, "name": "zero_padding2d_1", "inbound_nodes": [[["input_379", 0, 0, {}]]]}, {"class_name": "Conv2D", "config": {"name": "conv2d_1901_insert", "trainable": true, "dtype": "float32", "filters": 8, "kernel_size": [3, 3], "strides": [1, 1], "padding": "same", "data_format": "channels_last", "dilation_rate": [1, 1], "groups": 1, "activation": "linear", "use_bias": false, "kernel_initializer": {"class_name": "VarianceScaling", "config": {"scale": 1.0, "mode": "fan_avg", "distribution": "uniform", "seed": null}}, "bias_initializer": {"class_name": "Zeros", "config": {}}, "kernel_regularizer": null, "bias_regularizer": null, "activity_regularizer": null, "kernel_constraint": null, "bias_constraint": null}, "name": "conv2d_1901_insert", "inbound_nodes": [[["zero_padding2d_1", 0, 0, {}]]]}, {"class_name": "ZeroPadding2D", "config": {"name": "zero_padding2d_185_insert", "trainable": true, "dtype": "float32", "padding": [[1, 1], [1, 1]], "data_format": "channels_last"}, "name": "zero_padding2d_185_insert", "inbound_nodes": [[["conv2d_1901_insert", 0, 0, {}]]]}, {"class_name": "MaxPooling2D", "config": {"name": "max_pooling2d_659_insert", "trainable": true, "dtype": "float32", "pool_size": [3, 3], "padding": "valid", "strides": [2, 2], "data_format": "channels_last"}, "name": "max_pooling2d_659_insert", "inbound_nodes": [[["zero_padding2d_185_insert", 0, 0, {}]]]}, {"class_name": "BatchNormalization", "config": {"name": "batch_normalization_867_insert", "trainable": true, "dtype": "float32", "axis": [3], "momentum": 0.99, "epsilon": 1.001e-05, "center": true, "scale": true, "beta_initializer": {"class_name": "Zeros", "config": {}}, "gamma_initializer": {"class_name": "Ones", "config": {}}, "moving_mean_initializer": {"class_name": "Zeros", "config": {}}, "moving_variance_initializer": {"class_name": "Ones", "config": {}}, "beta_regularizer": null, "gamma_regularizer": null, "beta_constraint": null, "gamma_constraint": null}, "name": "batch_normalization_867_insert", "inbound_nodes": [[["max_pooling2d_659_insert", 0, 0, {}]]]}, {"class_name": "Conv2D", "config": {"name": "conv2d_1903_insert", "trainable": true, "dtype": "float32", "filters": 9, "kernel_size": [1, 1], "strides": [1, 1], "padding": "valid", "data_format": "channels_last", "dilation_rate": [1, 1], "groups": 1, "activation": "linear", "use_bias": false, "kernel_initializer": {"class_name": "VarianceScaling", "config": {"scale": 1.0, "mode": "fan_avg", "distribution": "uniform", "seed": null}}, "bias_initializer": {"class_name": "Zeros", "config": {}}, "kernel_regularizer": null, "bias_regularizer": null, "activity_regularizer": null, "kernel_constraint": null, "bias_constraint": null}, "name": "conv2d_1903_insert", "inbound_nodes": [[["batch_normalization_867_insert", 0, 0, {}]]]}, {"class_name": "Conv2D", "config": {"name": "conv2d_1905_insert", "trainable": true, "dtype": "float32", "filters": 6, "kernel_size": [7, 7], "strides": [2, 2], "padding": "valid", "data_format": "channels_last", "dilation_rate": [1, 1], "groups": 1, "activation": "linear", "use_bias": false, "kernel_initializer": {"class_name": "VarianceScaling", "config": {"scale": 1.0, "mode": "fan_avg", "distribution": "uniform", "seed": null}}, "bias_initializer": {"class_name": "Zeros", "config": {}}, "kernel_regularizer": null, "bias_regularizer": null, "activity_regularizer": null, "kernel_constraint": null, "bias_constraint": null}, "name": "conv2d_1905_insert", "inbound_nodes": [[["conv2d_1903_insert", 0, 0, {}]]]}, {"class_name": "AveragePooling2D", "config": {"name": "average_pooling2d_467_insert", "trainable": true, "dtype": "float32", "pool_size": [2, 2], "padding": "valid", "strides": [2, 2], "data_format": "channels_last"}, "name": "average_pooling2d_467_insert", "inbound_nodes": [[["conv2d_1905_insert", 0, 0, {}]]]}, {"class_name": "GlobalAveragePooling2D", "config": {"name": "global_average_pooling2d_621_insert", "trainable": true, "dtype": "float32", "data_format": "channels_last", "keepdims": false}, "name": "global_average_pooling2d_621_insert", "inbound_nodes": [[["average_pooling2d_467_insert", 0, 0, {}]]]}, {"class_name": "CustomExpandLayer", "config": {"name": "custom_expand_layer_644", "trainable": true, "dtype": "float32", "axis": 1}, "name": "custom_expand_layer_644", "inbound_nodes": [[["global_average_pooling2d_621_insert", 0, 0, {}]]]}, {"class_name": "CustomExpandLayer", "config": {"name": "custom_expand_layer_645", "trainable": true, "dtype": "float32", "axis": 1}, "name": "custom_expand_layer_645", "inbound_nodes": [[["custom_expand_layer_644", 0, 0, {}]]]}, {"class_name": "CustomPadLayer", "config": {"name": "custom_pad_layer_393", "trainable": true, "dtype": "float32", "padding": [[6, 6], [3, 3], [3, 3]], "constant_values": 2}, "name": "custom_pad_layer_393", "inbound_nodes": [[["custom_expand_layer_645", 0, 0, {}]]]}, {"class_name": "Conv2D", "config": {"name": "conv2d_1907_insert", "trainable": true, "dtype": "float32", "filters": 8, "kernel_size": [1, 1], "strides": [1, 1], "padding": "valid", "data_format": "channels_last", "dilation_rate": [1, 1], "groups": 1, "activation": "linear", "use_bias": false, "kernel_initializer": {"class_name": "VarianceScaling", "config": {"scale": 1.0, "mode": "fan_avg", "distribution": "uniform", "seed": null}}, "bias_initializer": {"class_name": "Zeros", "config": {}}, "kernel_regularizer": null, "bias_regularizer": null, "activity_regularizer": null, "kernel_constraint": null, "bias_constraint": null}, "name": "conv2d_1907_insert", "inbound_nodes": [[["custom_pad_layer_393", 0, 0, {}]]]}, {"class_name": "CustomPadLayer", "config": {"name": "custom_pad_layer_394", "trainable": true, "dtype": "float32", "padding": [[0, 0], [0, 1], [4, 4]], "constant_values": 2}, "name": "custom_pad_layer_394", "inbound_nodes": [[["conv2d_1907_insert", 0, 0, {}]]]}, {"class_name": "CustomCropLayer", "config": {"name": "custom_crop_layer_296", "trainable": true, "dtype": "float32", "cropping": [[1, 2], [0, 0], [0, 0]]}, "name": "custom_crop_layer_296", "inbound_nodes": [[["custom_pad_layer_394", 0, 0, {}]]]}, {"class_name": "Conv2D", "config": {"name": "conv2d_1909_insert", "trainable": true, "dtype": "float32", "filters": 7, "kernel_size": [3, 3], "strides": [1, 1], "padding": "same", "data_format": "channels_last", "dilation_rate": [1, 1], "groups": 1, "activation": "linear", "use_bias": false, "kernel_initializer": {"class_name": "VarianceScaling", "config": {"scale": 1.0, "mode": "fan_avg", "distribution": "uniform", "seed": null}}, "bias_initializer": {"class_name": "Zeros", "config": {}}, "kernel_regularizer": null, "bias_regularizer": null, "activity_regularizer": null, "kernel_constraint": null, "bias_constraint": null}, "name": "conv2d_1909_insert", "inbound_nodes": [[["custom_crop_layer_296", 0, 0, {}]]]}, {"class_name": "CustomPadLayer", "config": {"name": "custom_pad_layer_395", "trainable": true, "dtype": "float32", "padding": [[1, 2], [4, 5], [5, 6]], "constant_values": 2}, "name": "custom_pad_layer_395", "inbound_nodes": [[["conv2d_1909_insert", 0, 0, {}]]]}, {"class_name": "BatchNormalization", "config": {"name": "batch_normalization_869_insert_1", "trainable": true, "dtype": "float32", "axis": [3], "momentum": 0.99, "epsilon": 1.001e-05, "center": true, "scale": true, "beta_initializer": {"class_name": "Zeros", "config": {}}, "gamma_initializer": {"class_name": "Ones", "config": {}}, "moving_mean_initializer": {"class_name": "Zeros", "config": {}}, "moving_variance_initializer": {"class_name": "Ones", "config": {}}, "beta_regularizer": null, "gamma_regularizer": null, "beta_constraint": null, "gamma_constraint": null}, "name": "batch_normalization_869_insert_1", "inbound_nodes": [[["custom_pad_layer_395", 0, 0, {}]]]}, {"class_name": "CustomCropLayer", "config": {"name": "custom_crop_layer_297", "trainable": true, "dtype": "float32", "cropping": [[2, 2], [5, 6], [5, 6]]}, "name": "custom_crop_layer_297", "inbound_nodes": [[["batch_normalization_869_insert_1", 0, 0, {}]]]}, {"class_name": "AveragePooling2D", "config": {"name": "average_pooling2d_469_insert", "trainable": true, "dtype": "float32", "pool_size": [2, 2], "padding": "valid", "strides": [2, 2], "data_format": "channels_last"}, "name": "average_pooling2d_469_insert", "inbound_nodes": [[["custom_crop_layer_297", 0, 0, {}]]]}, {"class_name": "CustomPadLayer", "config": {"name": "custom_pad_layer_396", "trainable": true, "dtype": "float32", "padding": [[4, 5], [4, 5], [2, 3]], "constant_values": 2}, "name": "custom_pad_layer_396", "inbound_nodes": [[["average_pooling2d_469_insert", 0, 0, {}]]]}, {"class_name": "AveragePooling2D", "config": {"name": "average_pooling2d_471_insert", "trainable": true, "dtype": "float32", "pool_size": [2, 2], "padding": "valid", "strides": [2, 2], "data_format": "channels_last"}, "name": "average_pooling2d_471_insert", "inbound_nodes": [[["custom_pad_layer_396", 0, 0, {}]]]}, {"class_name": "CustomPadLayer", "config": {"name": "custom_pad_layer_397", "trainable": true, "dtype": "float32", "padding": [[1, 1], [3, 3], [2, 2]], "constant_values": 2}, "name": "custom_pad_layer_397", "inbound_nodes": [[["average_pooling2d_471_insert", 0, 0, {}]]]}, {"class_name": "BatchNormalization", "config": {"name": "batch_normalization_871_insert_merge1", "trainable": true, "dtype": "float32", "axis": [3], "momentum": 0.99, "epsilon": 1.001e-05, "center": true, "scale": true, "beta_initializer": {"class_name": "Zeros", "config": {}}, "gamma_initializer": {"class_name": "Ones", "config": {}}, "moving_mean_initializer": {"class_name": "Zeros", "config": {}}, "moving_variance_initializer": {"class_name": "Ones", "config": {}}, "beta_regularizer": null, "gamma_regularizer": null, "beta_constraint": null, "gamma_constraint": null}, "name": "batch_normalization_871_insert_merge1", "inbound_nodes": [[["custom_pad_layer_397", 0, 0, {}]]]}, {"class_name": "Concatenate", "config": {"name": "concatenate_20_copy_ML", "trainable": true, "dtype": "float32", "axis": 3}, "name": "concatenate_20_copy_ML", "inbound_nodes": [[["batch_normalization_871_insert_merge1", 0, 0, {}], ["custom_pad_layer_397", 0, 0, {}]]]}, {"class_name": "CustomPadLayer", "config": {"name": "custom_pad_layer_398", "trainable": true, "dtype": "float32", "padding": [[5, 6], [2, 2], [0, 0]], "constant_values": 2}, "name": "custom_pad_layer_398", "inbound_nodes": [[["concatenate_20_copy_ML", 0, 0, {}]]]}, {"class_name": "CustomCropLayer", "config": {"name": "custom_crop_layer_298", "trainable": true, "dtype": "float32", "cropping": [[0, 0], [0, 0], [2, 3]]}, "name": "custom_crop_layer_298", "inbound_nodes": [[["custom_pad_layer_398", 0, 0, {}]]]}, {"class_name": "BatchNormalization", "config": {"name": "batch_normalization_873_insert_1", "trainable": true, "dtype": "float32", "axis": [3], "momentum": 0.99, "epsilon": 1.001e-05, "center": true, "scale": true, "beta_initializer": {"class_name": "Zeros", "config": {}}, "gamma_initializer": {"class_name": "Ones", "config": {}}, "moving_mean_initializer": {"class_name": "Zeros", "config": {}}, "moving_variance_initializer": {"class_name": "Ones", "config": {}}, "beta_regularizer": null, "gamma_regularizer": null, "beta_constraint": null, "gamma_constraint": null}, "name": "batch_normalization_873_insert_1", "inbound_nodes": [[["custom_crop_layer_298", 0, 0, {}]]]}, {"class_name": "CustomPadLayer", "config": {"name": "custom_pad_layer_399", "trainable": true, "dtype": "float32", "padding": [[0, 0], [0, 0], [3, 4]], "constant_values": 2}, "name": "custom_pad_layer_399", "inbound_nodes": [[["batch_normalization_873_insert_1", 0, 0, {}]]]}, {"class_name": "CustomCropLayer", "config": {"name": "custom_crop_layer_299", "trainable": true, "dtype": "float32", "cropping": [[7, 7], [2, 3], [0, 0]]}, "name": "custom_crop_layer_299", "inbound_nodes": [[["custom_pad_layer_399", 0, 0, {}]]]}, {"class_name": "BatchNormalization", "config": {"name": "batch_normalization_875_insert", "trainable": true, "dtype": "float32", "axis": [3], "momentum": 0.99, "epsilon": 1.001e-05, "center": true, "scale": true, "beta_initializer": {"class_name": "Zeros", "config": {}}, "gamma_initializer": {"class_name": "Ones", "config": {}}, "moving_mean_initializer": {"class_name": "Zeros", "config": {}}, "moving_variance_initializer": {"class_name": "Ones", "config": {}}, "beta_regularizer": null, "gamma_regularizer": null, "beta_constraint": null, "gamma_constraint": null}, "name": "batch_normalization_875_insert", "inbound_nodes": [[["custom_crop_layer_299", 0, 0, {}]]]}, {"class_name": "BatchNormalization", "config": {"name": "batch_normalization_873_insert_2", "trainable": true, "dtype": "float32", "axis": [3], "momentum": 0.99, "epsilon": 1.001e-05, "center": true, "scale": true, "beta_initializer": {"class_name": "Zeros", "config": {}}, "gamma_initializer": {"class_name": "Ones", "config": {}}, "moving_mean_initializer": {"class_name": "Zeros", "config": {}}, "moving_variance_initializer": {"class_name": "Ones", "config": {}}, "beta_regularizer": null, "gamma_regularizer": null, "beta_constraint": null, "gamma_constraint": null}, "name": "batch_normalization_873_insert_2", "inbound_nodes": [[["average_pooling2d_469_insert", 0, 0, {}]]]}, {"class_name": "BatchNormalization", "config": {"name": "batch_normalization_869_insert_2", "trainable": true, "dtype": "float32", "axis": [3], "momentum": 0.99, "epsilon": 1.001e-05, "center": true, "scale": true, "beta_initializer": {"class_name": "Zeros", "config": {}}, "gamma_initializer": {"class_name": "Ones", "config": {}}, "moving_mean_initializer": {"class_name": "Zeros", "config": {}}, "moving_variance_initializer": {"class_name": "Ones", "config": {}}, "beta_regularizer": null, "gamma_regularizer": null, "beta_constraint": null, "gamma_constraint": null}, "name": "batch_normalization_869_insert_2", "inbound_nodes": [[["conv2d_1907_insert", 0, 0, {}]]]}], "input_layers": [["input_379", 0, 0]], "output_layers": [["batch_normalization_875_insert", 0, 0], ["batch_normalization_873_insert_2", 0, 0], ["batch_normalization_869_insert_2", 0, 0]]}, "keras_version": "2.7.0", "backend": "tensorflow"}