{"class_name": "Functional", "config": {"name": "model_3245", "layers": [{"class_name": "InputLayer", "config": {"batch_input_shape": [null, 299, 299, 3], "dtype": "float32", "sparse": false, "ragged": false, "name": "input_422"}, "name": "input_422", "inbound_nodes": []}, {"class_name": "Conv2D", "config": {"name": "conv2d_1", "trainable": true, "dtype": "float32", "filters": 32, "kernel_size": [3, 3], "strides": [2, 2], "padding": "valid", "data_format": "channels_last", "dilation_rate": [1, 1], "groups": 1, "activation": "linear", "use_bias": false, "kernel_initializer": {"class_name": "VarianceScaling", "config": {"scale": 1.0, "mode": "fan_avg", "distribution": "uniform", "seed": null}}, "bias_initializer": {"class_name": "Zeros", "config": {}}, "kernel_regularizer": null, "bias_regularizer": null, "activity_regularizer": null, "kernel_constraint": null, "bias_constraint": null}, "name": "conv2d_1", "inbound_nodes": [[["input_422", 0, 0, {}]]]}, {"class_name": "Conv2D", "config": {"name": "conv2d_2143_insert", "trainable": true, "dtype": "float32", "filters": 7, "kernel_size": [1, 7], "strides": [1, 1], "padding": "same", "data_format": "channels_last", "dilation_rate": [1, 1], "groups": 1, "activation": "linear", "use_bias": false, "kernel_initializer": {"class_name": "VarianceScaling", "config": {"scale": 1.0, "mode": "fan_avg", "distribution": "uniform", "seed": null}}, "bias_initializer": {"class_name": "Zeros", "config": {}}, "kernel_regularizer": null, "bias_regularizer": null, "activity_regularizer": null, "kernel_constraint": null, "bias_constraint": null}, "name": "conv2d_2143_insert", "inbound_nodes": [[["conv2d_1", 0, 0, {}]]]}, {"class_name": "MaxPooling2D", "config": {"name": "max_pooling2d_731_insert", "trainable": true, "dtype": "float32", "pool_size": [3, 3], "padding": "valid", "strides": [2, 2], "data_format": "channels_last"}, "name": "max_pooling2d_731_insert", "inbound_nodes": [[["conv2d_2143_insert", 0, 0, {}]]]}, {"class_name": "Conv2D", "config": {"name": "conv2d_2145_insert_1", "trainable": true, "dtype": "float32", "filters": 4, "kernel_size": [3, 3], "strides": [1, 1], "padding": "valid", "data_format": "channels_last", "dilation_rate": [1, 1], "groups": 1, "activation": "linear", "use_bias": false, "kernel_initializer": {"class_name": "VarianceScaling", "config": {"scale": 1.0, "mode": "fan_avg", "distribution": "uniform", "seed": null}}, "bias_initializer": {"class_name": "Zeros", "config": {}}, "kernel_regularizer": null, "bias_regularizer": null, "activity_regularizer": null, "kernel_constraint": null, "bias_constraint": null}, "name": "conv2d_2145_insert_1", "inbound_nodes": [[["max_pooling2d_731_insert", 0, 0, {}]]]}, {"class_name": "AveragePooling2D", "config": {"name": "average_pooling2d_523_insert_1", "trainable": true, "dtype": "float32", "pool_size": [3, 3], "padding": "same", "strides": [1, 1], "data_format": "channels_last"}, "name": "average_pooling2d_523_insert_1", "inbound_nodes": [[["conv2d_2145_insert_1", 0, 0, {}]]]}, {"class_name": "GlobalAveragePooling2D", "config": {"name": "global_average_pooling2d_707_insert", "trainable": true, "dtype": "float32", "data_format": "channels_last", "keepdims": false}, "name": "global_average_pooling2d_707_insert", "inbound_nodes": [[["average_pooling2d_523_insert_1", 0, 0, {}]]]}, {"class_name": "CustomExpandLayer", "config": {"name": "custom_expand_layer_716_insert", "trainable": true, "dtype": "float32", "axis": 1}, "name": "custom_expand_layer_716_insert", "inbound_nodes": [[["global_average_pooling2d_707_insert", 0, 0, {}]]]}, {"class_name": "CustomExpandLayer", "config": {"name": "custom_expand_layer_717_insert", "trainable": true, "dtype": "float32", "axis": 1}, "name": "custom_expand_layer_717_insert", "inbound_nodes": [[["custom_expand_layer_716_insert", 0, 0, {}]]]}, {"class_name": "Conv2D", "config": {"name": "conv2d_2147_insert", "trainable": true, "dtype": "float32", "filters": 5, "kernel_size": [1, 3], "strides": [1, 1], "padding": "same", "data_format": "channels_last", "dilation_rate": [1, 1], "groups": 1, "activation": "linear", "use_bias": false, "kernel_initializer": {"class_name": "VarianceScaling", "config": {"scale": 1.0, "mode": "fan_avg", "distribution": "uniform", "seed": null}}, "bias_initializer": {"class_name": "Zeros", "config": {}}, "kernel_regularizer": null, "bias_regularizer": null, "activity_regularizer": null, "kernel_constraint": null, "bias_constraint": null}, "name": "conv2d_2147_insert", "inbound_nodes": [[["custom_expand_layer_717_insert", 0, 0, {}]]]}, {"class_name": "BatchNormalization", "config": {"name": "batch_normalization_939_insert", "trainable": true, "dtype": "float32", "axis": [3], "momentum": 0.99, "epsilon": 0.001, "center": true, "scale": false, "beta_initializer": {"class_name": "Zeros", "config": {}}, "gamma_initializer": {"class_name": "Ones", "config": {}}, "moving_mean_initializer": {"class_name": "Zeros", "config": {}}, "moving_variance_initializer": {"class_name": "Ones", "config": {}}, "beta_regularizer": null, "gamma_regularizer": null, "beta_constraint": null, "gamma_constraint": null}, "name": "batch_normalization_939_insert", "inbound_nodes": [[["conv2d_2147_insert", 0, 0, {}]]]}, {"class_name": "Conv2D", "config": {"name": "conv2d_2149_insert", "trainable": true, "dtype": "float32", "filters": 8, "kernel_size": [1, 1], "strides": [1, 1], "padding": "same", "data_format": "channels_last", "dilation_rate": [1, 1], "groups": 1, "activation": "linear", "use_bias": true, "kernel_initializer": {"class_name": "VarianceScaling", "config": {"scale": 1.0, "mode": "fan_avg", "distribution": "uniform", "seed": null}}, "bias_initializer": {"class_name": "Zeros", "config": {}}, "kernel_regularizer": null, "bias_regularizer": null, "activity_regularizer": null, "kernel_constraint": null, "bias_constraint": null}, "name": "conv2d_2149_insert", "inbound_nodes": [[["batch_normalization_939_insert", 0, 0, {}]]]}, {"class_name": "Conv2D", "config": {"name": "conv2d_2151_insert", "trainable": true, "dtype": "float32", "filters": 6, "kernel_size": [3, 1], "strides": [1, 1], "padding": "same", "data_format": "channels_last", "dilation_rate": [1, 1], "groups": 1, "activation": "linear", "use_bias": false, "kernel_initializer": {"class_name": "VarianceScaling", "config": {"scale": 1.0, "mode": "fan_avg", "distribution": "uniform", "seed": null}}, "bias_initializer": {"class_name": "Zeros", "config": {}}, "kernel_regularizer": null, "bias_regularizer": null, "activity_regularizer": null, "kernel_constraint": null, "bias_constraint": null}, "name": "conv2d_2151_insert", "inbound_nodes": [[["conv2d_2149_insert", 0, 0, {}]]]}, {"class_name": "Conv2D", "config": {"name": "conv2d_2153_insert", "trainable": true, "dtype": "float32", "filters": 2, "kernel_size": [3, 3], "strides": [1, 1], "padding": "same", "data_format": "channels_last", "dilation_rate": [1, 1], "groups": 1, "activation": "linear", "use_bias": false, "kernel_initializer": {"class_name": "VarianceScaling", "config": {"scale": 1.0, "mode": "fan_avg", "distribution": "uniform", "seed": null}}, "bias_initializer": {"class_name": "Zeros", "config": {}}, "kernel_regularizer": null, "bias_regularizer": null, "activity_regularizer": null, "kernel_constraint": null, "bias_constraint": null}, "name": "conv2d_2153_insert", "inbound_nodes": [[["conv2d_2151_insert", 0, 0, {}]]]}, {"class_name": "Conv2D", "config": {"name": "conv2d_2155_insert", "trainable": true, "dtype": "float32", "filters": 1, "kernel_size": [1, 1], "strides": [1, 1], "padding": "valid", "data_format": "channels_last", "dilation_rate": [1, 1], "groups": 1, "activation": "linear", "use_bias": false, "kernel_initializer": {"class_name": "VarianceScaling", "config": {"scale": 1.0, "mode": "fan_avg", "distribution": "uniform", "seed": null}}, "bias_initializer": {"class_name": "Zeros", "config": {}}, "kernel_regularizer": null, "bias_regularizer": null, "activity_regularizer": null, "kernel_constraint": null, "bias_constraint": null}, "name": "conv2d_2155_insert", "inbound_nodes": [[["conv2d_2153_insert", 0, 0, {}]]]}, {"class_name": "Conv2D", "config": {"name": "conv2d_2157_insert", "trainable": true, "dtype": "float32", "filters": 1, "kernel_size": [5, 5], "strides": [1, 1], "padding": "same", "data_format": "channels_last", "dilation_rate": [1, 1], "groups": 1, "activation": "linear", "use_bias": false, "kernel_initializer": {"class_name": "VarianceScaling", "config": {"scale": 1.0, "mode": "fan_avg", "distribution": "uniform", "seed": null}}, "bias_initializer": {"class_name": "Zeros", "config": {}}, "kernel_regularizer": null, "bias_regularizer": null, "activity_regularizer": null, "kernel_constraint": null, "bias_constraint": null}, "name": "conv2d_2157_insert", "inbound_nodes": [[["conv2d_2155_insert", 0, 0, {}]]]}, {"class_name": "Conv2D", "config": {"name": "conv2d_2159_insert", "trainable": true, "dtype": "float32", "filters": 2, "kernel_size": [7, 1], "strides": [1, 1], "padding": "same", "data_format": "channels_last", "dilation_rate": [1, 1], "groups": 1, "activation": "linear", "use_bias": false, "kernel_initializer": {"class_name": "VarianceScaling", "config": {"scale": 1.0, "mode": "fan_avg", "distribution": "uniform", "seed": null}}, "bias_initializer": {"class_name": "Zeros", "config": {}}, "kernel_regularizer": null, "bias_regularizer": null, "activity_regularizer": null, "kernel_constraint": null, "bias_constraint": null}, "name": "conv2d_2159_insert", "inbound_nodes": [[["conv2d_2157_insert", 0, 0, {}]]]}, {"class_name": "Conv2D", "config": {"name": "conv2d_2161_insert", "trainable": true, "dtype": "float32", "filters": 3, "kernel_size": [1, 1], "strides": [1, 1], "padding": "same", "data_format": "channels_last", "dilation_rate": [1, 1], "groups": 1, "activation": "linear", "use_bias": false, "kernel_initializer": {"class_name": "VarianceScaling", "config": {"scale": 1.0, "mode": "fan_avg", "distribution": "uniform", "seed": null}}, "bias_initializer": {"class_name": "Zeros", "config": {}}, "kernel_regularizer": null, "bias_regularizer": null, "activity_regularizer": null, "kernel_constraint": null, "bias_constraint": null}, "name": "conv2d_2161_insert", "inbound_nodes": [[["conv2d_2159_insert", 0, 0, {}]]]}, {"class_name": "CustomPadLayer", "config": {"name": "custom_pad_layer_400", "trainable": true, "dtype": "float32", "padding": [[6, 7], [4, 5], [6, 7]], "constant_values": 2}, "name": "custom_pad_layer_400", "inbound_nodes": [[["conv2d_2161_insert", 0, 0, {}]]]}, {"class_name": "BatchNormalization", "config": {"name": "batch_normalization_941_insert", "trainable": true, "dtype": "float32", "axis": [3], "momentum": 0.99, "epsilon": 0.001, "center": true, "scale": false, "beta_initializer": {"class_name": "Zeros", "config": {}}, "gamma_initializer": {"class_name": "Ones", "config": {}}, "moving_mean_initializer": {"class_name": "Zeros", "config": {}}, "moving_variance_initializer": {"class_name": "Ones", "config": {}}, "beta_regularizer": null, "gamma_regularizer": null, "beta_constraint": null, "gamma_constraint": null}, "name": "batch_normalization_941_insert", "inbound_nodes": [[["custom_pad_layer_400", 0, 0, {}]]]}, {"class_name": "CustomPadLayer", "config": {"name": "custom_pad_layer_401", "trainable": true, "dtype": "float32", "padding": [[0, 0], [0, 0], [1, 1]], "constant_values": 2}, "name": "custom_pad_layer_401", "inbound_nodes": [[["batch_normalization_941_insert", 0, 0, {}]]]}, {"class_name": "CustomCropLayer", "config": {"name": "custom_crop_layer_300", "trainable": true, "dtype": "float32", "cropping": [[3, 3], [1, 2], [0, 0]]}, "name": "custom_crop_layer_300", "inbound_nodes": [[["custom_pad_layer_401", 0, 0, {}]]]}, {"class_name": "BatchNormalization", "config": {"name": "batch_normalization_943_insert", "trainable": true, "dtype": "float32", "axis": [3], "momentum": 0.99, "epsilon": 0.001, "center": true, "scale": false, "beta_initializer": {"class_name": "Zeros", "config": {}}, "gamma_initializer": {"class_name": "Ones", "config": {}}, "moving_mean_initializer": {"class_name": "Zeros", "config": {}}, "moving_variance_initializer": {"class_name": "Ones", "config": {}}, "beta_regularizer": null, "gamma_regularizer": null, "beta_constraint": null, "gamma_constraint": null}, "name": "batch_normalization_943_insert", "inbound_nodes": [[["custom_crop_layer_300", 0, 0, {}]]]}, {"class_name": "CustomPadLayer", "config": {"name": "custom_pad_layer_402", "trainable": true, "dtype": "float32", "padding": [[0, 0], [5, 5], [0, 0]], "constant_values": 2}, "name": "custom_pad_layer_402", "inbound_nodes": [[["batch_normalization_943_insert", 0, 0, {}]]]}, {"class_name": "CustomCropLayer", "config": {"name": "custom_crop_layer_301", "trainable": true, "dtype": "float32", "cropping": [[0, 1], [0, 0], [0, 1]]}, "name": "custom_crop_layer_301", "inbound_nodes": [[["custom_pad_layer_402", 0, 0, {}]]]}, {"class_name": "MaxPooling2D", "config": {"name": "max_pooling2d_733_insert", "trainable": true, "dtype": "float32", "pool_size": [3, 3], "padding": "valid", "strides": [2, 2], "data_format": "channels_last"}, "name": "max_pooling2d_733_insert", "inbound_nodes": [[["custom_crop_layer_301", 0, 0, {}]]]}, {"class_name": "CustomPadLayer", "config": {"name": "custom_pad_layer_403", "trainable": true, "dtype": "float32", "padding": [[3, 4], [0, 0], [0, 0]], "constant_values": 2}, "name": "custom_pad_layer_403", "inbound_nodes": [[["max_pooling2d_733_insert", 0, 0, {}]]]}, {"class_name": "CustomCropLayer", "config": {"name": "custom_crop_layer_302", "trainable": true, "dtype": "float32", "cropping": [[0, 0], [0, 1], [2, 3]]}, "name": "custom_crop_layer_302", "inbound_nodes": [[["custom_pad_layer_403", 0, 0, {}]]]}, {"class_name": "BatchNormalization", "config": {"name": "batch_normalization_945_insert", "trainable": true, "dtype": "float32", "axis": [3], "momentum": 0.99, "epsilon": 0.001, "center": true, "scale": false, "beta_initializer": {"class_name": "Zeros", "config": {}}, "gamma_initializer": {"class_name": "Ones", "config": {}}, "moving_mean_initializer": {"class_name": "Zeros", "config": {}}, "moving_variance_initializer": {"class_name": "Ones", "config": {}}, "beta_regularizer": null, "gamma_regularizer": null, "beta_constraint": null, "gamma_constraint": null}, "name": "batch_normalization_945_insert", "inbound_nodes": [[["custom_crop_layer_302", 0, 0, {}]]]}, {"class_name": "CustomCropLayer", "config": {"name": "custom_crop_layer_303", "trainable": true, "dtype": "float32", "cropping": [[2, 2], [1, 1], [2, 2]]}, "name": "custom_crop_layer_303", "inbound_nodes": [[["batch_normalization_945_insert", 0, 0, {}]]]}, {"class_name": "BatchNormalization", "config": {"name": "batch_normalization_947_insert", "trainable": true, "dtype": "float32", "axis": [3], "momentum": 0.99, "epsilon": 0.001, "center": true, "scale": false, "beta_initializer": {"class_name": "Zeros", "config": {}}, "gamma_initializer": {"class_name": "Ones", "config": {}}, "moving_mean_initializer": {"class_name": "Zeros", "config": {}}, "moving_variance_initializer": {"class_name": "Ones", "config": {}}, "beta_regularizer": null, "gamma_regularizer": null, "beta_constraint": null, "gamma_constraint": null}, "name": "batch_normalization_947_insert", "inbound_nodes": [[["custom_crop_layer_303", 0, 0, {}]]]}, {"class_name": "CustomPadLayer", "config": {"name": "custom_pad_layer_404", "trainable": true, "dtype": "float32", "padding": [[0, 0], [6, 6], [0, 0]], "constant_values": 2}, "name": "custom_pad_layer_404", "inbound_nodes": [[["batch_normalization_947_insert", 0, 0, {}]]]}, {"class_name": "CustomCropLayer", "config": {"name": "custom_crop_layer_304", "trainable": true, "dtype": "float32", "cropping": [[0, 1], [0, 0], [0, 0]]}, "name": "custom_crop_layer_304", "inbound_nodes": [[["custom_pad_layer_404", 0, 0, {}]]]}, {"class_name": "MaxPooling2D", "config": {"name": "max_pooling2d_735_insert", "trainable": true, "dtype": "float32", "pool_size": [3, 3], "padding": "valid", "strides": [2, 2], "data_format": "channels_last"}, "name": "max_pooling2d_735_insert", "inbound_nodes": [[["custom_crop_layer_304", 0, 0, {}]]]}, {"class_name": "CustomPadLayer", "config": {"name": "custom_pad_layer_405", "trainable": true, "dtype": "float32", "padding": [[6, 6], [2, 3], [0, 0]], "constant_values": 2}, "name": "custom_pad_layer_405", "inbound_nodes": [[["max_pooling2d_735_insert", 0, 0, {}]]]}, {"class_name": "CustomCropLayer", "config": {"name": "custom_crop_layer_305", "trainable": true, "dtype": "float32", "cropping": [[0, 0], [0, 0], [1, 2]]}, "name": "custom_crop_layer_305", "inbound_nodes": [[["custom_pad_layer_405", 0, 0, {}]]]}, {"class_name": "Conv2D", "config": {"name": "conv2d_2145_insert_2", "trainable": true, "dtype": "float32", "filters": 4, "kernel_size": [3, 3], "strides": [1, 1], "padding": "valid", "data_format": "channels_last", "dilation_rate": [1, 1], "groups": 1, "activation": "linear", "use_bias": false, "kernel_initializer": {"class_name": "VarianceScaling", "config": {"scale": 1.0, "mode": "fan_avg", "distribution": "uniform", "seed": null}}, "bias_initializer": {"class_name": "Zeros", "config": {}}, "kernel_regularizer": null, "bias_regularizer": null, "activity_regularizer": null, "kernel_constraint": null, "bias_constraint": null}, "name": "conv2d_2145_insert_2", "inbound_nodes": [[["average_pooling2d_523_insert_1", 0, 0, {}]]]}, {"class_name": "AveragePooling2D", "config": {"name": "average_pooling2d_523_insert_2_merge1", "trainable": true, "dtype": "float32", "pool_size": [3, 3], "padding": "same", "strides": [1, 1], "data_format": "channels_last"}, "name": "average_pooling2d_523_insert_2_merge1", "inbound_nodes": [[["max_pooling2d_733_insert", 0, 0, {}]]]}, {"class_name": "MaxPooling2D", "config": {"name": "max_pooling2d_737_insert", "trainable": true, "dtype": "float32", "pool_size": [3, 3], "padding": "valid", "strides": [2, 2], "data_format": "channels_last"}, "name": "max_pooling2d_737_insert", "inbound_nodes": [[["custom_crop_layer_305", 0, 0, {}]]]}, {"class_name": "Cropping2D", "config": {"name": "cropping2d_41", "trainable": true, "dtype": "float32", "cropping": [[30, 30], [30, 30]], "data_format": "channels_last"}, "name": "cropping2d_41", "inbound_nodes": [[["conv2d_2145_insert_2", 0, 0, {}]]]}, {"class_name": "Concatenate", "config": {"name": "concatenate_22_copy_ML", "trainable": true, "dtype": "float32", "axis": 3}, "name": "concatenate_22_copy_ML", "inbound_nodes": [[["average_pooling2d_523_insert_2_merge1", 0, 0, {}], ["max_pooling2d_733_insert", 0, 0, {}]]]}], "input_layers": [["input_422", 0, 0]], "output_layers": [["max_pooling2d_737_insert", 0, 0], ["cropping2d_41", 0, 0], ["concatenate_22_copy_ML", 0, 0]]}, "keras_version": "2.7.0", "backend": "tensorflow"}