{"class_name": "Functional", "config": {"name": "model_3365", "layers": [{"class_name": "InputLayer", "config": {"batch_input_shape": [null, 224, 224, 3], "dtype": "float32", "sparse": false, "ragged": false, "name": "input_434"}, "name": "input_434", "inbound_nodes": []}, {"class_name": "ZeroPadding2D", "config": {"name": "conv1_pad", "trainable": true, "dtype": "float32", "padding": [[3, 3], [3, 3]], "data_format": "channels_last"}, "name": "conv1_pad", "inbound_nodes": [[["input_434", 0, 0, {}]]]}, {"class_name": "BatchNormalization", "config": {"name": "batch_normalization_979_insert_1_merge1", "trainable": true, "dtype": "float32", "axis": [3], "momentum": 0.99, "epsilon": 1.001e-05, "center": true, "scale": true, "beta_initializer": {"class_name": "Zeros", "config": {}}, "gamma_initializer": {"class_name": "Ones", "config": {}}, "moving_mean_initializer": {"class_name": "Zeros", "config": {}}, "moving_variance_initializer": {"class_name": "Ones", "config": {}}, "beta_regularizer": null, "gamma_regularizer": null, "beta_constraint": null, "gamma_constraint": null}, "name": "batch_normalization_979_insert_1_merge1", "inbound_nodes": [[["conv1_pad", 0, 0, {}]]]}, {"class_name": "Add", "config": {"name": "add_21_copy_ML", "trainable": true, "dtype": "float32"}, "name": "add_21_copy_ML", "inbound_nodes": [[["batch_normalization_979_insert_1_merge1", 0, 0, {}], ["conv1_pad", 0, 0, {}]]]}, {"class_name": "MaxPooling2D", "config": {"name": "max_pooling2d_763_insert_1", "trainable": true, "dtype": "float32", "pool_size": [3, 3], "padding": "valid", "strides": [2, 2], "data_format": "channels_last"}, "name": "max_pooling2d_763_insert_1", "inbound_nodes": [[["add_21_copy_ML", 0, 0, {}]]]}, {"class_name": "Conv2D", "config": {"name": "conv2d_2253_insert", "trainable": true, "dtype": "float32", "filters": 2, "kernel_size": [1, 1], "strides": [2, 2], "padding": "valid", "data_format": "channels_last", "dilation_rate": [1, 1], "groups": 1, "activation": "linear", "use_bias": true, "kernel_initializer": {"class_name": "VarianceScaling", "config": {"scale": 1.0, "mode": "fan_avg", "distribution": "uniform", "seed": null}}, "bias_initializer": {"class_name": "Zeros", "config": {}}, "kernel_regularizer": null, "bias_regularizer": null, "activity_regularizer": null, "kernel_constraint": null, "bias_constraint": null}, "name": "conv2d_2253_insert", "inbound_nodes": [[["max_pooling2d_763_insert_1", 0, 0, {}]]]}, {"class_name": "Conv2D", "config": {"name": "conv2d_2255_insert", "trainable": true, "dtype": "float32", "filters": 3, "kernel_size": [7, 7], "strides": [2, 2], "padding": "valid", "data_format": "channels_last", "dilation_rate": [1, 1], "groups": 1, "activation": "linear", "use_bias": true, "kernel_initializer": {"class_name": "VarianceScaling", "config": {"scale": 1.0, "mode": "fan_avg", "distribution": "uniform", "seed": null}}, "bias_initializer": {"class_name": "Zeros", "config": {}}, "kernel_regularizer": null, "bias_regularizer": null, "activity_regularizer": null, "kernel_constraint": null, "bias_constraint": null}, "name": "conv2d_2255_insert", "inbound_nodes": [[["conv2d_2253_insert", 0, 0, {}]]]}, {"class_name": "Conv2D", "config": {"name": "conv2d_2257_insert", "trainable": true, "dtype": "float32", "filters": 2, "kernel_size": [1, 1], "strides": [1, 1], "padding": "valid", "data_format": "channels_last", "dilation_rate": [1, 1], "groups": 1, "activation": "linear", "use_bias": true, "kernel_initializer": {"class_name": "VarianceScaling", "config": {"scale": 1.0, "mode": "fan_avg", "distribution": "uniform", "seed": null}}, "bias_initializer": {"class_name": "Zeros", "config": {}}, "kernel_regularizer": null, "bias_regularizer": null, "activity_regularizer": null, "kernel_constraint": null, "bias_constraint": null}, "name": "conv2d_2257_insert", "inbound_nodes": [[["conv2d_2255_insert", 0, 0, {}]]]}, {"class_name": "GlobalAveragePooling2D", "config": {"name": "global_average_pooling2d_731_insert", "trainable": true, "dtype": "float32", "data_format": "channels_last", "keepdims": false}, "name": "global_average_pooling2d_731_insert", "inbound_nodes": [[["conv2d_2257_insert", 0, 0, {}]]]}, {"class_name": "CustomExpandLayer", "config": {"name": "custom_expand_layer_736_insert", "trainable": true, "dtype": "float32", "axis": 1}, "name": "custom_expand_layer_736_insert", "inbound_nodes": [[["global_average_pooling2d_731_insert", 0, 0, {}]]]}, {"class_name": "CustomExpandLayer", "config": {"name": "custom_expand_layer_737_insert", "trainable": true, "dtype": "float32", "axis": 1}, "name": "custom_expand_layer_737_insert", "inbound_nodes": [[["custom_expand_layer_736_insert", 0, 0, {}]]]}, {"class_name": "Conv2D", "config": {"name": "conv2d_2259_insert", "trainable": true, "dtype": "float32", "filters": 2, "kernel_size": [3, 3], "strides": [1, 1], "padding": "same", "data_format": "channels_last", "dilation_rate": [1, 1], "groups": 1, "activation": "linear", "use_bias": true, "kernel_initializer": {"class_name": "VarianceScaling", "config": {"scale": 1.0, "mode": "fan_avg", "distribution": "uniform", "seed": null}}, "bias_initializer": {"class_name": "Zeros", "config": {}}, "kernel_regularizer": null, "bias_regularizer": null, "activity_regularizer": null, "kernel_constraint": null, "bias_constraint": null}, "name": "conv2d_2259_insert", "inbound_nodes": [[["custom_expand_layer_737_insert", 0, 0, {}]]]}, {"class_name": "ZeroPadding2D", "config": {"name": "zero_padding2d_193_insert", "trainable": true, "dtype": "float32", "padding": [[1, 1], [1, 1]], "data_format": "channels_last"}, "name": "zero_padding2d_193_insert", "inbound_nodes": [[["conv2d_2259_insert", 0, 0, {}]]]}, {"class_name": "CustomPadLayer", "config": {"name": "custom_pad_layer_417", "trainable": true, "dtype": "float32", "padding": [[4, 4], [1, 1], [4, 4]], "constant_values": 2}, "name": "custom_pad_layer_417", "inbound_nodes": [[["zero_padding2d_193_insert", 0, 0, {}]]]}, {"class_name": "BatchNormalization", "config": {"name": "batch_normalization_981_insert", "trainable": true, "dtype": "float32", "axis": [3], "momentum": 0.99, "epsilon": 1.001e-05, "center": true, "scale": true, "beta_initializer": {"class_name": "Zeros", "config": {}}, "gamma_initializer": {"class_name": "Ones", "config": {}}, "moving_mean_initializer": {"class_name": "Zeros", "config": {}}, "moving_variance_initializer": {"class_name": "Ones", "config": {}}, "beta_regularizer": null, "gamma_regularizer": null, "beta_constraint": null, "gamma_constraint": null}, "name": "batch_normalization_981_insert", "inbound_nodes": [[["custom_pad_layer_417", 0, 0, {}]]]}, {"class_name": "CustomPadLayer", "config": {"name": "custom_pad_layer_418", "trainable": true, "dtype": "float32", "padding": [[0, 0], [7, 7], [0, 1]], "constant_values": 2}, "name": "custom_pad_layer_418", "inbound_nodes": [[["batch_normalization_981_insert", 0, 0, {}]]]}, {"class_name": "CustomCropLayer", "config": {"name": "custom_crop_layer_313", "trainable": true, "dtype": "float32", "cropping": [[3, 3], [0, 0], [0, 0]]}, "name": "custom_crop_layer_313", "inbound_nodes": [[["custom_pad_layer_418", 0, 0, {}]]]}, {"class_name": "Conv2D", "config": {"name": "conv2d_2261_insert_1", "trainable": true, "dtype": "float32", "filters": 6, "kernel_size": [3, 3], "strides": [1, 1], "padding": "same", "data_format": "channels_last", "dilation_rate": [1, 1], "groups": 1, "activation": "linear", "use_bias": true, "kernel_initializer": {"class_name": "VarianceScaling", "config": {"scale": 1.0, "mode": "fan_avg", "distribution": "uniform", "seed": null}}, "bias_initializer": {"class_name": "Zeros", "config": {}}, "kernel_regularizer": null, "bias_regularizer": null, "activity_regularizer": null, "kernel_constraint": null, "bias_constraint": null}, "name": "conv2d_2261_insert_1", "inbound_nodes": [[["custom_crop_layer_313", 0, 0, {}]]]}, {"class_name": "CustomPadLayer", "config": {"name": "custom_pad_layer_419", "trainable": true, "dtype": "float32", "padding": [[1, 1], [0, 0], [0, 0]], "constant_values": 2}, "name": "custom_pad_layer_419", "inbound_nodes": [[["conv2d_2261_insert_1", 0, 0, {}]]]}, {"class_name": "CustomCropLayer", "config": {"name": "custom_crop_layer_314", "trainable": true, "dtype": "float32", "cropping": [[0, 0], [4, 5], [0, 1]]}, "name": "custom_crop_layer_314", "inbound_nodes": [[["custom_pad_layer_419", 0, 0, {}]]]}, {"class_name": "BatchNormalization", "config": {"name": "batch_normalization_983_insert", "trainable": true, "dtype": "float32", "axis": [3], "momentum": 0.99, "epsilon": 1.001e-05, "center": true, "scale": true, "beta_initializer": {"class_name": "Zeros", "config": {}}, "gamma_initializer": {"class_name": "Ones", "config": {}}, "moving_mean_initializer": {"class_name": "Zeros", "config": {}}, "moving_variance_initializer": {"class_name": "Ones", "config": {}}, "beta_regularizer": null, "gamma_regularizer": null, "beta_constraint": null, "gamma_constraint": null}, "name": "batch_normalization_983_insert", "inbound_nodes": [[["custom_crop_layer_314", 0, 0, {}]]]}, {"class_name": "CustomPadLayer", "config": {"name": "custom_pad_layer_420", "trainable": true, "dtype": "float32", "padding": [[1, 1], [0, 0], [1, 1]], "constant_values": 2}, "name": "custom_pad_layer_420", "inbound_nodes": [[["batch_normalization_983_insert", 0, 0, {}]]]}, {"class_name": "CustomCropLayer", "config": {"name": "custom_crop_layer_315", "trainable": true, "dtype": "float32", "cropping": [[0, 0], [1, 2], [0, 0]]}, "name": "custom_crop_layer_315", "inbound_nodes": [[["custom_pad_layer_420", 0, 0, {}]]]}, {"class_name": "BatchNormalization", "config": {"name": "batch_normalization_985_insert", "trainable": true, "dtype": "float32", "axis": [3], "momentum": 0.99, "epsilon": 1.001e-05, "center": true, "scale": true, "beta_initializer": {"class_name": "Zeros", "config": {}}, "gamma_initializer": {"class_name": "Ones", "config": {}}, "moving_mean_initializer": {"class_name": "Zeros", "config": {}}, "moving_variance_initializer": {"class_name": "Ones", "config": {}}, "beta_regularizer": null, "gamma_regularizer": null, "beta_constraint": null, "gamma_constraint": null}, "name": "batch_normalization_985_insert", "inbound_nodes": [[["custom_crop_layer_315", 0, 0, {}]]]}, {"class_name": "CustomPadLayer", "config": {"name": "custom_pad_layer_421", "trainable": true, "dtype": "float32", "padding": [[0, 0], [3, 3], [3, 3]], "constant_values": 2}, "name": "custom_pad_layer_421", "inbound_nodes": [[["batch_normalization_985_insert", 0, 0, {}]]]}, {"class_name": "CustomCropLayer", "config": {"name": "custom_crop_layer_316", "trainable": true, "dtype": "float32", "cropping": [[0, 1], [0, 0], [0, 0]]}, "name": "custom_crop_layer_316", "inbound_nodes": [[["custom_pad_layer_421", 0, 0, {}]]]}, {"class_name": "BatchNormalization", "config": {"name": "batch_normalization_987_insert", "trainable": true, "dtype": "float32", "axis": [3], "momentum": 0.99, "epsilon": 1.001e-05, "center": true, "scale": true, "beta_initializer": {"class_name": "Zeros", "config": {}}, "gamma_initializer": {"class_name": "Ones", "config": {}}, "moving_mean_initializer": {"class_name": "Zeros", "config": {}}, "moving_variance_initializer": {"class_name": "Ones", "config": {}}, "beta_regularizer": null, "gamma_regularizer": null, "beta_constraint": null, "gamma_constraint": null}, "name": "batch_normalization_987_insert", "inbound_nodes": [[["custom_crop_layer_316", 0, 0, {}]]]}, {"class_name": "BatchNormalization", "config": {"name": "batch_normalization_979_insert_2", "trainable": true, "dtype": "float32", "axis": [3], "momentum": 0.99, "epsilon": 1.001e-05, "center": true, "scale": true, "beta_initializer": {"class_name": "Zeros", "config": {}}, "gamma_initializer": {"class_name": "Ones", "config": {}}, "moving_mean_initializer": {"class_name": "Zeros", "config": {}}, "moving_variance_initializer": {"class_name": "Ones", "config": {}}, "beta_regularizer": null, "gamma_regularizer": null, "beta_constraint": null, "gamma_constraint": null}, "name": "batch_normalization_979_insert_2", "inbound_nodes": [[["conv2d_2259_insert", 0, 0, {}]]]}, {"class_name": "MaxPooling2D", "config": {"name": "max_pooling2d_763_insert_2", "trainable": true, "dtype": "float32", "pool_size": [3, 3], "padding": "valid", "strides": [2, 2], "data_format": "channels_last"}, "name": "max_pooling2d_763_insert_2", "inbound_nodes": [[["zero_padding2d_193_insert", 0, 0, {}]]]}, {"class_name": "Conv2D", "config": {"name": "conv2d_2261_insert_2", "trainable": true, "dtype": "float32", "filters": 6, "kernel_size": [3, 3], "strides": [1, 1], "padding": "same", "data_format": "channels_last", "dilation_rate": [1, 1], "groups": 1, "activation": "linear", "use_bias": true, "kernel_initializer": {"class_name": "VarianceScaling", "config": {"scale": 1.0, "mode": "fan_avg", "distribution": "uniform", "seed": null}}, "bias_initializer": {"class_name": "Zeros", "config": {}}, "kernel_regularizer": null, "bias_regularizer": null, "activity_regularizer": null, "kernel_constraint": null, "bias_constraint": null}, "name": "conv2d_2261_insert_2", "inbound_nodes": [[["zero_padding2d_193_insert", 0, 0, {}]]]}], "input_layers": [["input_434", 0, 0]], "output_layers": [["batch_normalization_987_insert", 0, 0], ["batch_normalization_979_insert_2", 0, 0], ["max_pooling2d_763_insert_2", 0, 0], ["conv2d_2261_insert_2", 0, 0]]}, "keras_version": "2.7.0", "backend": "tensorflow"}