{"class_name": "Functional", "config": {"name": "model_8136", "layers": [{"class_name": "InputLayer", "config": {"batch_input_shape": [null, 224, 224, 3], "dtype": "float32", "sparse": false, "ragged": false, "name": "input_1021"}, "name": "input_1021", "inbound_nodes": []}, {"class_name": "ZeroPadding2D", "config": {"name": "zero_padding2d_1", "trainable": true, "dtype": "float32", "padding": [[3, 3], [3, 3]], "data_format": "channels_last"}, "name": "zero_padding2d_1", "inbound_nodes": [[["input_1021", 0, 0, {}]]]}, {"class_name": "BatchNormalization", "config": {"name": "batch_normalization_2391_insert", "trainable": true, "dtype": "float32", "axis": [3], "momentum": 0.99, "epsilon": 1.001e-05, "center": true, "scale": true, "beta_initializer": {"class_name": "Zeros", "config": {}}, "gamma_initializer": {"class_name": "Ones", "config": {}}, "moving_mean_initializer": {"class_name": "Zeros", "config": {}}, "moving_variance_initializer": {"class_name": "Ones", "config": {}}, "beta_regularizer": null, "gamma_regularizer": null, "beta_constraint": null, "gamma_constraint": null}, "name": "batch_normalization_2391_insert", "inbound_nodes": [[["zero_padding2d_1", 0, 0, {}]]]}, {"class_name": "ZeroPadding2D", "config": {"name": "zero_padding2d_465_insert", "trainable": true, "dtype": "float32", "padding": [[1, 1], [1, 1]], "data_format": "channels_last"}, "name": "zero_padding2d_465_insert", "inbound_nodes": [[["batch_normalization_2391_insert", 0, 0, {}]]]}, {"class_name": "AveragePooling2D", "config": {"name": "average_pooling2d_1303_insert", "trainable": true, "dtype": "float32", "pool_size": [2, 2], "padding": "valid", "strides": [2, 2], "data_format": "channels_last"}, "name": "average_pooling2d_1303_insert", "inbound_nodes": [[["zero_padding2d_465_insert", 0, 0, {}]]]}, {"class_name": "Conv2D", "config": {"name": "conv2d_5487_insert", "trainable": true, "dtype": "float32", "filters": 8, "kernel_size": [7, 7], "strides": [2, 2], "padding": "valid", "data_format": "channels_last", "dilation_rate": [1, 1], "groups": 1, "activation": "linear", "use_bias": false, "kernel_initializer": {"class_name": "VarianceScaling", "config": {"scale": 1.0, "mode": "fan_avg", "distribution": "uniform", "seed": null}}, "bias_initializer": {"class_name": "Zeros", "config": {}}, "kernel_regularizer": null, "bias_regularizer": null, "activity_regularizer": null, "kernel_constraint": null, "bias_constraint": null}, "name": "conv2d_5487_insert", "inbound_nodes": [[["average_pooling2d_1303_insert", 0, 0, {}]]]}, {"class_name": "Conv2D", "config": {"name": "conv2d_5489_insert", "trainable": true, "dtype": "float32", "filters": 3, "kernel_size": [1, 1], "strides": [1, 1], "padding": "valid", "data_format": "channels_last", "dilation_rate": [1, 1], "groups": 1, "activation": "linear", "use_bias": false, "kernel_initializer": {"class_name": "VarianceScaling", "config": {"scale": 1.0, "mode": "fan_avg", "distribution": "uniform", "seed": null}}, "bias_initializer": {"class_name": "Zeros", "config": {}}, "kernel_regularizer": null, "bias_regularizer": null, "activity_regularizer": null, "kernel_constraint": null, "bias_constraint": null}, "name": "conv2d_5489_insert", "inbound_nodes": [[["conv2d_5487_insert", 0, 0, {}]]]}, {"class_name": "MaxPooling2D", "config": {"name": "max_pooling2d_1907_insert_1", "trainable": true, "dtype": "float32", "pool_size": [3, 3], "padding": "valid", "strides": [2, 2], "data_format": "channels_last"}, "name": "max_pooling2d_1907_insert_1", "inbound_nodes": [[["conv2d_5489_insert", 0, 0, {}]]]}, {"class_name": "Conv2D", "config": {"name": "conv2d_5491_insert", "trainable": true, "dtype": "float32", "filters": 5, "kernel_size": [3, 3], "strides": [1, 1], "padding": "same", "data_format": "channels_last", "dilation_rate": [1, 1], "groups": 1, "activation": "linear", "use_bias": false, "kernel_initializer": {"class_name": "VarianceScaling", "config": {"scale": 1.0, "mode": "fan_avg", "distribution": "uniform", "seed": null}}, "bias_initializer": {"class_name": "Zeros", "config": {}}, "kernel_regularizer": null, "bias_regularizer": null, "activity_regularizer": null, "kernel_constraint": null, "bias_constraint": null}, "name": "conv2d_5491_insert", "inbound_nodes": [[["max_pooling2d_1907_insert_1", 0, 0, {}]]]}, {"class_name": "GlobalAveragePooling2D", "config": {"name": "global_average_pooling2d_1703_insert", "trainable": true, "dtype": "float32", "data_format": "channels_last", "keepdims": false}, "name": "global_average_pooling2d_1703_insert", "inbound_nodes": [[["conv2d_5491_insert", 0, 0, {}]]]}, {"class_name": "CustomExpandLayer", "config": {"name": "custom_expand_layer_1739", "trainable": true, "dtype": "float32", "axis": 1}, "name": "custom_expand_layer_1739", "inbound_nodes": [[["global_average_pooling2d_1703_insert", 0, 0, {}]]]}, {"class_name": "CustomExpandLayer", "config": {"name": "custom_expand_layer_1740", "trainable": true, "dtype": "float32", "axis": 1}, "name": "custom_expand_layer_1740", "inbound_nodes": [[["custom_expand_layer_1739", 0, 0, {}]]]}, {"class_name": "CustomPadLayer", "config": {"name": "custom_pad_layer_1074", "trainable": true, "dtype": "float32", "padding": [[8, 9], [3, 3], [4, 5]], "constant_values": 2}, "name": "custom_pad_layer_1074", "inbound_nodes": [[["custom_expand_layer_1740", 0, 0, {}]]]}, {"class_name": "Conv2D", "config": {"name": "conv2d_5493_insert_1", "trainable": true, "dtype": "float32", "filters": 3, "kernel_size": [7, 7], "strides": [2, 2], "padding": "valid", "data_format": "channels_last", "dilation_rate": [1, 1], "groups": 1, "activation": "linear", "use_bias": false, "kernel_initializer": {"class_name": "VarianceScaling", "config": {"scale": 1.0, "mode": "fan_avg", "distribution": "uniform", "seed": null}}, "bias_initializer": {"class_name": "Zeros", "config": {}}, "kernel_regularizer": null, "bias_regularizer": null, "activity_regularizer": null, "kernel_constraint": null, "bias_constraint": null}, "name": "conv2d_5493_insert_1", "inbound_nodes": [[["custom_pad_layer_1074", 0, 0, {}]]]}, {"class_name": "CustomPadLayer", "config": {"name": "custom_pad_layer_1075", "trainable": true, "dtype": "float32", "padding": [[1, 1], [2, 3], [8, 8]], "constant_values": 2}, "name": "custom_pad_layer_1075", "inbound_nodes": [[["conv2d_5493_insert_1", 0, 0, {}]]]}, {"class_name": "AveragePooling2D", "config": {"name": "average_pooling2d_1305_insert_1", "trainable": true, "dtype": "float32", "pool_size": [2, 2], "padding": "valid", "strides": [2, 2], "data_format": "channels_last"}, "name": "average_pooling2d_1305_insert_1", "inbound_nodes": [[["custom_pad_layer_1075", 0, 0, {}]]]}, {"class_name": "CustomPadLayer", "config": {"name": "custom_pad_layer_1076", "trainable": true, "dtype": "float32", "padding": [[2, 2], [8, 8], [0, 0]], "constant_values": 2}, "name": "custom_pad_layer_1076", "inbound_nodes": [[["average_pooling2d_1305_insert_1", 0, 0, {}]]]}, {"class_name": "CustomCropLayer", "config": {"name": "custom_crop_layer_794", "trainable": true, "dtype": "float32", "cropping": [[0, 0], [0, 0], [6, 7]]}, "name": "custom_crop_layer_794", "inbound_nodes": [[["custom_pad_layer_1076", 0, 0, {}]]]}, {"class_name": "BatchNormalization", "config": {"name": "batch_normalization_2393_insert", "trainable": true, "dtype": "float32", "axis": [3], "momentum": 0.99, "epsilon": 1.001e-05, "center": true, "scale": true, "beta_initializer": {"class_name": "Zeros", "config": {}}, "gamma_initializer": {"class_name": "Ones", "config": {}}, "moving_mean_initializer": {"class_name": "Zeros", "config": {}}, "moving_variance_initializer": {"class_name": "Ones", "config": {}}, "beta_regularizer": null, "gamma_regularizer": null, "beta_constraint": null, "gamma_constraint": null}, "name": "batch_normalization_2393_insert", "inbound_nodes": [[["custom_crop_layer_794", 0, 0, {}]]]}, {"class_name": "CustomPadLayer", "config": {"name": "custom_pad_layer_1077", "trainable": true, "dtype": "float32", "padding": [[1, 1], [0, 0], [4, 5]], "constant_values": 2}, "name": "custom_pad_layer_1077", "inbound_nodes": [[["batch_normalization_2393_insert", 0, 0, {}]]]}, {"class_name": "CustomCropLayer", "config": {"name": "custom_crop_layer_795", "trainable": true, "dtype": "float32", "cropping": [[0, 0], [3, 3], [0, 0]]}, "name": "custom_crop_layer_795", "inbound_nodes": [[["custom_pad_layer_1077", 0, 0, {}]]]}, {"class_name": "Conv2D", "config": {"name": "conv2d_5495_insert", "trainable": true, "dtype": "float32", "filters": 4, "kernel_size": [7, 7], "strides": [2, 2], "padding": "valid", "data_format": "channels_last", "dilation_rate": [1, 1], "groups": 1, "activation": "linear", "use_bias": false, "kernel_initializer": {"class_name": "VarianceScaling", "config": {"scale": 1.0, "mode": "fan_avg", "distribution": "uniform", "seed": null}}, "bias_initializer": {"class_name": "Zeros", "config": {}}, "kernel_regularizer": null, "bias_regularizer": null, "activity_regularizer": null, "kernel_constraint": null, "bias_constraint": null}, "name": "conv2d_5495_insert", "inbound_nodes": [[["custom_crop_layer_795", 0, 0, {}]]]}, {"class_name": "CustomPadLayer", "config": {"name": "custom_pad_layer_1078", "trainable": true, "dtype": "float32", "padding": [[5, 5], [1, 2], [5, 5]], "constant_values": 2}, "name": "custom_pad_layer_1078", "inbound_nodes": [[["conv2d_5495_insert", 0, 0, {}]]]}, {"class_name": "BatchNormalization", "config": {"name": "batch_normalization_2395_insert_1", "trainable": true, "dtype": "float32", "axis": [3], "momentum": 0.99, "epsilon": 1.001e-05, "center": true, "scale": true, "beta_initializer": {"class_name": "Zeros", "config": {}}, "gamma_initializer": {"class_name": "Ones", "config": {}}, "moving_mean_initializer": {"class_name": "Zeros", "config": {}}, "moving_variance_initializer": {"class_name": "Ones", "config": {}}, "beta_regularizer": null, "gamma_regularizer": null, "beta_constraint": null, "gamma_constraint": null}, "name": "batch_normalization_2395_insert_1", "inbound_nodes": [[["custom_pad_layer_1078", 0, 0, {}]]]}, {"class_name": "CustomPadLayer", "config": {"name": "custom_pad_layer_1079", "trainable": true, "dtype": "float32", "padding": [[0, 0], [0, 1], [0, 0]], "constant_values": 2}, "name": "custom_pad_layer_1079", "inbound_nodes": [[["batch_normalization_2395_insert_1", 0, 0, {}]]]}, {"class_name": "CustomCropLayer", "config": {"name": "custom_crop_layer_796", "trainable": true, "dtype": "float32", "cropping": [[2, 3], [0, 0], [4, 4]]}, "name": "custom_crop_layer_796", "inbound_nodes": [[["custom_pad_layer_1079", 0, 0, {}]]]}, {"class_name": "BatchNormalization", "config": {"name": "batch_normalization_2397_insert_1", "trainable": true, "dtype": "float32", "axis": [3], "momentum": 0.99, "epsilon": 1.001e-05, "center": true, "scale": true, "beta_initializer": {"class_name": "Zeros", "config": {}}, "gamma_initializer": {"class_name": "Ones", "config": {}}, "moving_mean_initializer": {"class_name": "Zeros", "config": {}}, "moving_variance_initializer": {"class_name": "Ones", "config": {}}, "beta_regularizer": null, "gamma_regularizer": null, "beta_constraint": null, "gamma_constraint": null}, "name": "batch_normalization_2397_insert_1", "inbound_nodes": [[["custom_crop_layer_796", 0, 0, {}]]]}, {"class_name": "CustomPadLayer", "config": {"name": "custom_pad_layer_1080", "trainable": true, "dtype": "float32", "padding": [[0, 0], [3, 4], [0, 1]], "constant_values": 2}, "name": "custom_pad_layer_1080", "inbound_nodes": [[["batch_normalization_2397_insert_1", 0, 0, {}]]]}, {"class_name": "CustomCropLayer", "config": {"name": "custom_crop_layer_797", "trainable": true, "dtype": "float32", "cropping": [[0, 1], [0, 0], [0, 0]]}, "name": "custom_crop_layer_797", "inbound_nodes": [[["custom_pad_layer_1080", 0, 0, {}]]]}, {"class_name": "BatchNormalization", "config": {"name": "batch_normalization_2399_insert_1", "trainable": true, "dtype": "float32", "axis": [3], "momentum": 0.99, "epsilon": 1.001e-05, "center": true, "scale": true, "beta_initializer": {"class_name": "Zeros", "config": {}}, "gamma_initializer": {"class_name": "Ones", "config": {}}, "moving_mean_initializer": {"class_name": "Zeros", "config": {}}, "moving_variance_initializer": {"class_name": "Ones", "config": {}}, "beta_regularizer": null, "gamma_regularizer": null, "beta_constraint": null, "gamma_constraint": null}, "name": "batch_normalization_2399_insert_1", "inbound_nodes": [[["custom_crop_layer_797", 0, 0, {}]]]}, {"class_name": "CustomPadLayer", "config": {"name": "custom_pad_layer_1081", "trainable": true, "dtype": "float32", "padding": [[0, 1], [0, 0], [0, 0]], "constant_values": 2}, "name": "custom_pad_layer_1081", "inbound_nodes": [[["batch_normalization_2399_insert_1", 0, 0, {}]]]}, {"class_name": "AveragePooling2D", "config": {"name": "average_pooling2d_1305_insert_2", "trainable": true, "dtype": "float32", "pool_size": [2, 2], "padding": "valid", "strides": [2, 2], "data_format": "channels_last"}, "name": "average_pooling2d_1305_insert_2", "inbound_nodes": [[["conv2d_5491_insert", 0, 0, {}]]]}, {"class_name": "CustomCropLayer", "config": {"name": "custom_crop_layer_798", "trainable": true, "dtype": "float32", "cropping": [[0, 0], [4, 5], [1, 1]]}, "name": "custom_crop_layer_798", "inbound_nodes": [[["custom_pad_layer_1081", 0, 0, {}]]]}, {"class_name": "Conv2D", "config": {"name": "conv2d_5493_insert_2", "trainable": true, "dtype": "float32", "filters": 3, "kernel_size": [7, 7], "strides": [2, 2], "padding": "valid", "data_format": "channels_last", "dilation_rate": [1, 1], "groups": 1, "activation": "linear", "use_bias": false, "kernel_initializer": {"class_name": "VarianceScaling", "config": {"scale": 1.0, "mode": "fan_avg", "distribution": "uniform", "seed": null}}, "bias_initializer": {"class_name": "Zeros", "config": {}}, "kernel_regularizer": null, "bias_regularizer": null, "activity_regularizer": null, "kernel_constraint": null, "bias_constraint": null}, "name": "conv2d_5493_insert_2", "inbound_nodes": [[["zero_padding2d_465_insert", 0, 0, {}]]]}, {"class_name": "BatchNormalization", "config": {"name": "batch_normalization_2395_insert_2", "trainable": true, "dtype": "float32", "axis": [3], "momentum": 0.99, "epsilon": 1.001e-05, "center": true, "scale": true, "beta_initializer": {"class_name": "Zeros", "config": {}}, "gamma_initializer": {"class_name": "Ones", "config": {}}, "moving_mean_initializer": {"class_name": "Zeros", "config": {}}, "moving_variance_initializer": {"class_name": "Ones", "config": {}}, "beta_regularizer": null, "gamma_regularizer": null, "beta_constraint": null, "gamma_constraint": null}, "name": "batch_normalization_2395_insert_2", "inbound_nodes": [[["max_pooling2d_1907_insert_1", 0, 0, {}]]]}, {"class_name": "MaxPooling2D", "config": {"name": "max_pooling2d_1907_insert_2", "trainable": true, "dtype": "float32", "pool_size": [3, 3], "padding": "valid", "strides": [2, 2], "data_format": "channels_last"}, "name": "max_pooling2d_1907_insert_2", "inbound_nodes": [[["zero_padding2d_1", 0, 0, {}]]]}, {"class_name": "BatchNormalization", "config": {"name": "batch_normalization_2399_insert_2", "trainable": true, "dtype": "float32", "axis": [3], "momentum": 0.99, "epsilon": 1.001e-05, "center": true, "scale": true, "beta_initializer": {"class_name": "Zeros", "config": {}}, "gamma_initializer": {"class_name": "Ones", "config": {}}, "moving_mean_initializer": {"class_name": "Zeros", "config": {}}, "moving_variance_initializer": {"class_name": "Ones", "config": {}}, "beta_regularizer": null, "gamma_regularizer": null, "beta_constraint": null, "gamma_constraint": null}, "name": "batch_normalization_2399_insert_2", "inbound_nodes": [[["conv2d_5489_insert", 0, 0, {}]]]}, {"class_name": "BatchNormalization", "config": {"name": "batch_normalization_2397_insert_2_merge1", "trainable": true, "dtype": "float32", "axis": [3], "momentum": 0.99, "epsilon": 1.001e-05, "center": true, "scale": true, "beta_initializer": {"class_name": "Zeros", "config": {}}, "gamma_initializer": {"class_name": "Ones", "config": {}}, "moving_mean_initializer": {"class_name": "Zeros", "config": {}}, "moving_variance_initializer": {"class_name": "Ones", "config": {}}, "beta_regularizer": null, "gamma_regularizer": null, "beta_constraint": null, "gamma_constraint": null}, "name": "batch_normalization_2397_insert_2_merge1", "inbound_nodes": [[["average_pooling2d_1305_insert_2", 0, 0, {}]]]}, {"class_name": "AveragePooling2D", "config": {"name": "average_pooling2d_1307_insert", "trainable": true, "dtype": "float32", "pool_size": [2, 2], "padding": "valid", "strides": [2, 2], "data_format": "channels_last"}, "name": "average_pooling2d_1307_insert", "inbound_nodes": [[["custom_crop_layer_798", 0, 0, {}]]]}, {"class_name": "Cropping2D", "config": {"name": "cropping2d_110", "trainable": true, "dtype": "float32", "cropping": [[51, 51], [51, 51]], "data_format": "channels_last"}, "name": "cropping2d_110", "inbound_nodes": [[["conv2d_5493_insert_2", 0, 0, {}]]]}, {"class_name": "Cropping2D", "config": {"name": "cropping2d_111", "trainable": true, "dtype": "float32", "cropping": [[8, 8], [8, 8]], "data_format": "channels_last"}, "name": "cropping2d_111", "inbound_nodes": [[["batch_normalization_2395_insert_2", 0, 0, {}]]]}, {"class_name": "Cropping2D", "config": {"name": "cropping2d_112", "trainable": true, "dtype": "float32", "cropping": [[52, 52], [52, 52]], "data_format": "channels_last"}, "name": "cropping2d_112", "inbound_nodes": [[["max_pooling2d_1907_insert_2", 0, 0, {}]]]}, {"class_name": "Cropping2D", "config": {"name": "cropping2d_113", "trainable": true, "dtype": "float32", "cropping": [[22, 22], [22, 22]], "data_format": "channels_last"}, "name": "cropping2d_113", "inbound_nodes": [[["batch_normalization_2399_insert_2", 0, 0, {}]]]}, {"class_name": "Concatenate", "config": {"name": "concatenate_54_copy_ML", "trainable": true, "dtype": "float32", "axis": 3}, "name": "concatenate_54_copy_ML", "inbound_nodes": [[["batch_normalization_2397_insert_2_merge1", 0, 0, {}], ["average_pooling2d_1305_insert_2", 0, 0, {}]]]}], "input_layers": [["input_1021", 0, 0]], "output_layers": [["average_pooling2d_1307_insert", 0, 0], ["cropping2d_110", 0, 0], ["cropping2d_111", 0, 0], ["cropping2d_112", 0, 0], ["cropping2d_113", 0, 0], ["concatenate_54_copy_ML", 0, 0]]}, "keras_version": "2.7.0", "backend": "tensorflow"}