{"class_name": "Functional", "config": {"name": "model_8405", "layers": [{"class_name": "InputLayer", "config": {"batch_input_shape": [null, 299, 299, 3], "dtype": "float32", "sparse": false, "ragged": false, "name": "input_1059"}, "name": "input_1059", "inbound_nodes": []}, {"class_name": "Conv2D", "config": {"name": "conv2d_1", "trainable": true, "dtype": "float32", "filters": 32, "kernel_size": [3, 3], "strides": [2, 2], "padding": "valid", "data_format": "channels_last", "dilation_rate": [1, 1], "groups": 1, "activation": "linear", "use_bias": false, "kernel_initializer": {"class_name": "VarianceScaling", "config": {"scale": 1.0, "mode": "fan_avg", "distribution": "uniform", "seed": null}}, "bias_initializer": {"class_name": "Zeros", "config": {}}, "kernel_regularizer": null, "bias_regularizer": null, "activity_regularizer": null, "kernel_constraint": null, "bias_constraint": null}, "name": "conv2d_1", "inbound_nodes": [[["input_1059", 0, 0, {}]]]}, {"class_name": "Conv2D", "config": {"name": "conv2d_5707_insert", "trainable": true, "dtype": "float32", "filters": 9, "kernel_size": [1, 1], "strides": [1, 1], "padding": "same", "data_format": "channels_last", "dilation_rate": [1, 1], "groups": 1, "activation": "linear", "use_bias": false, "kernel_initializer": {"class_name": "VarianceScaling", "config": {"scale": 1.0, "mode": "fan_avg", "distribution": "uniform", "seed": null}}, "bias_initializer": {"class_name": "Zeros", "config": {}}, "kernel_regularizer": null, "bias_regularizer": null, "activity_regularizer": null, "kernel_constraint": null, "bias_constraint": null}, "name": "conv2d_5707_insert", "inbound_nodes": [[["conv2d_1", 0, 0, {}]]]}, {"class_name": "Conv2D", "config": {"name": "conv2d_5709_insert", "trainable": true, "dtype": "float32", "filters": 5, "kernel_size": [3, 1], "strides": [1, 1], "padding": "same", "data_format": "channels_last", "dilation_rate": [1, 1], "groups": 1, "activation": "linear", "use_bias": false, "kernel_initializer": {"class_name": "VarianceScaling", "config": {"scale": 1.0, "mode": "fan_avg", "distribution": "uniform", "seed": null}}, "bias_initializer": {"class_name": "Zeros", "config": {}}, "kernel_regularizer": null, "bias_regularizer": null, "activity_regularizer": null, "kernel_constraint": null, "bias_constraint": null}, "name": "conv2d_5709_insert", "inbound_nodes": [[["conv2d_5707_insert", 0, 0, {}]]]}, {"class_name": "AveragePooling2D", "config": {"name": "average_pooling2d_1357_insert", "trainable": true, "dtype": "float32", "pool_size": [3, 3], "padding": "same", "strides": [1, 1], "data_format": "channels_last"}, "name": "average_pooling2d_1357_insert", "inbound_nodes": [[["conv2d_5709_insert", 0, 0, {}]]]}, {"class_name": "Conv2D", "config": {"name": "conv2d_5711_insert", "trainable": true, "dtype": "float32", "filters": 5, "kernel_size": [3, 3], "strides": [1, 1], "padding": "valid", "data_format": "channels_last", "dilation_rate": [1, 1], "groups": 1, "activation": "linear", "use_bias": false, "kernel_initializer": {"class_name": "VarianceScaling", "config": {"scale": 1.0, "mode": "fan_avg", "distribution": "uniform", "seed": null}}, "bias_initializer": {"class_name": "Zeros", "config": {}}, "kernel_regularizer": null, "bias_regularizer": null, "activity_regularizer": null, "kernel_constraint": null, "bias_constraint": null}, "name": "conv2d_5711_insert", "inbound_nodes": [[["average_pooling2d_1357_insert", 0, 0, {}]]]}, {"class_name": "Conv2D", "config": {"name": "conv2d_5713_insert", "trainable": true, "dtype": "float32", "filters": 3, "kernel_size": [1, 3], "strides": [1, 1], "padding": "same", "data_format": "channels_last", "dilation_rate": [1, 1], "groups": 1, "activation": "linear", "use_bias": false, "kernel_initializer": {"class_name": "VarianceScaling", "config": {"scale": 1.0, "mode": "fan_avg", "distribution": "uniform", "seed": null}}, "bias_initializer": {"class_name": "Zeros", "config": {}}, "kernel_regularizer": null, "bias_regularizer": null, "activity_regularizer": null, "kernel_constraint": null, "bias_constraint": null}, "name": "conv2d_5713_insert", "inbound_nodes": [[["conv2d_5711_insert", 0, 0, {}]]]}, {"class_name": "MaxPooling2D", "config": {"name": "max_pooling2d_1973_insert", "trainable": true, "dtype": "float32", "pool_size": [3, 3], "padding": "valid", "strides": [2, 2], "data_format": "channels_last"}, "name": "max_pooling2d_1973_insert", "inbound_nodes": [[["conv2d_5713_insert", 0, 0, {}]]]}, {"class_name": "Conv2D", "config": {"name": "conv2d_5715_insert", "trainable": true, "dtype": "float32", "filters": 5, "kernel_size": [1, 1], "strides": [1, 1], "padding": "valid", "data_format": "channels_last", "dilation_rate": [1, 1], "groups": 1, "activation": "linear", "use_bias": false, "kernel_initializer": {"class_name": "VarianceScaling", "config": {"scale": 1.0, "mode": "fan_avg", "distribution": "uniform", "seed": null}}, "bias_initializer": {"class_name": "Zeros", "config": {}}, "kernel_regularizer": null, "bias_regularizer": null, "activity_regularizer": null, "kernel_constraint": null, "bias_constraint": null}, "name": "conv2d_5715_insert", "inbound_nodes": [[["max_pooling2d_1973_insert", 0, 0, {}]]]}, {"class_name": "BatchNormalization", "config": {"name": "batch_normalization_2475_insert", "trainable": true, "dtype": "float32", "axis": [3], "momentum": 0.99, "epsilon": 0.001, "center": true, "scale": false, "beta_initializer": {"class_name": "Zeros", "config": {}}, "gamma_initializer": {"class_name": "Ones", "config": {}}, "moving_mean_initializer": {"class_name": "Zeros", "config": {}}, "moving_variance_initializer": {"class_name": "Ones", "config": {}}, "beta_regularizer": null, "gamma_regularizer": null, "beta_constraint": null, "gamma_constraint": null}, "name": "batch_normalization_2475_insert", "inbound_nodes": [[["conv2d_5715_insert", 0, 0, {}]]]}, {"class_name": "GlobalAveragePooling2D", "config": {"name": "global_average_pooling2d_1779_insert", "trainable": true, "dtype": "float32", "data_format": "channels_last", "keepdims": false}, "name": "global_average_pooling2d_1779_insert", "inbound_nodes": [[["batch_normalization_2475_insert", 0, 0, {}]]]}, {"class_name": "CustomExpandLayer", "config": {"name": "custom_expand_layer_1789_insert", "trainable": true, "dtype": "float32", "axis": 1}, "name": "custom_expand_layer_1789_insert", "inbound_nodes": [[["global_average_pooling2d_1779_insert", 0, 0, {}]]]}, {"class_name": "CustomExpandLayer", "config": {"name": "custom_expand_layer_1790_insert", "trainable": true, "dtype": "float32", "axis": 1}, "name": "custom_expand_layer_1790_insert", "inbound_nodes": [[["custom_expand_layer_1789_insert", 0, 0, {}]]]}, {"class_name": "Conv2D", "config": {"name": "conv2d_5717_insert", "trainable": true, "dtype": "float32", "filters": 5, "kernel_size": [5, 5], "strides": [1, 1], "padding": "same", "data_format": "channels_last", "dilation_rate": [1, 1], "groups": 1, "activation": "linear", "use_bias": false, "kernel_initializer": {"class_name": "VarianceScaling", "config": {"scale": 1.0, "mode": "fan_avg", "distribution": "uniform", "seed": null}}, "bias_initializer": {"class_name": "Zeros", "config": {}}, "kernel_regularizer": null, "bias_regularizer": null, "activity_regularizer": null, "kernel_constraint": null, "bias_constraint": null}, "name": "conv2d_5717_insert", "inbound_nodes": [[["custom_expand_layer_1790_insert", 0, 0, {}]]]}, {"class_name": "Conv2D", "config": {"name": "conv2d_5719_insert", "trainable": true, "dtype": "float32", "filters": 3, "kernel_size": [1, 7], "strides": [1, 1], "padding": "same", "data_format": "channels_last", "dilation_rate": [1, 1], "groups": 1, "activation": "linear", "use_bias": false, "kernel_initializer": {"class_name": "VarianceScaling", "config": {"scale": 1.0, "mode": "fan_avg", "distribution": "uniform", "seed": null}}, "bias_initializer": {"class_name": "Zeros", "config": {}}, "kernel_regularizer": null, "bias_regularizer": null, "activity_regularizer": null, "kernel_constraint": null, "bias_constraint": null}, "name": "conv2d_5719_insert", "inbound_nodes": [[["conv2d_5717_insert", 0, 0, {}]]]}, {"class_name": "Conv2D", "config": {"name": "conv2d_5721_insert", "trainable": true, "dtype": "float32", "filters": 2, "kernel_size": [7, 1], "strides": [1, 1], "padding": "same", "data_format": "channels_last", "dilation_rate": [1, 1], "groups": 1, "activation": "linear", "use_bias": false, "kernel_initializer": {"class_name": "VarianceScaling", "config": {"scale": 1.0, "mode": "fan_avg", "distribution": "uniform", "seed": null}}, "bias_initializer": {"class_name": "Zeros", "config": {}}, "kernel_regularizer": null, "bias_regularizer": null, "activity_regularizer": null, "kernel_constraint": null, "bias_constraint": null}, "name": "conv2d_5721_insert", "inbound_nodes": [[["conv2d_5719_insert", 0, 0, {}]]]}, {"class_name": "Conv2D", "config": {"name": "conv2d_5723_insert", "trainable": true, "dtype": "float32", "filters": 3, "kernel_size": [3, 3], "strides": [1, 1], "padding": "same", "data_format": "channels_last", "dilation_rate": [1, 1], "groups": 1, "activation": "linear", "use_bias": false, "kernel_initializer": {"class_name": "VarianceScaling", "config": {"scale": 1.0, "mode": "fan_avg", "distribution": "uniform", "seed": null}}, "bias_initializer": {"class_name": "Zeros", "config": {}}, "kernel_regularizer": null, "bias_regularizer": null, "activity_regularizer": null, "kernel_constraint": null, "bias_constraint": null}, "name": "conv2d_5723_insert", "inbound_nodes": [[["conv2d_5721_insert", 0, 0, {}]]]}, {"class_name": "CustomPadLayer", "config": {"name": "custom_pad_layer_1088", "trainable": true, "dtype": "float32", "padding": [[6, 6], [3, 3], [4, 4]], "constant_values": 2}, "name": "custom_pad_layer_1088", "inbound_nodes": [[["conv2d_5723_insert", 0, 0, {}]]]}, {"class_name": "BatchNormalization", "config": {"name": "batch_normalization_2477_insert", "trainable": true, "dtype": "float32", "axis": [3], "momentum": 0.99, "epsilon": 0.001, "center": true, "scale": false, "beta_initializer": {"class_name": "Zeros", "config": {}}, "gamma_initializer": {"class_name": "Ones", "config": {}}, "moving_mean_initializer": {"class_name": "Zeros", "config": {}}, "moving_variance_initializer": {"class_name": "Ones", "config": {}}, "beta_regularizer": null, "gamma_regularizer": null, "beta_constraint": null, "gamma_constraint": null}, "name": "batch_normalization_2477_insert", "inbound_nodes": [[["custom_pad_layer_1088", 0, 0, {}]]]}, {"class_name": "CustomPadLayer", "config": {"name": "custom_pad_layer_1089", "trainable": true, "dtype": "float32", "padding": [[2, 2], [0, 0], [0, 0]], "constant_values": 2}, "name": "custom_pad_layer_1089", "inbound_nodes": [[["batch_normalization_2477_insert", 0, 0, {}]]]}, {"class_name": "CustomCropLayer", "config": {"name": "custom_crop_layer_803", "trainable": true, "dtype": "float32", "cropping": [[0, 0], [0, 1], [3, 3]]}, "name": "custom_crop_layer_803", "inbound_nodes": [[["custom_pad_layer_1089", 0, 0, {}]]]}, {"class_name": "BatchNormalization", "config": {"name": "batch_normalization_2479_insert", "trainable": true, "dtype": "float32", "axis": [3], "momentum": 0.99, "epsilon": 0.001, "center": true, "scale": false, "beta_initializer": {"class_name": "Zeros", "config": {}}, "gamma_initializer": {"class_name": "Ones", "config": {}}, "moving_mean_initializer": {"class_name": "Zeros", "config": {}}, "moving_variance_initializer": {"class_name": "Ones", "config": {}}, "beta_regularizer": null, "gamma_regularizer": null, "beta_constraint": null, "gamma_constraint": null}, "name": "batch_normalization_2479_insert", "inbound_nodes": [[["custom_crop_layer_803", 0, 0, {}]]]}, {"class_name": "CustomPadLayer", "config": {"name": "custom_pad_layer_1090", "trainable": true, "dtype": "float32", "padding": [[0, 0], [2, 2], [3, 3]], "constant_values": 2}, "name": "custom_pad_layer_1090", "inbound_nodes": [[["batch_normalization_2479_insert", 0, 0, {}]]]}, {"class_name": "CustomCropLayer", "config": {"name": "custom_crop_layer_804", "trainable": true, "dtype": "float32", "cropping": [[3, 3], [0, 0], [0, 0]]}, "name": "custom_crop_layer_804", "inbound_nodes": [[["custom_pad_layer_1090", 0, 0, {}]]]}, {"class_name": "BatchNormalization", "config": {"name": "batch_normalization_2481_insert", "trainable": true, "dtype": "float32", "axis": [3], "momentum": 0.99, "epsilon": 0.001, "center": true, "scale": false, "beta_initializer": {"class_name": "Zeros", "config": {}}, "gamma_initializer": {"class_name": "Ones", "config": {}}, "moving_mean_initializer": {"class_name": "Zeros", "config": {}}, "moving_variance_initializer": {"class_name": "Ones", "config": {}}, "beta_regularizer": null, "gamma_regularizer": null, "beta_constraint": null, "gamma_constraint": null}, "name": "batch_normalization_2481_insert", "inbound_nodes": [[["custom_crop_layer_804", 0, 0, {}]]]}, {"class_name": "CustomPadLayer", "config": {"name": "custom_pad_layer_1091", "trainable": true, "dtype": "float32", "padding": [[2, 3], [3, 4], [3, 4]], "constant_values": 2}, "name": "custom_pad_layer_1091", "inbound_nodes": [[["batch_normalization_2481_insert", 0, 0, {}]]]}, {"class_name": "AveragePooling2D", "config": {"name": "average_pooling2d_1359_insert", "trainable": true, "dtype": "float32", "pool_size": [3, 3], "padding": "same", "strides": [1, 1], "data_format": "channels_last"}, "name": "average_pooling2d_1359_insert", "inbound_nodes": [[["custom_pad_layer_1091", 0, 0, {}]]]}, {"class_name": "CustomCropLayer", "config": {"name": "custom_crop_layer_805", "trainable": true, "dtype": "float32", "cropping": [[3, 3], [3, 4], [1, 2]]}, "name": "custom_crop_layer_805", "inbound_nodes": [[["average_pooling2d_1359_insert", 0, 0, {}]]]}, {"class_name": "MaxPooling2D", "config": {"name": "max_pooling2d_1975_insert", "trainable": true, "dtype": "float32", "pool_size": [3, 3], "padding": "valid", "strides": [2, 2], "data_format": "channels_last"}, "name": "max_pooling2d_1975_insert", "inbound_nodes": [[["custom_crop_layer_805", 0, 0, {}]]]}, {"class_name": "CustomPadLayer", "config": {"name": "custom_pad_layer_1092", "trainable": true, "dtype": "float32", "padding": [[1, 1], [0, 1], [2, 2]], "constant_values": 2}, "name": "custom_pad_layer_1092", "inbound_nodes": [[["max_pooling2d_1975_insert", 0, 0, {}]]]}, {"class_name": "AveragePooling2D", "config": {"name": "average_pooling2d_1361_insert", "trainable": true, "dtype": "float32", "pool_size": [3, 3], "padding": "same", "strides": [1, 1], "data_format": "channels_last"}, "name": "average_pooling2d_1361_insert", "inbound_nodes": [[["custom_pad_layer_1092", 0, 0, {}]]]}, {"class_name": "CustomPadLayer", "config": {"name": "custom_pad_layer_1093", "trainable": true, "dtype": "float32", "padding": [[5, 6], [6, 6], [0, 0]], "constant_values": 2}, "name": "custom_pad_layer_1093", "inbound_nodes": [[["average_pooling2d_1361_insert", 0, 0, {}]]]}, {"class_name": "CustomCropLayer", "config": {"name": "custom_crop_layer_806", "trainable": true, "dtype": "float32", "cropping": [[0, 0], [0, 0], [6, 7]]}, "name": "custom_crop_layer_806", "inbound_nodes": [[["custom_pad_layer_1093", 0, 0, {}]]]}, {"class_name": "AveragePooling2D", "config": {"name": "average_pooling2d_1363_insert_1_merge1", "trainable": true, "dtype": "float32", "pool_size": [3, 3], "padding": "same", "strides": [1, 1], "data_format": "channels_last"}, "name": "average_pooling2d_1363_insert_1_merge1", "inbound_nodes": [[["custom_crop_layer_806", 0, 0, {}]]]}, {"class_name": "Concatenate", "config": {"name": "concatenate_57_copy_ML", "trainable": true, "dtype": "float32", "axis": 3}, "name": "concatenate_57_copy_ML", "inbound_nodes": [[["average_pooling2d_1363_insert_1_merge1", 0, 0, {}], ["custom_crop_layer_806", 0, 0, {}]]]}, {"class_name": "CustomPadLayer", "config": {"name": "custom_pad_layer_1094", "trainable": true, "dtype": "float32", "padding": [[0, 0], [0, 0], [6, 6]], "constant_values": 2}, "name": "custom_pad_layer_1094", "inbound_nodes": [[["concatenate_57_copy_ML", 0, 0, {}]]]}, {"class_name": "CustomCropLayer", "config": {"name": "custom_crop_layer_807", "trainable": true, "dtype": "float32", "cropping": [[1, 2], [0, 1], [0, 0]]}, "name": "custom_crop_layer_807", "inbound_nodes": [[["custom_pad_layer_1094", 0, 0, {}]]]}, {"class_name": "MaxPooling2D", "config": {"name": "max_pooling2d_1977_insert", "trainable": true, "dtype": "float32", "pool_size": [3, 3], "padding": "valid", "strides": [2, 2], "data_format": "channels_last"}, "name": "max_pooling2d_1977_insert", "inbound_nodes": [[["custom_crop_layer_807", 0, 0, {}]]]}, {"class_name": "CustomPadLayer", "config": {"name": "custom_pad_layer_1095", "trainable": true, "dtype": "float32", "padding": [[2, 2], [0, 0], [0, 0]], "constant_values": 2}, "name": "custom_pad_layer_1095", "inbound_nodes": [[["max_pooling2d_1977_insert", 0, 0, {}]]]}, {"class_name": "CustomCropLayer", "config": {"name": "custom_crop_layer_808", "trainable": true, "dtype": "float32", "cropping": [[0, 0], [0, 0], [1, 1]]}, "name": "custom_crop_layer_808", "inbound_nodes": [[["custom_pad_layer_1095", 0, 0, {}]]]}, {"class_name": "AveragePooling2D", "config": {"name": "average_pooling2d_1365_insert", "trainable": true, "dtype": "float32", "pool_size": [3, 3], "padding": "same", "strides": [1, 1], "data_format": "channels_last"}, "name": "average_pooling2d_1365_insert", "inbound_nodes": [[["custom_crop_layer_808", 0, 0, {}]]]}, {"class_name": "CustomPadLayer", "config": {"name": "custom_pad_layer_1096", "trainable": true, "dtype": "float32", "padding": [[1, 1], [0, 1], [0, 0]], "constant_values": 2}, "name": "custom_pad_layer_1096", "inbound_nodes": [[["average_pooling2d_1365_insert", 0, 0, {}]]]}, {"class_name": "CustomCropLayer", "config": {"name": "custom_crop_layer_809", "trainable": true, "dtype": "float32", "cropping": [[0, 0], [0, 0], [3, 3]]}, "name": "custom_crop_layer_809", "inbound_nodes": [[["custom_pad_layer_1096", 0, 0, {}]]]}, {"class_name": "BatchNormalization", "config": {"name": "batch_normalization_2483_insert", "trainable": true, "dtype": "float32", "axis": [3], "momentum": 0.99, "epsilon": 0.001, "center": true, "scale": false, "beta_initializer": {"class_name": "Zeros", "config": {}}, "gamma_initializer": {"class_name": "Ones", "config": {}}, "moving_mean_initializer": {"class_name": "Zeros", "config": {}}, "moving_variance_initializer": {"class_name": "Ones", "config": {}}, "beta_regularizer": null, "gamma_regularizer": null, "beta_constraint": null, "gamma_constraint": null}, "name": "batch_normalization_2483_insert", "inbound_nodes": [[["custom_crop_layer_809", 0, 0, {}]]]}, {"class_name": "CustomPadLayer", "config": {"name": "custom_pad_layer_1097", "trainable": true, "dtype": "float32", "padding": [[1, 1], [0, 1], [0, 1]], "constant_values": 2}, "name": "custom_pad_layer_1097", "inbound_nodes": [[["batch_normalization_2483_insert", 0, 0, {}]]]}, {"class_name": "MaxPooling2D", "config": {"name": "max_pooling2d_1979_insert", "trainable": true, "dtype": "float32", "pool_size": [3, 3], "padding": "valid", "strides": [2, 2], "data_format": "channels_last"}, "name": "max_pooling2d_1979_insert", "inbound_nodes": [[["custom_pad_layer_1097", 0, 0, {}]]]}, {"class_name": "AveragePooling2D", "config": {"name": "average_pooling2d_1363_insert_2", "trainable": true, "dtype": "float32", "pool_size": [3, 3], "padding": "same", "strides": [1, 1], "data_format": "channels_last"}, "name": "average_pooling2d_1363_insert_2", "inbound_nodes": [[["max_pooling2d_1975_insert", 0, 0, {}]]]}], "input_layers": [["input_1059", 0, 0]], "output_layers": [["max_pooling2d_1979_insert", 0, 0], ["average_pooling2d_1363_insert_2", 0, 0]]}, "keras_version": "2.7.0", "backend": "tensorflow"}