{"class_name": "Functional", "config": {"name": "model_8378", "layers": [{"class_name": "InputLayer", "config": {"batch_input_shape": [null, 299, 299, 3], "dtype": "float32", "sparse": false, "ragged": false, "name": "input_1058"}, "name": "input_1058", "inbound_nodes": []}, {"class_name": "Conv2D", "config": {"name": "conv2d_1", "trainable": true, "dtype": "float32", "filters": 32, "kernel_size": [3, 3], "strides": [2, 2], "padding": "valid", "data_format": "channels_last", "dilation_rate": [1, 1], "groups": 1, "activation": "linear", "use_bias": false, "kernel_initializer": {"class_name": "VarianceScaling", "config": {"scale": 1.0, "mode": "fan_avg", "distribution": "uniform", "seed": null}}, "bias_initializer": {"class_name": "Zeros", "config": {}}, "kernel_regularizer": null, "bias_regularizer": null, "activity_regularizer": null, "kernel_constraint": null, "bias_constraint": null}, "name": "conv2d_1", "inbound_nodes": [[["input_1058", 0, 0, {}]]]}, {"class_name": "AveragePooling2D", "config": {"name": "average_pooling2d_1355_insert_1", "trainable": true, "dtype": "float32", "pool_size": [3, 3], "padding": "same", "strides": [1, 1], "data_format": "channels_last"}, "name": "average_pooling2d_1355_insert_1", "inbound_nodes": [[["conv2d_1", 0, 0, {}]]]}, {"class_name": "MaxPooling2D", "config": {"name": "max_pooling2d_1965_insert", "trainable": true, "dtype": "float32", "pool_size": [3, 3], "padding": "valid", "strides": [2, 2], "data_format": "channels_last"}, "name": "max_pooling2d_1965_insert", "inbound_nodes": [[["average_pooling2d_1355_insert_1", 0, 0, {}]]]}, {"class_name": "BatchNormalization", "config": {"name": "batch_normalization_2465_insert", "trainable": true, "dtype": "float32", "axis": [3], "momentum": 0.99, "epsilon": 0.001, "center": true, "scale": false, "beta_initializer": {"class_name": "Zeros", "config": {}}, "gamma_initializer": {"class_name": "Ones", "config": {}}, "moving_mean_initializer": {"class_name": "Zeros", "config": {}}, "moving_variance_initializer": {"class_name": "Ones", "config": {}}, "beta_regularizer": null, "gamma_regularizer": null, "beta_constraint": null, "gamma_constraint": null}, "name": "batch_normalization_2465_insert", "inbound_nodes": [[["max_pooling2d_1965_insert", 0, 0, {}]]]}, {"class_name": "Conv2D", "config": {"name": "conv2d_5687_insert", "trainable": true, "dtype": "float32", "filters": 7, "kernel_size": [3, 3], "strides": [1, 1], "padding": "valid", "data_format": "channels_last", "dilation_rate": [1, 1], "groups": 1, "activation": "linear", "use_bias": false, "kernel_initializer": {"class_name": "VarianceScaling", "config": {"scale": 1.0, "mode": "fan_avg", "distribution": "uniform", "seed": null}}, "bias_initializer": {"class_name": "Zeros", "config": {}}, "kernel_regularizer": null, "bias_regularizer": null, "activity_regularizer": null, "kernel_constraint": null, "bias_constraint": null}, "name": "conv2d_5687_insert", "inbound_nodes": [[["batch_normalization_2465_insert", 0, 0, {}]]]}, {"class_name": "GlobalAveragePooling2D", "config": {"name": "global_average_pooling2d_1777_insert", "trainable": true, "dtype": "float32", "data_format": "channels_last", "keepdims": false}, "name": "global_average_pooling2d_1777_insert", "inbound_nodes": [[["conv2d_5687_insert", 0, 0, {}]]]}, {"class_name": "CustomExpandLayer", "config": {"name": "custom_expand_layer_1787_insert", "trainable": true, "dtype": "float32", "axis": 1}, "name": "custom_expand_layer_1787_insert", "inbound_nodes": [[["global_average_pooling2d_1777_insert", 0, 0, {}]]]}, {"class_name": "CustomExpandLayer", "config": {"name": "custom_expand_layer_1788_insert", "trainable": true, "dtype": "float32", "axis": 1}, "name": "custom_expand_layer_1788_insert", "inbound_nodes": [[["custom_expand_layer_1787_insert", 0, 0, {}]]]}, {"class_name": "Conv2D", "config": {"name": "conv2d_5689_insert", "trainable": true, "dtype": "float32", "filters": 8, "kernel_size": [3, 3], "strides": [1, 1], "padding": "same", "data_format": "channels_last", "dilation_rate": [1, 1], "groups": 1, "activation": "linear", "use_bias": false, "kernel_initializer": {"class_name": "VarianceScaling", "config": {"scale": 1.0, "mode": "fan_avg", "distribution": "uniform", "seed": null}}, "bias_initializer": {"class_name": "Zeros", "config": {}}, "kernel_regularizer": null, "bias_regularizer": null, "activity_regularizer": null, "kernel_constraint": null, "bias_constraint": null}, "name": "conv2d_5689_insert", "inbound_nodes": [[["custom_expand_layer_1788_insert", 0, 0, {}]]]}, {"class_name": "Conv2D", "config": {"name": "conv2d_5691_insert", "trainable": true, "dtype": "float32", "filters": 1, "kernel_size": [1, 1], "strides": [1, 1], "padding": "same", "data_format": "channels_last", "dilation_rate": [1, 1], "groups": 1, "activation": "linear", "use_bias": true, "kernel_initializer": {"class_name": "VarianceScaling", "config": {"scale": 1.0, "mode": "fan_avg", "distribution": "uniform", "seed": null}}, "bias_initializer": {"class_name": "Zeros", "config": {}}, "kernel_regularizer": null, "bias_regularizer": null, "activity_regularizer": null, "kernel_constraint": null, "bias_constraint": null}, "name": "conv2d_5691_insert", "inbound_nodes": [[["conv2d_5689_insert", 0, 0, {}]]]}, {"class_name": "Conv2D", "config": {"name": "conv2d_5693_insert", "trainable": true, "dtype": "float32", "filters": 3, "kernel_size": [5, 5], "strides": [1, 1], "padding": "same", "data_format": "channels_last", "dilation_rate": [1, 1], "groups": 1, "activation": "linear", "use_bias": false, "kernel_initializer": {"class_name": "VarianceScaling", "config": {"scale": 1.0, "mode": "fan_avg", "distribution": "uniform", "seed": null}}, "bias_initializer": {"class_name": "Zeros", "config": {}}, "kernel_regularizer": null, "bias_regularizer": null, "activity_regularizer": null, "kernel_constraint": null, "bias_constraint": null}, "name": "conv2d_5693_insert", "inbound_nodes": [[["conv2d_5691_insert", 0, 0, {}]]]}, {"class_name": "Conv2D", "config": {"name": "conv2d_5695_insert", "trainable": true, "dtype": "float32", "filters": 2, "kernel_size": [1, 7], "strides": [1, 1], "padding": "same", "data_format": "channels_last", "dilation_rate": [1, 1], "groups": 1, "activation": "linear", "use_bias": false, "kernel_initializer": {"class_name": "VarianceScaling", "config": {"scale": 1.0, "mode": "fan_avg", "distribution": "uniform", "seed": null}}, "bias_initializer": {"class_name": "Zeros", "config": {}}, "kernel_regularizer": null, "bias_regularizer": null, "activity_regularizer": null, "kernel_constraint": null, "bias_constraint": null}, "name": "conv2d_5695_insert", "inbound_nodes": [[["conv2d_5693_insert", 0, 0, {}]]]}, {"class_name": "Conv2D", "config": {"name": "conv2d_5697_insert", "trainable": true, "dtype": "float32", "filters": 1, "kernel_size": [1, 3], "strides": [1, 1], "padding": "same", "data_format": "channels_last", "dilation_rate": [1, 1], "groups": 1, "activation": "linear", "use_bias": false, "kernel_initializer": {"class_name": "VarianceScaling", "config": {"scale": 1.0, "mode": "fan_avg", "distribution": "uniform", "seed": null}}, "bias_initializer": {"class_name": "Zeros", "config": {}}, "kernel_regularizer": null, "bias_regularizer": null, "activity_regularizer": null, "kernel_constraint": null, "bias_constraint": null}, "name": "conv2d_5697_insert", "inbound_nodes": [[["conv2d_5695_insert", 0, 0, {}]]]}, {"class_name": "Conv2D", "config": {"name": "conv2d_5699_insert", "trainable": true, "dtype": "float32", "filters": 1, "kernel_size": [1, 1], "strides": [1, 1], "padding": "same", "data_format": "channels_last", "dilation_rate": [1, 1], "groups": 1, "activation": "linear", "use_bias": false, "kernel_initializer": {"class_name": "VarianceScaling", "config": {"scale": 1.0, "mode": "fan_avg", "distribution": "uniform", "seed": null}}, "bias_initializer": {"class_name": "Zeros", "config": {}}, "kernel_regularizer": null, "bias_regularizer": null, "activity_regularizer": null, "kernel_constraint": null, "bias_constraint": null}, "name": "conv2d_5699_insert", "inbound_nodes": [[["conv2d_5697_insert", 0, 0, {}]]]}, {"class_name": "Conv2D", "config": {"name": "conv2d_5701_insert_1_1", "trainable": true, "dtype": "float32", "filters": 5, "kernel_size": [3, 1], "strides": [1, 1], "padding": "same", "data_format": "channels_last", "dilation_rate": [1, 1], "groups": 1, "activation": "linear", "use_bias": false, "kernel_initializer": {"class_name": "VarianceScaling", "config": {"scale": 1.0, "mode": "fan_avg", "distribution": "uniform", "seed": null}}, "bias_initializer": {"class_name": "Zeros", "config": {}}, "kernel_regularizer": null, "bias_regularizer": null, "activity_regularizer": null, "kernel_constraint": null, "bias_constraint": null}, "name": "conv2d_5701_insert_1_1", "inbound_nodes": [[["conv2d_5699_insert", 0, 0, {}]]]}, {"class_name": "Conv2D", "config": {"name": "conv2d_5703_insert", "trainable": true, "dtype": "float32", "filters": 8, "kernel_size": [1, 1], "strides": [1, 1], "padding": "valid", "data_format": "channels_last", "dilation_rate": [1, 1], "groups": 1, "activation": "linear", "use_bias": false, "kernel_initializer": {"class_name": "VarianceScaling", "config": {"scale": 1.0, "mode": "fan_avg", "distribution": "uniform", "seed": null}}, "bias_initializer": {"class_name": "Zeros", "config": {}}, "kernel_regularizer": null, "bias_regularizer": null, "activity_regularizer": null, "kernel_constraint": null, "bias_constraint": null}, "name": "conv2d_5703_insert", "inbound_nodes": [[["conv2d_5701_insert_1_1", 0, 0, {}]]]}, {"class_name": "Conv2D", "config": {"name": "conv2d_5705_insert", "trainable": true, "dtype": "float32", "filters": 4, "kernel_size": [7, 1], "strides": [1, 1], "padding": "same", "data_format": "channels_last", "dilation_rate": [1, 1], "groups": 1, "activation": "linear", "use_bias": false, "kernel_initializer": {"class_name": "VarianceScaling", "config": {"scale": 1.0, "mode": "fan_avg", "distribution": "uniform", "seed": null}}, "bias_initializer": {"class_name": "Zeros", "config": {}}, "kernel_regularizer": null, "bias_regularizer": null, "activity_regularizer": null, "kernel_constraint": null, "bias_constraint": null}, "name": "conv2d_5705_insert", "inbound_nodes": [[["conv2d_5703_insert", 0, 0, {}]]]}, {"class_name": "CustomPadLayer", "config": {"name": "custom_pad_layer_1082", "trainable": true, "dtype": "float32", "padding": [[7, 8], [5, 5], [6, 7]], "constant_values": 2}, "name": "custom_pad_layer_1082", "inbound_nodes": [[["conv2d_5705_insert", 0, 0, {}]]]}, {"class_name": "BatchNormalization", "config": {"name": "batch_normalization_2467_insert", "trainable": true, "dtype": "float32", "axis": [3], "momentum": 0.99, "epsilon": 0.001, "center": true, "scale": false, "beta_initializer": {"class_name": "Zeros", "config": {}}, "gamma_initializer": {"class_name": "Ones", "config": {}}, "moving_mean_initializer": {"class_name": "Zeros", "config": {}}, "moving_variance_initializer": {"class_name": "Ones", "config": {}}, "beta_regularizer": null, "gamma_regularizer": null, "beta_constraint": null, "gamma_constraint": null}, "name": "batch_normalization_2467_insert", "inbound_nodes": [[["custom_pad_layer_1082", 0, 0, {}]]]}, {"class_name": "CustomPadLayer", "config": {"name": "custom_pad_layer_1083", "trainable": true, "dtype": "float32", "padding": [[1, 2], [2, 2], [0, 0]], "constant_values": 2}, "name": "custom_pad_layer_1083", "inbound_nodes": [[["batch_normalization_2467_insert", 0, 0, {}]]]}, {"class_name": "CustomCropLayer", "config": {"name": "custom_crop_layer_799", "trainable": true, "dtype": "float32", "cropping": [[0, 0], [0, 0], [2, 3]]}, "name": "custom_crop_layer_799", "inbound_nodes": [[["custom_pad_layer_1083", 0, 0, {}]]]}, {"class_name": "BatchNormalization", "config": {"name": "batch_normalization_2469_insert", "trainable": true, "dtype": "float32", "axis": [3], "momentum": 0.99, "epsilon": 0.001, "center": true, "scale": false, "beta_initializer": {"class_name": "Zeros", "config": {}}, "gamma_initializer": {"class_name": "Ones", "config": {}}, "moving_mean_initializer": {"class_name": "Zeros", "config": {}}, "moving_variance_initializer": {"class_name": "Ones", "config": {}}, "beta_regularizer": null, "gamma_regularizer": null, "beta_constraint": null, "gamma_constraint": null}, "name": "batch_normalization_2469_insert", "inbound_nodes": [[["custom_crop_layer_799", 0, 0, {}]]]}, {"class_name": "CustomPadLayer", "config": {"name": "custom_pad_layer_1084", "trainable": true, "dtype": "float32", "padding": [[0, 0], [1, 2], [2, 3]], "constant_values": 2}, "name": "custom_pad_layer_1084", "inbound_nodes": [[["batch_normalization_2469_insert", 0, 0, {}]]]}, {"class_name": "CustomCropLayer", "config": {"name": "custom_crop_layer_800", "trainable": true, "dtype": "float32", "cropping": [[1, 2], [0, 0], [0, 0]]}, "name": "custom_crop_layer_800", "inbound_nodes": [[["custom_pad_layer_1084", 0, 0, {}]]]}, {"class_name": "MaxPooling2D", "config": {"name": "max_pooling2d_1967_insert", "trainable": true, "dtype": "float32", "pool_size": [3, 3], "padding": "valid", "strides": [2, 2], "data_format": "channels_last"}, "name": "max_pooling2d_1967_insert", "inbound_nodes": [[["custom_crop_layer_800", 0, 0, {}]]]}, {"class_name": "CustomCropLayer", "config": {"name": "custom_crop_layer_801", "trainable": true, "dtype": "float32", "cropping": [[0, 0], [1, 1], [3, 3]]}, "name": "custom_crop_layer_801", "inbound_nodes": [[["max_pooling2d_1967_insert", 0, 0, {}]]]}, {"class_name": "MaxPooling2D", "config": {"name": "max_pooling2d_1969_insert", "trainable": true, "dtype": "float32", "pool_size": [3, 3], "padding": "valid", "strides": [2, 2], "data_format": "channels_last"}, "name": "max_pooling2d_1969_insert", "inbound_nodes": [[["custom_crop_layer_801", 0, 0, {}]]]}, {"class_name": "CustomPadLayer", "config": {"name": "custom_pad_layer_1085", "trainable": true, "dtype": "float32", "padding": [[5, 5], [6, 7], [0, 0]], "constant_values": 2}, "name": "custom_pad_layer_1085", "inbound_nodes": [[["max_pooling2d_1969_insert", 0, 0, {}]]]}, {"class_name": "CustomCropLayer", "config": {"name": "custom_crop_layer_802", "trainable": true, "dtype": "float32", "cropping": [[0, 0], [0, 0], [1, 2]]}, "name": "custom_crop_layer_802", "inbound_nodes": [[["custom_pad_layer_1085", 0, 0, {}]]]}, {"class_name": "MaxPooling2D", "config": {"name": "max_pooling2d_1971_insert", "trainable": true, "dtype": "float32", "pool_size": [3, 3], "padding": "valid", "strides": [2, 2], "data_format": "channels_last"}, "name": "max_pooling2d_1971_insert", "inbound_nodes": [[["custom_crop_layer_802", 0, 0, {}]]]}, {"class_name": "CustomPadLayer", "config": {"name": "custom_pad_layer_1086", "trainable": true, "dtype": "float32", "padding": [[2, 2], [6, 6], [0, 1]], "constant_values": 2}, "name": "custom_pad_layer_1086", "inbound_nodes": [[["max_pooling2d_1971_insert", 0, 0, {}]]]}, {"class_name": "BatchNormalization", "config": {"name": "batch_normalization_2471_insert_1", "trainable": true, "dtype": "float32", "axis": [3], "momentum": 0.99, "epsilon": 0.001, "center": true, "scale": false, "beta_initializer": {"class_name": "Zeros", "config": {}}, "gamma_initializer": {"class_name": "Ones", "config": {}}, "moving_mean_initializer": {"class_name": "Zeros", "config": {}}, "moving_variance_initializer": {"class_name": "Ones", "config": {}}, "beta_regularizer": null, "gamma_regularizer": null, "beta_constraint": null, "gamma_constraint": null}, "name": "batch_normalization_2471_insert_1", "inbound_nodes": [[["custom_pad_layer_1086", 0, 0, {}]]]}, {"class_name": "CustomPadLayer", "config": {"name": "custom_pad_layer_1087", "trainable": true, "dtype": "float32", "padding": [[1, 2], [0, 0], [0, 1]], "constant_values": 2}, "name": "custom_pad_layer_1087", "inbound_nodes": [[["batch_normalization_2471_insert_1", 0, 0, {}]]]}, {"class_name": "AveragePooling2D", "config": {"name": "average_pooling2d_1355_insert_2_merge1", "trainable": true, "dtype": "float32", "pool_size": [3, 3], "padding": "same", "strides": [1, 1], "data_format": "channels_last"}, "name": "average_pooling2d_1355_insert_2_merge1", "inbound_nodes": [[["max_pooling2d_1967_insert", 0, 0, {}]]]}, {"class_name": "Conv2D", "config": {"name": "conv2d_5701_insert_2", "trainable": true, "dtype": "float32", "filters": 5, "kernel_size": [3, 1], "strides": [1, 1], "padding": "same", "data_format": "channels_last", "dilation_rate": [1, 1], "groups": 1, "activation": "linear", "use_bias": false, "kernel_initializer": {"class_name": "VarianceScaling", "config": {"scale": 1.0, "mode": "fan_avg", "distribution": "uniform", "seed": null}}, "bias_initializer": {"class_name": "Zeros", "config": {}}, "kernel_regularizer": null, "bias_regularizer": null, "activity_regularizer": null, "kernel_constraint": null, "bias_constraint": null}, "name": "conv2d_5701_insert_2", "inbound_nodes": [[["max_pooling2d_1965_insert", 0, 0, {}]]]}, {"class_name": "Conv2D", "config": {"name": "conv2d_5701_insert_1_2", "trainable": true, "dtype": "float32", "filters": 5, "kernel_size": [3, 1], "strides": [1, 1], "padding": "same", "data_format": "channels_last", "dilation_rate": [1, 1], "groups": 1, "activation": "linear", "use_bias": false, "kernel_initializer": {"class_name": "VarianceScaling", "config": {"scale": 1.0, "mode": "fan_avg", "distribution": "uniform", "seed": null}}, "bias_initializer": {"class_name": "Zeros", "config": {}}, "kernel_regularizer": null, "bias_regularizer": null, "activity_regularizer": null, "kernel_constraint": null, "bias_constraint": null}, "name": "conv2d_5701_insert_1_2", "inbound_nodes": [[["average_pooling2d_1355_insert_1", 0, 0, {}]]]}, {"class_name": "BatchNormalization", "config": {"name": "batch_normalization_2473_insert", "trainable": true, "dtype": "float32", "axis": [3], "momentum": 0.99, "epsilon": 0.001, "center": true, "scale": false, "beta_initializer": {"class_name": "Zeros", "config": {}}, "gamma_initializer": {"class_name": "Ones", "config": {}}, "moving_mean_initializer": {"class_name": "Zeros", "config": {}}, "moving_variance_initializer": {"class_name": "Ones", "config": {}}, "beta_regularizer": null, "gamma_regularizer": null, "beta_constraint": null, "gamma_constraint": null}, "name": "batch_normalization_2473_insert", "inbound_nodes": [[["custom_pad_layer_1087", 0, 0, {}]]]}, {"class_name": "Concatenate", "config": {"name": "concatenate_56_copy_ML", "trainable": true, "dtype": "float32", "axis": 3}, "name": "concatenate_56_copy_ML", "inbound_nodes": [[["average_pooling2d_1355_insert_2_merge1", 0, 0, {}], ["max_pooling2d_1967_insert", 0, 0, {}]]]}, {"class_name": "BatchNormalization", "config": {"name": "batch_normalization_2471_insert_2", "trainable": true, "dtype": "float32", "axis": [3], "momentum": 0.99, "epsilon": 0.001, "center": true, "scale": false, "beta_initializer": {"class_name": "Zeros", "config": {}}, "gamma_initializer": {"class_name": "Ones", "config": {}}, "moving_mean_initializer": {"class_name": "Zeros", "config": {}}, "moving_variance_initializer": {"class_name": "Ones", "config": {}}, "beta_regularizer": null, "gamma_regularizer": null, "beta_constraint": null, "gamma_constraint": null}, "name": "batch_normalization_2471_insert_2", "inbound_nodes": [[["conv2d_5705_insert", 0, 0, {}]]]}, {"class_name": "Cropping2D", "config": {"name": "cropping2d_114", "trainable": true, "dtype": "float32", "cropping": [[32, 32], [32, 32]], "data_format": "channels_last"}, "name": "cropping2d_114", "inbound_nodes": [[["conv2d_5701_insert_2", 0, 0, {}]]]}, {"class_name": "Cropping2D", "config": {"name": "cropping2d_115", "trainable": true, "dtype": "float32", "cropping": [[69, 69], [69, 69]], "data_format": "channels_last"}, "name": "cropping2d_115", "inbound_nodes": [[["conv2d_5701_insert_1_2", 0, 0, {}]]]}], "input_layers": [["input_1058", 0, 0]], "output_layers": [["batch_normalization_2473_insert", 0, 0], ["concatenate_56_copy_ML", 0, 0], ["batch_normalization_2471_insert_2", 0, 0], ["cropping2d_114", 0, 0], ["cropping2d_115", 0, 0]]}, "keras_version": "2.7.0", "backend": "tensorflow"}