{"class_name": "Functional", "config": {"name": "model_8421", "layers": [{"class_name": "InputLayer", "config": {"batch_input_shape": [null, 224, 224, 3], "dtype": "float32", "sparse": false, "ragged": false, "name": "input_1060"}, "name": "input_1060", "inbound_nodes": []}, {"class_name": "ZeroPadding2D", "config": {"name": "conv1_pad", "trainable": true, "dtype": "float32", "padding": [[3, 3], [3, 3]], "data_format": "channels_last"}, "name": "conv1_pad", "inbound_nodes": [[["input_1060", 0, 0, {}]]]}, {"class_name": "MaxPooling2D", "config": {"name": "max_pooling2d_1981_insert", "trainable": true, "dtype": "float32", "pool_size": [3, 3], "padding": "valid", "strides": [2, 2], "data_format": "channels_last"}, "name": "max_pooling2d_1981_insert", "inbound_nodes": [[["conv1_pad", 0, 0, {}]]]}, {"class_name": "ZeroPadding2D", "config": {"name": "zero_padding2d_467_insert", "trainable": true, "dtype": "float32", "padding": [[1, 1], [1, 1]], "data_format": "channels_last"}, "name": "zero_padding2d_467_insert", "inbound_nodes": [[["max_pooling2d_1981_insert", 0, 0, {}]]]}, {"class_name": "Conv2D", "config": {"name": "conv2d_5725_insert", "trainable": true, "dtype": "float32", "filters": 3, "kernel_size": [7, 7], "strides": [2, 2], "padding": "valid", "data_format": "channels_last", "dilation_rate": [1, 1], "groups": 1, "activation": "linear", "use_bias": true, "kernel_initializer": {"class_name": "VarianceScaling", "config": {"scale": 1.0, "mode": "fan_avg", "distribution": "uniform", "seed": null}}, "bias_initializer": {"class_name": "Zeros", "config": {}}, "kernel_regularizer": null, "bias_regularizer": null, "activity_regularizer": null, "kernel_constraint": null, "bias_constraint": null}, "name": "conv2d_5725_insert", "inbound_nodes": [[["zero_padding2d_467_insert", 0, 0, {}]]]}, {"class_name": "Conv2D", "config": {"name": "conv2d_5727_insert", "trainable": true, "dtype": "float32", "filters": 7, "kernel_size": [1, 1], "strides": [1, 1], "padding": "valid", "data_format": "channels_last", "dilation_rate": [1, 1], "groups": 1, "activation": "linear", "use_bias": true, "kernel_initializer": {"class_name": "VarianceScaling", "config": {"scale": 1.0, "mode": "fan_avg", "distribution": "uniform", "seed": null}}, "bias_initializer": {"class_name": "Zeros", "config": {}}, "kernel_regularizer": null, "bias_regularizer": null, "activity_regularizer": null, "kernel_constraint": null, "bias_constraint": null}, "name": "conv2d_5727_insert", "inbound_nodes": [[["conv2d_5725_insert", 0, 0, {}]]]}, {"class_name": "Conv2D", "config": {"name": "conv2d_5729_insert", "trainable": true, "dtype": "float32", "filters": 4, "kernel_size": [1, 1], "strides": [2, 2], "padding": "valid", "data_format": "channels_last", "dilation_rate": [1, 1], "groups": 1, "activation": "linear", "use_bias": true, "kernel_initializer": {"class_name": "VarianceScaling", "config": {"scale": 1.0, "mode": "fan_avg", "distribution": "uniform", "seed": null}}, "bias_initializer": {"class_name": "Zeros", "config": {}}, "kernel_regularizer": null, "bias_regularizer": null, "activity_regularizer": null, "kernel_constraint": null, "bias_constraint": null}, "name": "conv2d_5729_insert", "inbound_nodes": [[["conv2d_5727_insert", 0, 0, {}]]]}, {"class_name": "BatchNormalization", "config": {"name": "batch_normalization_2485_insert_merge1", "trainable": true, "dtype": "float32", "axis": [3], "momentum": 0.99, "epsilon": 1.001e-05, "center": true, "scale": true, "beta_initializer": {"class_name": "Zeros", "config": {}}, "gamma_initializer": {"class_name": "Ones", "config": {}}, "moving_mean_initializer": {"class_name": "Zeros", "config": {}}, "moving_variance_initializer": {"class_name": "Ones", "config": {}}, "beta_regularizer": null, "gamma_regularizer": null, "beta_constraint": null, "gamma_constraint": null}, "name": "batch_normalization_2485_insert_merge1", "inbound_nodes": [[["conv2d_5729_insert", 0, 0, {}]]]}, {"class_name": "Add", "config": {"name": "add_65_copy_ML", "trainable": true, "dtype": "float32"}, "name": "add_65_copy_ML", "inbound_nodes": [[["batch_normalization_2485_insert_merge1", 0, 0, {}], ["conv2d_5729_insert", 0, 0, {}]]]}, {"class_name": "GlobalAveragePooling2D", "config": {"name": "global_average_pooling2d_1781_insert", "trainable": true, "dtype": "float32", "data_format": "channels_last", "keepdims": false}, "name": "global_average_pooling2d_1781_insert", "inbound_nodes": [[["add_65_copy_ML", 0, 0, {}]]]}, {"class_name": "CustomExpandLayer", "config": {"name": "custom_expand_layer_1791_insert", "trainable": true, "dtype": "float32", "axis": 1}, "name": "custom_expand_layer_1791_insert", "inbound_nodes": [[["global_average_pooling2d_1781_insert", 0, 0, {}]]]}, {"class_name": "CustomExpandLayer", "config": {"name": "custom_expand_layer_1792_insert", "trainable": true, "dtype": "float32", "axis": 1}, "name": "custom_expand_layer_1792_insert", "inbound_nodes": [[["custom_expand_layer_1791_insert", 0, 0, {}]]]}, {"class_name": "Conv2D", "config": {"name": "conv2d_5731_insert", "trainable": true, "dtype": "float32", "filters": 8, "kernel_size": [3, 3], "strides": [1, 1], "padding": "same", "data_format": "channels_last", "dilation_rate": [1, 1], "groups": 1, "activation": "linear", "use_bias": true, "kernel_initializer": {"class_name": "VarianceScaling", "config": {"scale": 1.0, "mode": "fan_avg", "distribution": "uniform", "seed": null}}, "bias_initializer": {"class_name": "Zeros", "config": {}}, "kernel_regularizer": null, "bias_regularizer": null, "activity_regularizer": null, "kernel_constraint": null, "bias_constraint": null}, "name": "conv2d_5731_insert", "inbound_nodes": [[["custom_expand_layer_1792_insert", 0, 0, {}]]]}, {"class_name": "CustomPadLayer", "config": {"name": "custom_pad_layer_1098", "trainable": true, "dtype": "float32", "padding": [[9, 9], [8, 9], [0, 1]], "constant_values": 2}, "name": "custom_pad_layer_1098", "inbound_nodes": [[["conv2d_5731_insert", 0, 0, {}]]]}, {"class_name": "Conv2D", "config": {"name": "conv2d_5733_insert_1", "trainable": true, "dtype": "float32", "filters": 8, "kernel_size": [1, 1], "strides": [2, 2], "padding": "valid", "data_format": "channels_last", "dilation_rate": [1, 1], "groups": 1, "activation": "linear", "use_bias": true, "kernel_initializer": {"class_name": "VarianceScaling", "config": {"scale": 1.0, "mode": "fan_avg", "distribution": "uniform", "seed": null}}, "bias_initializer": {"class_name": "Zeros", "config": {}}, "kernel_regularizer": null, "bias_regularizer": null, "activity_regularizer": null, "kernel_constraint": null, "bias_constraint": null}, "name": "conv2d_5733_insert_1", "inbound_nodes": [[["custom_pad_layer_1098", 0, 0, {}]]]}, {"class_name": "CustomPadLayer", "config": {"name": "custom_pad_layer_1099", "trainable": true, "dtype": "float32", "padding": [[0, 0], [3, 4], [3, 4]], "constant_values": 2}, "name": "custom_pad_layer_1099", "inbound_nodes": [[["conv2d_5733_insert_1", 0, 0, {}]]]}, {"class_name": "CustomCropLayer", "config": {"name": "custom_crop_layer_810", "trainable": true, "dtype": "float32", "cropping": [[1, 1], [0, 0], [0, 0]]}, "name": "custom_crop_layer_810", "inbound_nodes": [[["custom_pad_layer_1099", 0, 0, {}]]]}, {"class_name": "BatchNormalization", "config": {"name": "batch_normalization_2487_insert", "trainable": true, "dtype": "float32", "axis": [3], "momentum": 0.99, "epsilon": 1.001e-05, "center": true, "scale": true, "beta_initializer": {"class_name": "Zeros", "config": {}}, "gamma_initializer": {"class_name": "Ones", "config": {}}, "moving_mean_initializer": {"class_name": "Zeros", "config": {}}, "moving_variance_initializer": {"class_name": "Ones", "config": {}}, "beta_regularizer": null, "gamma_regularizer": null, "beta_constraint": null, "gamma_constraint": null}, "name": "batch_normalization_2487_insert", "inbound_nodes": [[["custom_crop_layer_810", 0, 0, {}]]]}, {"class_name": "CustomPadLayer", "config": {"name": "custom_pad_layer_1100", "trainable": true, "dtype": "float32", "padding": [[2, 3], [0, 0], [0, 0]], "constant_values": 2}, "name": "custom_pad_layer_1100", "inbound_nodes": [[["batch_normalization_2487_insert", 0, 0, {}]]]}, {"class_name": "CustomCropLayer", "config": {"name": "custom_crop_layer_811", "trainable": true, "dtype": "float32", "cropping": [[0, 0], [2, 3], [4, 5]]}, "name": "custom_crop_layer_811", "inbound_nodes": [[["custom_pad_layer_1100", 0, 0, {}]]]}, {"class_name": "BatchNormalization", "config": {"name": "batch_normalization_2489_insert", "trainable": true, "dtype": "float32", "axis": [3], "momentum": 0.99, "epsilon": 1.001e-05, "center": true, "scale": true, "beta_initializer": {"class_name": "Zeros", "config": {}}, "gamma_initializer": {"class_name": "Ones", "config": {}}, "moving_mean_initializer": {"class_name": "Zeros", "config": {}}, "moving_variance_initializer": {"class_name": "Ones", "config": {}}, "beta_regularizer": null, "gamma_regularizer": null, "beta_constraint": null, "gamma_constraint": null}, "name": "batch_normalization_2489_insert", "inbound_nodes": [[["custom_crop_layer_811", 0, 0, {}]]]}, {"class_name": "CustomPadLayer", "config": {"name": "custom_pad_layer_1101", "trainable": true, "dtype": "float32", "padding": [[0, 0], [1, 1], [6, 7]], "constant_values": 2}, "name": "custom_pad_layer_1101", "inbound_nodes": [[["batch_normalization_2489_insert", 0, 0, {}]]]}, {"class_name": "CustomCropLayer", "config": {"name": "custom_crop_layer_812", "trainable": true, "dtype": "float32", "cropping": [[2, 2], [0, 0], [0, 0]]}, "name": "custom_crop_layer_812", "inbound_nodes": [[["custom_pad_layer_1101", 0, 0, {}]]]}, {"class_name": "BatchNormalization", "config": {"name": "batch_normalization_2491_insert", "trainable": true, "dtype": "float32", "axis": [3], "momentum": 0.99, "epsilon": 1.001e-05, "center": true, "scale": true, "beta_initializer": {"class_name": "Zeros", "config": {}}, "gamma_initializer": {"class_name": "Ones", "config": {}}, "moving_mean_initializer": {"class_name": "Zeros", "config": {}}, "moving_variance_initializer": {"class_name": "Ones", "config": {}}, "beta_regularizer": null, "gamma_regularizer": null, "beta_constraint": null, "gamma_constraint": null}, "name": "batch_normalization_2491_insert", "inbound_nodes": [[["custom_crop_layer_812", 0, 0, {}]]]}, {"class_name": "CustomPadLayer", "config": {"name": "custom_pad_layer_1102", "trainable": true, "dtype": "float32", "padding": [[4, 4], [3, 3], [0, 0]], "constant_values": 2}, "name": "custom_pad_layer_1102", "inbound_nodes": [[["batch_normalization_2491_insert", 0, 0, {}]]]}, {"class_name": "CustomCropLayer", "config": {"name": "custom_crop_layer_813", "trainable": true, "dtype": "float32", "cropping": [[0, 0], [0, 0], [4, 5]]}, "name": "custom_crop_layer_813", "inbound_nodes": [[["custom_pad_layer_1102", 0, 0, {}]]]}, {"class_name": "Conv2D", "config": {"name": "conv2d_5733_insert_2", "trainable": true, "dtype": "float32", "filters": 8, "kernel_size": [1, 1], "strides": [2, 2], "padding": "valid", "data_format": "channels_last", "dilation_rate": [1, 1], "groups": 1, "activation": "linear", "use_bias": true, "kernel_initializer": {"class_name": "VarianceScaling", "config": {"scale": 1.0, "mode": "fan_avg", "distribution": "uniform", "seed": null}}, "bias_initializer": {"class_name": "Zeros", "config": {}}, "kernel_regularizer": null, "bias_regularizer": null, "activity_regularizer": null, "kernel_constraint": null, "bias_constraint": null}, "name": "conv2d_5733_insert_2", "inbound_nodes": [[["max_pooling2d_1981_insert", 0, 0, {}]]]}, {"class_name": "BatchNormalization", "config": {"name": "batch_normalization_2493_insert", "trainable": true, "dtype": "float32", "axis": [3], "momentum": 0.99, "epsilon": 1.001e-05, "center": true, "scale": true, "beta_initializer": {"class_name": "Zeros", "config": {}}, "gamma_initializer": {"class_name": "Ones", "config": {}}, "moving_mean_initializer": {"class_name": "Zeros", "config": {}}, "moving_variance_initializer": {"class_name": "Ones", "config": {}}, "beta_regularizer": null, "gamma_regularizer": null, "beta_constraint": null, "gamma_constraint": null}, "name": "batch_normalization_2493_insert", "inbound_nodes": [[["custom_crop_layer_813", 0, 0, {}]]]}, {"class_name": "Cropping2D", "config": {"name": "cropping2d_116", "trainable": true, "dtype": "float32", "cropping": [[23, 23], [23, 23]], "data_format": "channels_last"}, "name": "cropping2d_116", "inbound_nodes": [[["conv2d_5733_insert_2", 0, 0, {}]]]}], "input_layers": [["input_1060", 0, 0]], "output_layers": [["batch_normalization_2493_insert", 0, 0], ["cropping2d_116", 0, 0]]}, "keras_version": "2.7.0", "backend": "tensorflow"}