{"class_name": "Functional", "config": {"name": "model_1814", "layers": [{"class_name": "InputLayer", "config": {"batch_input_shape": [null, 32, 32, 3], "dtype": "float32", "sparse": false, "ragged": false, "name": "input_234"}, "name": "input_234", "inbound_nodes": []}, {"class_name": "Conv2D", "config": {"name": "conv2d_1", "trainable": true, "batch_input_shape": [null, 32, 32, 3], "dtype": "float32", "filters": 96, "kernel_size": [3, 3], "strides": [2, 2], "padding": "same", "data_format": "channels_last", "dilation_rate": [1, 1], "groups": 1, "activation": "relu", "use_bias": true, "kernel_initializer": {"class_name": "VarianceScaling", "config": {"scale": 1.0, "mode": "fan_avg", "distribution": "uniform", "seed": null}}, "bias_initializer": {"class_name": "Zeros", "config": {}}, "kernel_regularizer": null, "bias_regularizer": null, "activity_regularizer": null, "kernel_constraint": null, "bias_constraint": null}, "name": "conv2d_1", "inbound_nodes": [[["input_234", 0, 0, {}]]]}, {"class_name": "MaxPooling2D", "config": {"name": "max_pooling2d_399_insert", "trainable": true, "dtype": "float32", "pool_size": [3, 3], "padding": "valid", "strides": [2, 2], "data_format": "channels_last"}, "name": "max_pooling2d_399_insert", "inbound_nodes": [[["conv2d_1", 0, 0, {}]]]}, {"class_name": "Dropout", "config": {"name": "dropout_65_insert", "trainable": true, "dtype": "float32", "rate": 0.5, "noise_shape": null, "seed": null}, "name": "dropout_65_insert", "inbound_nodes": [[["max_pooling2d_399_insert", 0, 0, {}]]]}, {"class_name": "MaxPooling2D", "config": {"name": "max_pooling2d_401_insert", "trainable": true, "dtype": "float32", "pool_size": [2, 2], "padding": "valid", "strides": [2, 2], "data_format": "channels_last"}, "name": "max_pooling2d_401_insert", "inbound_nodes": [[["dropout_65_insert", 0, 0, {}]]]}, {"class_name": "Flatten", "config": {"name": "flatten_24_insert_1", "trainable": true, "dtype": "float32", "data_format": "channels_last"}, "name": "flatten_24_insert_1", "inbound_nodes": [[["max_pooling2d_401_insert", 0, 0, {}]]]}, {"class_name": "CustomExpandLayer", "config": {"name": "custom_expand_layer_398_insert", "trainable": true, "dtype": "float32", "axis": 1}, "name": "custom_expand_layer_398_insert", "inbound_nodes": [[["flatten_24_insert_1", 0, 0, {}]]]}, {"class_name": "CustomExpandLayer", "config": {"name": "custom_expand_layer_399_insert", "trainable": true, "dtype": "float32", "axis": 1}, "name": "custom_expand_layer_399_insert", "inbound_nodes": [[["custom_expand_layer_398_insert", 0, 0, {}]]]}, {"class_name": "Conv2D", "config": {"name": "conv2d_1247_insert_1", "trainable": true, "dtype": "float32", "filters": 8, "kernel_size": [5, 5], "strides": [1, 1], "padding": "same", "data_format": "channels_last", "dilation_rate": [1, 1], "groups": 1, "activation": "relu", "use_bias": true, "kernel_initializer": {"class_name": "VarianceScaling", "config": {"scale": 1.0, "mode": "fan_avg", "distribution": "uniform", "seed": null}}, "bias_initializer": {"class_name": "Zeros", "config": {}}, "kernel_regularizer": null, "bias_regularizer": null, "activity_regularizer": null, "kernel_constraint": null, "bias_constraint": null}, "name": "conv2d_1247_insert_1", "inbound_nodes": [[["custom_expand_layer_399_insert", 0, 0, {}]]]}, {"class_name": "BatchNormalization", "config": {"name": "batch_normalization_521_insert", "trainable": true, "dtype": "float32", "axis": [3], "momentum": 0.99, "epsilon": 0.001, "center": true, "scale": true, "beta_initializer": {"class_name": "Zeros", "config": {}}, "gamma_initializer": {"class_name": "Ones", "config": {}}, "moving_mean_initializer": {"class_name": "Zeros", "config": {}}, "moving_variance_initializer": {"class_name": "Ones", "config": {}}, "beta_regularizer": null, "gamma_regularizer": null, "beta_constraint": null, "gamma_constraint": null}, "name": "batch_normalization_521_insert", "inbound_nodes": [[["conv2d_1247_insert_1", 0, 0, {}]]]}, {"class_name": "Conv2D", "config": {"name": "conv2d_1249_insert", "trainable": true, "dtype": "float32", "filters": 6, "kernel_size": [3, 3], "strides": [1, 1], "padding": "same", "data_format": "channels_last", "dilation_rate": [1, 1], "groups": 1, "activation": "relu", "use_bias": true, "kernel_initializer": {"class_name": "VarianceScaling", "config": {"scale": 1.0, "mode": "fan_avg", "distribution": "uniform", "seed": null}}, "bias_initializer": {"class_name": "Zeros", "config": {}}, "kernel_regularizer": null, "bias_regularizer": null, "activity_regularizer": null, "kernel_constraint": null, "bias_constraint": null}, "name": "conv2d_1249_insert", "inbound_nodes": [[["batch_normalization_521_insert", 0, 0, {}]]]}, {"class_name": "CustomDropDimLayer", "config": {"name": "custom_drop_dim_layer", "trainable": true, "dtype": "float32", "axis": 1}, "name": "custom_drop_dim_layer", "inbound_nodes": [[["conv2d_1249_insert", 0, 0, {}]]]}, {"class_name": "CustomDropDimLayer", "config": {"name": "custom_drop_dim_layer_1", "trainable": true, "dtype": "float32", "axis": 1}, "name": "custom_drop_dim_layer_1", "inbound_nodes": [[["custom_drop_dim_layer", 0, 0, {}]]]}, {"class_name": "Dropout", "config": {"name": "dropout_67_insert", "trainable": true, "dtype": "float32", "rate": 0.5, "noise_shape": null, "seed": null}, "name": "dropout_67_insert", "inbound_nodes": [[["custom_drop_dim_layer_1", 0, 0, {}]]]}, {"class_name": "CustomExpandLayer", "config": {"name": "custom_expand_layer_400", "trainable": true, "dtype": "float32", "axis": 1}, "name": "custom_expand_layer_400", "inbound_nodes": [[["dropout_67_insert", 0, 0, {}]]]}, {"class_name": "CustomExpandLayer", "config": {"name": "custom_expand_layer_401", "trainable": true, "dtype": "float32", "axis": 1}, "name": "custom_expand_layer_401", "inbound_nodes": [[["custom_expand_layer_400", 0, 0, {}]]]}, {"class_name": "CustomPadLayer", "config": {"name": "custom_pad_layer_194", "trainable": true, "dtype": "float32", "padding": [[2, 2], [2, 3], [0, 1]], "constant_values": 2}, "name": "custom_pad_layer_194", "inbound_nodes": [[["custom_expand_layer_401", 0, 0, {}]]]}, {"class_name": "BatchNormalization", "config": {"name": "batch_normalization_523_insert", "trainable": true, "dtype": "float32", "axis": [3], "momentum": 0.99, "epsilon": 0.001, "center": true, "scale": true, "beta_initializer": {"class_name": "Zeros", "config": {}}, "gamma_initializer": {"class_name": "Ones", "config": {}}, "moving_mean_initializer": {"class_name": "Zeros", "config": {}}, "moving_variance_initializer": {"class_name": "Ones", "config": {}}, "beta_regularizer": null, "gamma_regularizer": null, "beta_constraint": null, "gamma_constraint": null}, "name": "batch_normalization_523_insert", "inbound_nodes": [[["custom_pad_layer_194", 0, 0, {}]]]}, {"class_name": "CustomPadLayer", "config": {"name": "custom_pad_layer_195", "trainable": true, "dtype": "float32", "padding": [[5, 5], [3, 4], [0, 0]], "constant_values": 2}, "name": "custom_pad_layer_195", "inbound_nodes": [[["batch_normalization_523_insert", 0, 0, {}]]]}, {"class_name": "CustomCropLayer", "config": {"name": "custom_crop_layer_144", "trainable": true, "dtype": "float32", "cropping": [[0, 0], [0, 0], [1, 1]]}, "name": "custom_crop_layer_144", "inbound_nodes": [[["custom_pad_layer_195", 0, 0, {}]]]}, {"class_name": "BatchNormalization", "config": {"name": "batch_normalization_525_insert_1", "trainable": true, "dtype": "float32", "axis": [3], "momentum": 0.99, "epsilon": 0.001, "center": true, "scale": true, "beta_initializer": {"class_name": "Zeros", "config": {}}, "gamma_initializer": {"class_name": "Ones", "config": {}}, "moving_mean_initializer": {"class_name": "Zeros", "config": {}}, "moving_variance_initializer": {"class_name": "Ones", "config": {}}, "beta_regularizer": null, "gamma_regularizer": null, "beta_constraint": null, "gamma_constraint": null}, "name": "batch_normalization_525_insert_1", "inbound_nodes": [[["custom_crop_layer_144", 0, 0, {}]]]}, {"class_name": "CustomPadLayer", "config": {"name": "custom_pad_layer_196", "trainable": true, "dtype": "float32", "padding": [[0, 0], [0, 0], [3, 3]], "constant_values": 2}, "name": "custom_pad_layer_196", "inbound_nodes": [[["batch_normalization_525_insert_1", 0, 0, {}]]]}, {"class_name": "CustomCropLayer", "config": {"name": "custom_crop_layer_145", "trainable": true, "dtype": "float32", "cropping": [[1, 2], [2, 2], [0, 0]]}, "name": "custom_crop_layer_145", "inbound_nodes": [[["custom_pad_layer_196", 0, 0, {}]]]}, {"class_name": "Conv2D", "config": {"name": "conv2d_1251_insert", "trainable": true, "batch_input_shape": [null, 32, 32, 3], "dtype": "float32", "filters": 4, "kernel_size": [3, 3], "strides": [2, 2], "padding": "same", "data_format": "channels_last", "dilation_rate": [1, 1], "groups": 1, "activation": "relu", "use_bias": true, "kernel_initializer": {"class_name": "VarianceScaling", "config": {"scale": 1.0, "mode": "fan_avg", "distribution": "uniform", "seed": null}}, "bias_initializer": {"class_name": "Zeros", "config": {}}, "kernel_regularizer": null, "bias_regularizer": null, "activity_regularizer": null, "kernel_constraint": null, "bias_constraint": null}, "name": "conv2d_1251_insert", "inbound_nodes": [[["custom_crop_layer_145", 0, 0, {}]]]}, {"class_name": "CustomPadLayer", "config": {"name": "custom_pad_layer_197", "trainable": true, "dtype": "float32", "padding": [[6, 6], [6, 7], [6, 6]], "constant_values": 2}, "name": "custom_pad_layer_197", "inbound_nodes": [[["conv2d_1251_insert", 0, 0, {}]]]}, {"class_name": "MaxPooling2D", "config": {"name": "max_pooling2d_403_insert", "trainable": true, "dtype": "float32", "pool_size": [2, 2], "padding": "valid", "strides": [2, 2], "data_format": "channels_last"}, "name": "max_pooling2d_403_insert", "inbound_nodes": [[["custom_pad_layer_197", 0, 0, {}]]]}, {"class_name": "Conv2D", "config": {"name": "conv2d_1247_insert_2", "trainable": true, "dtype": "float32", "filters": 8, "kernel_size": [5, 5], "strides": [1, 1], "padding": "same", "data_format": "channels_last", "dilation_rate": [1, 1], "groups": 1, "activation": "relu", "use_bias": true, "kernel_initializer": {"class_name": "VarianceScaling", "config": {"scale": 1.0, "mode": "fan_avg", "distribution": "uniform", "seed": null}}, "bias_initializer": {"class_name": "Zeros", "config": {}}, "kernel_regularizer": null, "bias_regularizer": null, "activity_regularizer": null, "kernel_constraint": null, "bias_constraint": null}, "name": "conv2d_1247_insert_2", "inbound_nodes": [[["conv2d_1249_insert", 0, 0, {}]]]}, {"class_name": "BatchNormalization", "config": {"name": "batch_normalization_525_insert_2", "trainable": true, "dtype": "float32", "axis": [3], "momentum": 0.99, "epsilon": 0.001, "center": true, "scale": true, "beta_initializer": {"class_name": "Zeros", "config": {}}, "gamma_initializer": {"class_name": "Ones", "config": {}}, "moving_mean_initializer": {"class_name": "Zeros", "config": {}}, "moving_variance_initializer": {"class_name": "Ones", "config": {}}, "beta_regularizer": null, "gamma_regularizer": null, "beta_constraint": null, "gamma_constraint": null}, "name": "batch_normalization_525_insert_2", "inbound_nodes": [[["max_pooling2d_401_insert", 0, 0, {}]]]}, {"class_name": "Flatten", "config": {"name": "flatten_24_insert_2", "trainable": true, "dtype": "float32", "data_format": "channels_last"}, "name": "flatten_24_insert_2", "inbound_nodes": [[["batch_normalization_521_insert", 0, 0, {}]]]}], "input_layers": [["input_234", 0, 0]], "output_layers": [["max_pooling2d_403_insert", 0, 0], ["conv2d_1247_insert_2", 0, 0], ["batch_normalization_525_insert_2", 0, 0], ["flatten_24_insert_2", 0, 0]]}, "keras_version": "2.7.0", "backend": "tensorflow"}