{"class_name": "Functional", "config": {"name": "model_47", "layers": [{"class_name": "InputLayer", "config": {"batch_input_shape": [null, 224, 224, 3], "dtype": "float32", "sparse": false, "ragged": false, "name": "input_4"}, "name": "input_4", "inbound_nodes": []}, {"class_name": "ZeroPadding2D", "config": {"name": "zero_padding2d_1", "trainable": true, "dtype": "float32", "padding": [[3, 3], [3, 3]], "data_format": "channels_last"}, "name": "zero_padding2d_1", "inbound_nodes": [[["input_4", 0, 0, {}]]]}, {"class_name": "MaxPooling2D", "config": {"name": "max_pooling2d_7_insert", "trainable": true, "dtype": "float32", "pool_size": [3, 3], "padding": "valid", "strides": [2, 2], "data_format": "channels_last"}, "name": "max_pooling2d_7_insert", "inbound_nodes": [[["zero_padding2d_1", 0, 0, {}]]]}, {"class_name": "BatchNormalization", "config": {"name": "batch_normalization_7_insert_1", "trainable": true, "dtype": "float32", "axis": [3], "momentum": 0.99, "epsilon": 1.001e-05, "center": true, "scale": true, "beta_initializer": {"class_name": "Zeros", "config": {}}, "gamma_initializer": {"class_name": "Ones", "config": {}}, "moving_mean_initializer": {"class_name": "Zeros", "config": {}}, "moving_variance_initializer": {"class_name": "Ones", "config": {}}, "beta_regularizer": null, "gamma_regularizer": null, "beta_constraint": null, "gamma_constraint": null}, "name": "batch_normalization_7_insert_1", "inbound_nodes": [[["max_pooling2d_7_insert", 0, 0, {}]]]}, {"class_name": "ZeroPadding2D", "config": {"name": "zero_padding2d_1_insert", "trainable": true, "dtype": "float32", "padding": [[1, 1], [1, 1]], "data_format": "channels_last"}, "name": "zero_padding2d_1_insert", "inbound_nodes": [[["batch_normalization_7_insert_1", 0, 0, {}]]]}, {"class_name": "Conv2D", "config": {"name": "conv2d_9_insert", "trainable": true, "dtype": "float32", "filters": 4, "kernel_size": [7, 7], "strides": [2, 2], "padding": "valid", "data_format": "channels_last", "dilation_rate": [1, 1], "groups": 1, "activation": "linear", "use_bias": false, "kernel_initializer": {"class_name": "VarianceScaling", "config": {"scale": 1.0, "mode": "fan_avg", "distribution": "uniform", "seed": null}}, "bias_initializer": {"class_name": "Zeros", "config": {}}, "kernel_regularizer": null, "bias_regularizer": null, "activity_regularizer": null, "kernel_constraint": null, "bias_constraint": null}, "name": "conv2d_9_insert", "inbound_nodes": [[["zero_padding2d_1_insert", 0, 0, {}]]]}, {"class_name": "AveragePooling2D", "config": {"name": "average_pooling2d_5_insert", "trainable": true, "dtype": "float32", "pool_size": [2, 2], "padding": "valid", "strides": [2, 2], "data_format": "channels_last"}, "name": "average_pooling2d_5_insert", "inbound_nodes": [[["conv2d_9_insert", 0, 0, {}]]]}, {"class_name": "GlobalAveragePooling2D", "config": {"name": "global_average_pooling2d_1_insert", "trainable": true, "dtype": "float32", "data_format": "channels_last", "keepdims": false}, "name": "global_average_pooling2d_1_insert", "inbound_nodes": [[["average_pooling2d_5_insert", 0, 0, {}]]]}, {"class_name": "CustomExpandLayer", "config": {"name": "custom_expand_layer_5_insert", "trainable": true, "dtype": "float32", "axis": 1}, "name": "custom_expand_layer_5_insert", "inbound_nodes": [[["global_average_pooling2d_1_insert", 0, 0, {}]]]}, {"class_name": "CustomExpandLayer", "config": {"name": "custom_expand_layer_6_insert", "trainable": true, "dtype": "float32", "axis": 1}, "name": "custom_expand_layer_6_insert", "inbound_nodes": [[["custom_expand_layer_5_insert", 0, 0, {}]]]}, {"class_name": "Conv2D", "config": {"name": "conv2d_11_insert", "trainable": true, "dtype": "float32", "filters": 2, "kernel_size": [1, 1], "strides": [1, 1], "padding": "valid", "data_format": "channels_last", "dilation_rate": [1, 1], "groups": 1, "activation": "linear", "use_bias": false, "kernel_initializer": {"class_name": "VarianceScaling", "config": {"scale": 1.0, "mode": "fan_avg", "distribution": "uniform", "seed": null}}, "bias_initializer": {"class_name": "Zeros", "config": {}}, "kernel_regularizer": null, "bias_regularizer": null, "activity_regularizer": null, "kernel_constraint": null, "bias_constraint": null}, "name": "conv2d_11_insert", "inbound_nodes": [[["custom_expand_layer_6_insert", 0, 0, {}]]]}, {"class_name": "Conv2D", "config": {"name": "conv2d_13_insert", "trainable": true, "dtype": "float32", "filters": 5, "kernel_size": [3, 3], "strides": [1, 1], "padding": "same", "data_format": "channels_last", "dilation_rate": [1, 1], "groups": 1, "activation": "linear", "use_bias": false, "kernel_initializer": {"class_name": "VarianceScaling", "config": {"scale": 1.0, "mode": "fan_avg", "distribution": "uniform", "seed": null}}, "bias_initializer": {"class_name": "Zeros", "config": {}}, "kernel_regularizer": null, "bias_regularizer": null, "activity_regularizer": null, "kernel_constraint": null, "bias_constraint": null}, "name": "conv2d_13_insert", "inbound_nodes": [[["conv2d_11_insert", 0, 0, {}]]]}, {"class_name": "CustomPadLayer", "config": {"name": "custom_pad_layer_6", "trainable": true, "dtype": "float32", "padding": [[2, 2], [6, 6], [1, 1]], "constant_values": 2}, "name": "custom_pad_layer_6", "inbound_nodes": [[["conv2d_13_insert", 0, 0, {}]]]}, {"class_name": "BatchNormalization", "config": {"name": "batch_normalization_9_insert", "trainable": true, "dtype": "float32", "axis": [3], "momentum": 0.99, "epsilon": 1.001e-05, "center": true, "scale": true, "beta_initializer": {"class_name": "Zeros", "config": {}}, "gamma_initializer": {"class_name": "Ones", "config": {}}, "moving_mean_initializer": {"class_name": "Zeros", "config": {}}, "moving_variance_initializer": {"class_name": "Ones", "config": {}}, "beta_regularizer": null, "gamma_regularizer": null, "beta_constraint": null, "gamma_constraint": null}, "name": "batch_normalization_9_insert", "inbound_nodes": [[["custom_pad_layer_6", 0, 0, {}]]]}, {"class_name": "CustomPadLayer", "config": {"name": "custom_pad_layer_7", "trainable": true, "dtype": "float32", "padding": [[1, 1], [3, 3], [3, 4]], "constant_values": 2}, "name": "custom_pad_layer_7", "inbound_nodes": [[["batch_normalization_9_insert", 0, 0, {}]]]}, {"class_name": "BatchNormalization", "config": {"name": "batch_normalization_11_insert", "trainable": true, "dtype": "float32", "axis": [3], "momentum": 0.99, "epsilon": 1.001e-05, "center": true, "scale": true, "beta_initializer": {"class_name": "Zeros", "config": {}}, "gamma_initializer": {"class_name": "Ones", "config": {}}, "moving_mean_initializer": {"class_name": "Zeros", "config": {}}, "moving_variance_initializer": {"class_name": "Ones", "config": {}}, "beta_regularizer": null, "gamma_regularizer": null, "beta_constraint": null, "gamma_constraint": null}, "name": "batch_normalization_11_insert", "inbound_nodes": [[["custom_pad_layer_7", 0, 0, {}]]]}, {"class_name": "CustomCropLayer", "config": {"name": "custom_crop_layer_5", "trainable": true, "dtype": "float32", "cropping": [[0, 0], [3, 3], [4, 4]]}, "name": "custom_crop_layer_5", "inbound_nodes": [[["batch_normalization_11_insert", 0, 0, {}]]]}, {"class_name": "BatchNormalization", "config": {"name": "batch_normalization_13_insert", "trainable": true, "dtype": "float32", "axis": [3], "momentum": 0.99, "epsilon": 1.001e-05, "center": true, "scale": true, "beta_initializer": {"class_name": "Zeros", "config": {}}, "gamma_initializer": {"class_name": "Ones", "config": {}}, "moving_mean_initializer": {"class_name": "Zeros", "config": {}}, "moving_variance_initializer": {"class_name": "Ones", "config": {}}, "beta_regularizer": null, "gamma_regularizer": null, "beta_constraint": null, "gamma_constraint": null}, "name": "batch_normalization_13_insert", "inbound_nodes": [[["custom_crop_layer_5", 0, 0, {}]]]}, {"class_name": "CustomPadLayer", "config": {"name": "custom_pad_layer_8", "trainable": true, "dtype": "float32", "padding": [[3, 3], [0, 0], [0, 1]], "constant_values": 2}, "name": "custom_pad_layer_8", "inbound_nodes": [[["batch_normalization_13_insert", 0, 0, {}]]]}, {"class_name": "AveragePooling2D", "config": {"name": "average_pooling2d_7_insert", "trainable": true, "dtype": "float32", "pool_size": [2, 2], "padding": "valid", "strides": [2, 2], "data_format": "channels_last"}, "name": "average_pooling2d_7_insert", "inbound_nodes": [[["custom_pad_layer_8", 0, 0, {}]]]}, {"class_name": "CustomPadLayer", "config": {"name": "custom_pad_layer_9", "trainable": true, "dtype": "float32", "padding": [[1, 2], [0, 1], [4, 4]], "constant_values": 2}, "name": "custom_pad_layer_9", "inbound_nodes": [[["average_pooling2d_7_insert", 0, 0, {}]]]}, {"class_name": "AveragePooling2D", "config": {"name": "average_pooling2d_9_insert", "trainable": true, "dtype": "float32", "pool_size": [2, 2], "padding": "valid", "strides": [2, 2], "data_format": "channels_last"}, "name": "average_pooling2d_9_insert", "inbound_nodes": [[["custom_pad_layer_9", 0, 0, {}]]]}, {"class_name": "CustomPadLayer", "config": {"name": "custom_pad_layer_10", "trainable": true, "dtype": "float32", "padding": [[4, 4], [4, 4], [0, 0]], "constant_values": 2}, "name": "custom_pad_layer_10", "inbound_nodes": [[["average_pooling2d_9_insert", 0, 0, {}]]]}, {"class_name": "CustomCropLayer", "config": {"name": "custom_crop_layer_6", "trainable": true, "dtype": "float32", "cropping": [[0, 0], [0, 0], [1, 2]]}, "name": "custom_crop_layer_6", "inbound_nodes": [[["custom_pad_layer_10", 0, 0, {}]]]}, {"class_name": "BatchNormalization", "config": {"name": "batch_normalization_15_insert_1", "trainable": true, "dtype": "float32", "axis": [3], "momentum": 0.99, "epsilon": 1.001e-05, "center": true, "scale": true, "beta_initializer": {"class_name": "Zeros", "config": {}}, "gamma_initializer": {"class_name": "Ones", "config": {}}, "moving_mean_initializer": {"class_name": "Zeros", "config": {}}, "moving_variance_initializer": {"class_name": "Ones", "config": {}}, "beta_regularizer": null, "gamma_regularizer": null, "beta_constraint": null, "gamma_constraint": null}, "name": "batch_normalization_15_insert_1", "inbound_nodes": [[["custom_crop_layer_6", 0, 0, {}]]]}, {"class_name": "CustomPadLayer", "config": {"name": "custom_pad_layer_11", "trainable": true, "dtype": "float32", "padding": [[0, 0], [0, 1], [3, 3]], "constant_values": 2}, "name": "custom_pad_layer_11", "inbound_nodes": [[["batch_normalization_15_insert_1", 0, 0, {}]]]}, {"class_name": "CustomCropLayer", "config": {"name": "custom_crop_layer_7", "trainable": true, "dtype": "float32", "cropping": [[1, 1], [0, 0], [0, 0]]}, "name": "custom_crop_layer_7", "inbound_nodes": [[["custom_pad_layer_11", 0, 0, {}]]]}, {"class_name": "Conv2D", "config": {"name": "conv2d_15_insert", "trainable": true, "dtype": "float32", "filters": 3, "kernel_size": [1, 1], "strides": [1, 1], "padding": "valid", "data_format": "channels_last", "dilation_rate": [1, 1], "groups": 1, "activation": "linear", "use_bias": false, "kernel_initializer": {"class_name": "VarianceScaling", "config": {"scale": 1.0, "mode": "fan_avg", "distribution": "uniform", "seed": null}}, "bias_initializer": {"class_name": "Zeros", "config": {}}, "kernel_regularizer": null, "bias_regularizer": null, "activity_regularizer": null, "kernel_constraint": null, "bias_constraint": null}, "name": "conv2d_15_insert", "inbound_nodes": [[["custom_crop_layer_7", 0, 0, {}]]]}, {"class_name": "CustomPadLayer", "config": {"name": "custom_pad_layer_12", "trainable": true, "dtype": "float32", "padding": [[2, 3], [0, 0], [5, 6]], "constant_values": 2}, "name": "custom_pad_layer_12", "inbound_nodes": [[["conv2d_15_insert", 0, 0, {}]]]}, {"class_name": "BatchNormalization", "config": {"name": "batch_normalization_15_insert_2", "trainable": true, "dtype": "float32", "axis": [3], "momentum": 0.99, "epsilon": 1.001e-05, "center": true, "scale": true, "beta_initializer": {"class_name": "Zeros", "config": {}}, "gamma_initializer": {"class_name": "Ones", "config": {}}, "moving_mean_initializer": {"class_name": "Zeros", "config": {}}, "moving_variance_initializer": {"class_name": "Ones", "config": {}}, "beta_regularizer": null, "gamma_regularizer": null, "beta_constraint": null, "gamma_constraint": null}, "name": "batch_normalization_15_insert_2", "inbound_nodes": [[["average_pooling2d_5_insert", 0, 0, {}]]]}, {"class_name": "BatchNormalization", "config": {"name": "batch_normalization_7_insert_2", "trainable": true, "dtype": "float32", "axis": [3], "momentum": 0.99, "epsilon": 1.001e-05, "center": true, "scale": true, "beta_initializer": {"class_name": "Zeros", "config": {}}, "gamma_initializer": {"class_name": "Ones", "config": {}}, "moving_mean_initializer": {"class_name": "Zeros", "config": {}}, "moving_variance_initializer": {"class_name": "Ones", "config": {}}, "beta_regularizer": null, "gamma_regularizer": null, "beta_constraint": null, "gamma_constraint": null}, "name": "batch_normalization_7_insert_2", "inbound_nodes": [[["conv2d_9_insert", 0, 0, {}]]]}, {"class_name": "CustomCropLayer", "config": {"name": "custom_crop_layer_8", "trainable": true, "dtype": "float32", "cropping": [[0, 0], [1, 2], [0, 0]]}, "name": "custom_crop_layer_8", "inbound_nodes": [[["custom_pad_layer_12", 0, 0, {}]]]}, {"class_name": "Cropping2D", "config": {"name": "cropping2d", "trainable": true, "dtype": "float32", "cropping": [[8, 8], [8, 8]], "data_format": "channels_last"}, "name": "cropping2d", "inbound_nodes": [[["batch_normalization_15_insert_2", 0, 0, {}]]]}, {"class_name": "Cropping2D", "config": {"name": "cropping2d_1_merge1", "trainable": true, "dtype": "float32", "cropping": [[22, 22], [22, 22]], "data_format": "channels_last"}, "name": "cropping2d_1_merge1", "inbound_nodes": [[["batch_normalization_7_insert_2", 0, 0, {}]]]}, {"class_name": "Conv2D", "config": {"name": "conv2d_17_insert", "trainable": true, "dtype": "float32", "filters": 8, "kernel_size": [3, 3], "strides": [1, 1], "padding": "same", "data_format": "channels_last", "dilation_rate": [1, 1], "groups": 1, "activation": "linear", "use_bias": false, "kernel_initializer": {"class_name": "VarianceScaling", "config": {"scale": 1.0, "mode": "fan_avg", "distribution": "uniform", "seed": null}}, "bias_initializer": {"class_name": "Zeros", "config": {}}, "kernel_regularizer": null, "bias_regularizer": null, "activity_regularizer": null, "kernel_constraint": null, "bias_constraint": null}, "name": "conv2d_17_insert", "inbound_nodes": [[["custom_crop_layer_8", 0, 0, {}]]]}, {"class_name": "Concatenate", "config": {"name": "concatenate_1_copy_ML", "trainable": true, "dtype": "float32", "axis": 3}, "name": "concatenate_1_copy_ML", "inbound_nodes": [[["cropping2d_1_merge1", 0, 0, {}], ["cropping2d", 0, 0, {}]]]}], "input_layers": [["input_4", 0, 0]], "output_layers": [["conv2d_17_insert", 0, 0], ["cropping2d", 0, 0], ["concatenate_1_copy_ML", 0, 0]]}, "keras_version": "2.7.0", "backend": "tensorflow"}