{"class_name": "Functional", "config": {"name": "model_7391", "layers": [{"class_name": "InputLayer", "config": {"batch_input_shape": [null, 299, 299, 3], "dtype": "float32", "sparse": false, "ragged": false, "name": "input_948"}, "name": "input_948", "inbound_nodes": []}, {"class_name": "Conv2D", "config": {"name": "conv2d_1", "trainable": true, "dtype": "float32", "filters": 32, "kernel_size": [3, 3], "strides": [2, 2], "padding": "valid", "data_format": "channels_last", "dilation_rate": [1, 1], "groups": 1, "activation": "linear", "use_bias": false, "kernel_initializer": {"class_name": "VarianceScaling", "config": {"scale": 1.0, "mode": "fan_avg", "distribution": "uniform", "seed": null}}, "bias_initializer": {"class_name": "Zeros", "config": {}}, "kernel_regularizer": null, "bias_regularizer": null, "activity_regularizer": null, "kernel_constraint": null, "bias_constraint": null}, "name": "conv2d_1", "inbound_nodes": [[["input_948", 0, 0, {}]]]}, {"class_name": "AveragePooling2D", "config": {"name": "average_pooling2d_1209_insert", "trainable": true, "dtype": "float32", "pool_size": [3, 3], "padding": "same", "strides": [1, 1], "data_format": "channels_last"}, "name": "average_pooling2d_1209_insert", "inbound_nodes": [[["conv2d_1", 0, 0, {}]]]}, {"class_name": "BatchNormalization", "config": {"name": "batch_normalization_2145_insert", "trainable": true, "dtype": "float32", "axis": [3], "momentum": 0.99, "epsilon": 0.001, "center": true, "scale": false, "beta_initializer": {"class_name": "Zeros", "config": {}}, "gamma_initializer": {"class_name": "Ones", "config": {}}, "moving_mean_initializer": {"class_name": "Zeros", "config": {}}, "moving_variance_initializer": {"class_name": "Ones", "config": {}}, "beta_regularizer": null, "gamma_regularizer": null, "beta_constraint": null, "gamma_constraint": null}, "name": "batch_normalization_2145_insert", "inbound_nodes": [[["average_pooling2d_1209_insert", 0, 0, {}]]]}, {"class_name": "MaxPooling2D", "config": {"name": "max_pooling2d_1745_insert", "trainable": true, "dtype": "float32", "pool_size": [3, 3], "padding": "valid", "strides": [2, 2], "data_format": "channels_last"}, "name": "max_pooling2d_1745_insert", "inbound_nodes": [[["batch_normalization_2145_insert", 0, 0, {}]]]}, {"class_name": "Conv2D", "config": {"name": "conv2d_5053_insert", "trainable": true, "dtype": "float32", "filters": 9, "kernel_size": [1, 3], "strides": [1, 1], "padding": "same", "data_format": "channels_last", "dilation_rate": [1, 1], "groups": 1, "activation": "linear", "use_bias": false, "kernel_initializer": {"class_name": "VarianceScaling", "config": {"scale": 1.0, "mode": "fan_avg", "distribution": "uniform", "seed": null}}, "bias_initializer": {"class_name": "Zeros", "config": {}}, "kernel_regularizer": null, "bias_regularizer": null, "activity_regularizer": null, "kernel_constraint": null, "bias_constraint": null}, "name": "conv2d_5053_insert", "inbound_nodes": [[["max_pooling2d_1745_insert", 0, 0, {}]]]}, {"class_name": "Conv2D", "config": {"name": "conv2d_5055_insert", "trainable": true, "dtype": "float32", "filters": 1, "kernel_size": [7, 1], "strides": [1, 1], "padding": "same", "data_format": "channels_last", "dilation_rate": [1, 1], "groups": 1, "activation": "linear", "use_bias": false, "kernel_initializer": {"class_name": "VarianceScaling", "config": {"scale": 1.0, "mode": "fan_avg", "distribution": "uniform", "seed": null}}, "bias_initializer": {"class_name": "Zeros", "config": {}}, "kernel_regularizer": null, "bias_regularizer": null, "activity_regularizer": null, "kernel_constraint": null, "bias_constraint": null}, "name": "conv2d_5055_insert", "inbound_nodes": [[["conv2d_5053_insert", 0, 0, {}]]]}, {"class_name": "Conv2D", "config": {"name": "conv2d_5057_insert", "trainable": true, "dtype": "float32", "filters": 1, "kernel_size": [3, 3], "strides": [1, 1], "padding": "valid", "data_format": "channels_last", "dilation_rate": [1, 1], "groups": 1, "activation": "linear", "use_bias": false, "kernel_initializer": {"class_name": "VarianceScaling", "config": {"scale": 1.0, "mode": "fan_avg", "distribution": "uniform", "seed": null}}, "bias_initializer": {"class_name": "Zeros", "config": {}}, "kernel_regularizer": null, "bias_regularizer": null, "activity_regularizer": null, "kernel_constraint": null, "bias_constraint": null}, "name": "conv2d_5057_insert", "inbound_nodes": [[["conv2d_5055_insert", 0, 0, {}]]]}, {"class_name": "Conv2D", "config": {"name": "conv2d_5059_insert_1", "trainable": true, "dtype": "float32", "filters": 3, "kernel_size": [1, 1], "strides": [1, 1], "padding": "same", "data_format": "channels_last", "dilation_rate": [1, 1], "groups": 1, "activation": "linear", "use_bias": false, "kernel_initializer": {"class_name": "VarianceScaling", "config": {"scale": 1.0, "mode": "fan_avg", "distribution": "uniform", "seed": null}}, "bias_initializer": {"class_name": "Zeros", "config": {}}, "kernel_regularizer": null, "bias_regularizer": null, "activity_regularizer": null, "kernel_constraint": null, "bias_constraint": null}, "name": "conv2d_5059_insert_1", "inbound_nodes": [[["conv2d_5057_insert", 0, 0, {}]]]}, {"class_name": "GlobalAveragePooling2D", "config": {"name": "global_average_pooling2d_1589_insert", "trainable": true, "dtype": "float32", "data_format": "channels_last", "keepdims": false}, "name": "global_average_pooling2d_1589_insert", "inbound_nodes": [[["conv2d_5059_insert_1", 0, 0, {}]]]}, {"class_name": "CustomExpandLayer", "config": {"name": "custom_expand_layer_1617_insert", "trainable": true, "dtype": "float32", "axis": 1}, "name": "custom_expand_layer_1617_insert", "inbound_nodes": [[["global_average_pooling2d_1589_insert", 0, 0, {}]]]}, {"class_name": "CustomExpandLayer", "config": {"name": "custom_expand_layer_1618_insert", "trainable": true, "dtype": "float32", "axis": 1}, "name": "custom_expand_layer_1618_insert", "inbound_nodes": [[["custom_expand_layer_1617_insert", 0, 0, {}]]]}, {"class_name": "Conv2D", "config": {"name": "conv2d_5061_insert", "trainable": true, "dtype": "float32", "filters": 7, "kernel_size": [1, 1], "strides": [1, 1], "padding": "valid", "data_format": "channels_last", "dilation_rate": [1, 1], "groups": 1, "activation": "linear", "use_bias": false, "kernel_initializer": {"class_name": "VarianceScaling", "config": {"scale": 1.0, "mode": "fan_avg", "distribution": "uniform", "seed": null}}, "bias_initializer": {"class_name": "Zeros", "config": {}}, "kernel_regularizer": null, "bias_regularizer": null, "activity_regularizer": null, "kernel_constraint": null, "bias_constraint": null}, "name": "conv2d_5061_insert", "inbound_nodes": [[["custom_expand_layer_1618_insert", 0, 0, {}]]]}, {"class_name": "Conv2D", "config": {"name": "conv2d_5063_insert", "trainable": true, "dtype": "float32", "filters": 6, "kernel_size": [5, 5], "strides": [1, 1], "padding": "same", "data_format": "channels_last", "dilation_rate": [1, 1], "groups": 1, "activation": "linear", "use_bias": false, "kernel_initializer": {"class_name": "VarianceScaling", "config": {"scale": 1.0, "mode": "fan_avg", "distribution": "uniform", "seed": null}}, "bias_initializer": {"class_name": "Zeros", "config": {}}, "kernel_regularizer": null, "bias_regularizer": null, "activity_regularizer": null, "kernel_constraint": null, "bias_constraint": null}, "name": "conv2d_5063_insert", "inbound_nodes": [[["conv2d_5061_insert", 0, 0, {}]]]}, {"class_name": "Conv2D", "config": {"name": "conv2d_5065_insert", "trainable": true, "dtype": "float32", "filters": 4, "kernel_size": [3, 3], "strides": [1, 1], "padding": "same", "data_format": "channels_last", "dilation_rate": [1, 1], "groups": 1, "activation": "linear", "use_bias": false, "kernel_initializer": {"class_name": "VarianceScaling", "config": {"scale": 1.0, "mode": "fan_avg", "distribution": "uniform", "seed": null}}, "bias_initializer": {"class_name": "Zeros", "config": {}}, "kernel_regularizer": null, "bias_regularizer": null, "activity_regularizer": null, "kernel_constraint": null, "bias_constraint": null}, "name": "conv2d_5065_insert", "inbound_nodes": [[["conv2d_5063_insert", 0, 0, {}]]]}, {"class_name": "Conv2D", "config": {"name": "conv2d_5067_insert", "trainable": true, "dtype": "float32", "filters": 3, "kernel_size": [1, 7], "strides": [1, 1], "padding": "same", "data_format": "channels_last", "dilation_rate": [1, 1], "groups": 1, "activation": "linear", "use_bias": false, "kernel_initializer": {"class_name": "VarianceScaling", "config": {"scale": 1.0, "mode": "fan_avg", "distribution": "uniform", "seed": null}}, "bias_initializer": {"class_name": "Zeros", "config": {}}, "kernel_regularizer": null, "bias_regularizer": null, "activity_regularizer": null, "kernel_constraint": null, "bias_constraint": null}, "name": "conv2d_5067_insert", "inbound_nodes": [[["conv2d_5065_insert", 0, 0, {}]]]}, {"class_name": "Conv2D", "config": {"name": "conv2d_5069_insert", "trainable": true, "dtype": "float32", "filters": 9, "kernel_size": [3, 1], "strides": [1, 1], "padding": "same", "data_format": "channels_last", "dilation_rate": [1, 1], "groups": 1, "activation": "linear", "use_bias": false, "kernel_initializer": {"class_name": "VarianceScaling", "config": {"scale": 1.0, "mode": "fan_avg", "distribution": "uniform", "seed": null}}, "bias_initializer": {"class_name": "Zeros", "config": {}}, "kernel_regularizer": null, "bias_regularizer": null, "activity_regularizer": null, "kernel_constraint": null, "bias_constraint": null}, "name": "conv2d_5069_insert", "inbound_nodes": [[["conv2d_5067_insert", 0, 0, {}]]]}, {"class_name": "CustomPadLayer", "config": {"name": "custom_pad_layer_902", "trainable": true, "dtype": "float32", "padding": [[4, 5], [7, 7], [3, 4]], "constant_values": 2}, "name": "custom_pad_layer_902", "inbound_nodes": [[["conv2d_5069_insert", 0, 0, {}]]]}, {"class_name": "MaxPooling2D", "config": {"name": "max_pooling2d_1747_insert", "trainable": true, "dtype": "float32", "pool_size": [3, 3], "padding": "valid", "strides": [2, 2], "data_format": "channels_last"}, "name": "max_pooling2d_1747_insert", "inbound_nodes": [[["custom_pad_layer_902", 0, 0, {}]]]}, {"class_name": "CustomPadLayer", "config": {"name": "custom_pad_layer_903", "trainable": true, "dtype": "float32", "padding": [[3, 3], [6, 6], [0, 0]], "constant_values": 2}, "name": "custom_pad_layer_903", "inbound_nodes": [[["max_pooling2d_1747_insert", 0, 0, {}]]]}, {"class_name": "CustomCropLayer", "config": {"name": "custom_crop_layer_668", "trainable": true, "dtype": "float32", "cropping": [[0, 0], [0, 0], [4, 4]]}, "name": "custom_crop_layer_668", "inbound_nodes": [[["custom_pad_layer_903", 0, 0, {}]]]}, {"class_name": "BatchNormalization", "config": {"name": "batch_normalization_2147_insert", "trainable": true, "dtype": "float32", "axis": [3], "momentum": 0.99, "epsilon": 0.001, "center": true, "scale": false, "beta_initializer": {"class_name": "Zeros", "config": {}}, "gamma_initializer": {"class_name": "Ones", "config": {}}, "moving_mean_initializer": {"class_name": "Zeros", "config": {}}, "moving_variance_initializer": {"class_name": "Ones", "config": {}}, "beta_regularizer": null, "gamma_regularizer": null, "beta_constraint": null, "gamma_constraint": null}, "name": "batch_normalization_2147_insert", "inbound_nodes": [[["custom_crop_layer_668", 0, 0, {}]]]}, {"class_name": "CustomPadLayer", "config": {"name": "custom_pad_layer_904", "trainable": true, "dtype": "float32", "padding": [[2, 2], [0, 0], [4, 4]], "constant_values": 2}, "name": "custom_pad_layer_904", "inbound_nodes": [[["batch_normalization_2147_insert", 0, 0, {}]]]}, {"class_name": "BatchNormalization", "config": {"name": "batch_normalization_2149_insert_1", "trainable": true, "dtype": "float32", "axis": [3], "momentum": 0.99, "epsilon": 0.001, "center": true, "scale": false, "beta_initializer": {"class_name": "Zeros", "config": {}}, "gamma_initializer": {"class_name": "Ones", "config": {}}, "moving_mean_initializer": {"class_name": "Zeros", "config": {}}, "moving_variance_initializer": {"class_name": "Ones", "config": {}}, "beta_regularizer": null, "gamma_regularizer": null, "beta_constraint": null, "gamma_constraint": null}, "name": "batch_normalization_2149_insert_1", "inbound_nodes": [[["custom_pad_layer_904", 0, 0, {}]]]}, {"class_name": "CustomPadLayer", "config": {"name": "custom_pad_layer_905", "trainable": true, "dtype": "float32", "padding": [[0, 1], [0, 0], [0, 0]], "constant_values": 2}, "name": "custom_pad_layer_905", "inbound_nodes": [[["batch_normalization_2149_insert_1", 0, 0, {}]]]}, {"class_name": "CustomCropLayer", "config": {"name": "custom_crop_layer_669", "trainable": true, "dtype": "float32", "cropping": [[0, 0], [3, 4], [0, 1]]}, "name": "custom_crop_layer_669", "inbound_nodes": [[["custom_pad_layer_905", 0, 0, {}]]]}, {"class_name": "MaxPooling2D", "config": {"name": "max_pooling2d_1749_insert", "trainable": true, "dtype": "float32", "pool_size": [3, 3], "padding": "valid", "strides": [2, 2], "data_format": "channels_last"}, "name": "max_pooling2d_1749_insert", "inbound_nodes": [[["custom_crop_layer_669", 0, 0, {}]]]}, {"class_name": "CustomPadLayer", "config": {"name": "custom_pad_layer_906", "trainable": true, "dtype": "float32", "padding": [[5, 5], [2, 3], [0, 0]], "constant_values": 2}, "name": "custom_pad_layer_906", "inbound_nodes": [[["max_pooling2d_1749_insert", 0, 0, {}]]]}, {"class_name": "BatchNormalization", "config": {"name": "batch_normalization_2151_insert", "trainable": true, "dtype": "float32", "axis": [3], "momentum": 0.99, "epsilon": 0.001, "center": true, "scale": false, "beta_initializer": {"class_name": "Zeros", "config": {}}, "gamma_initializer": {"class_name": "Ones", "config": {}}, "moving_mean_initializer": {"class_name": "Zeros", "config": {}}, "moving_variance_initializer": {"class_name": "Ones", "config": {}}, "beta_regularizer": null, "gamma_regularizer": null, "beta_constraint": null, "gamma_constraint": null}, "name": "batch_normalization_2151_insert", "inbound_nodes": [[["custom_pad_layer_906", 0, 0, {}]]]}, {"class_name": "CustomPadLayer", "config": {"name": "custom_pad_layer_907", "trainable": true, "dtype": "float32", "padding": [[0, 0], [1, 2], [0, 0]], "constant_values": 2}, "name": "custom_pad_layer_907", "inbound_nodes": [[["batch_normalization_2151_insert", 0, 0, {}]]]}, {"class_name": "CustomCropLayer", "config": {"name": "custom_crop_layer_670", "trainable": true, "dtype": "float32", "cropping": [[3, 4], [0, 0], [2, 2]]}, "name": "custom_crop_layer_670", "inbound_nodes": [[["custom_pad_layer_907", 0, 0, {}]]]}, {"class_name": "BatchNormalization", "config": {"name": "batch_normalization_2153_insert_merge1", "trainable": true, "dtype": "float32", "axis": [3], "momentum": 0.99, "epsilon": 0.001, "center": true, "scale": false, "beta_initializer": {"class_name": "Zeros", "config": {}}, "gamma_initializer": {"class_name": "Ones", "config": {}}, "moving_mean_initializer": {"class_name": "Zeros", "config": {}}, "moving_variance_initializer": {"class_name": "Ones", "config": {}}, "beta_regularizer": null, "gamma_regularizer": null, "beta_constraint": null, "gamma_constraint": null}, "name": "batch_normalization_2153_insert_merge1", "inbound_nodes": [[["custom_crop_layer_670", 0, 0, {}]]]}, {"class_name": "Concatenate", "config": {"name": "concatenate_47_copy_ML", "trainable": true, "dtype": "float32", "axis": 3}, "name": "concatenate_47_copy_ML", "inbound_nodes": [[["batch_normalization_2153_insert_merge1", 0, 0, {}], ["custom_crop_layer_670", 0, 0, {}]]]}, {"class_name": "CustomPadLayer", "config": {"name": "custom_pad_layer_908", "trainable": true, "dtype": "float32", "padding": [[4, 5], [0, 1], [1, 2]], "constant_values": 2}, "name": "custom_pad_layer_908", "inbound_nodes": [[["concatenate_47_copy_ML", 0, 0, {}]]]}, {"class_name": "AveragePooling2D", "config": {"name": "average_pooling2d_1211_insert", "trainable": true, "dtype": "float32", "pool_size": [3, 3], "padding": "same", "strides": [1, 1], "data_format": "channels_last"}, "name": "average_pooling2d_1211_insert", "inbound_nodes": [[["custom_pad_layer_908", 0, 0, {}]]]}, {"class_name": "CustomCropLayer", "config": {"name": "custom_crop_layer_671", "trainable": true, "dtype": "float32", "cropping": [[7, 7], [1, 2], [0, 0]]}, "name": "custom_crop_layer_671", "inbound_nodes": [[["average_pooling2d_1211_insert", 0, 0, {}]]]}, {"class_name": "AveragePooling2D", "config": {"name": "average_pooling2d_1213_insert_1", "trainable": true, "dtype": "float32", "pool_size": [3, 3], "padding": "same", "strides": [1, 1], "data_format": "channels_last"}, "name": "average_pooling2d_1213_insert_1", "inbound_nodes": [[["custom_crop_layer_671", 0, 0, {}]]]}, {"class_name": "CustomPadLayer", "config": {"name": "custom_pad_layer_909", "trainable": true, "dtype": "float32", "padding": [[1, 1], [2, 3], [0, 0]], "constant_values": 2}, "name": "custom_pad_layer_909", "inbound_nodes": [[["average_pooling2d_1213_insert_1", 0, 0, {}]]]}, {"class_name": "CustomCropLayer", "config": {"name": "custom_crop_layer_672", "trainable": true, "dtype": "float32", "cropping": [[0, 0], [0, 0], [1, 1]]}, "name": "custom_crop_layer_672", "inbound_nodes": [[["custom_pad_layer_909", 0, 0, {}]]]}, {"class_name": "AveragePooling2D", "config": {"name": "average_pooling2d_1215_insert", "trainable": true, "dtype": "float32", "pool_size": [3, 3], "padding": "same", "strides": [1, 1], "data_format": "channels_last"}, "name": "average_pooling2d_1215_insert", "inbound_nodes": [[["custom_crop_layer_672", 0, 0, {}]]]}, {"class_name": "CustomPadLayer", "config": {"name": "custom_pad_layer_910", "trainable": true, "dtype": "float32", "padding": [[0, 0], [0, 0], [0, 1]], "constant_values": 2}, "name": "custom_pad_layer_910", "inbound_nodes": [[["average_pooling2d_1215_insert", 0, 0, {}]]]}, {"class_name": "CustomCropLayer", "config": {"name": "custom_crop_layer_673", "trainable": true, "dtype": "float32", "cropping": [[0, 0], [2, 2], [0, 0]]}, "name": "custom_crop_layer_673", "inbound_nodes": [[["custom_pad_layer_910", 0, 0, {}]]]}, {"class_name": "AveragePooling2D", "config": {"name": "average_pooling2d_1217_insert", "trainable": true, "dtype": "float32", "pool_size": [3, 3], "padding": "same", "strides": [1, 1], "data_format": "channels_last"}, "name": "average_pooling2d_1217_insert", "inbound_nodes": [[["custom_crop_layer_673", 0, 0, {}]]]}, {"class_name": "CustomPadLayer", "config": {"name": "custom_pad_layer_911", "trainable": true, "dtype": "float32", "padding": [[4, 5], [0, 0], [0, 0]], "constant_values": 2}, "name": "custom_pad_layer_911", "inbound_nodes": [[["average_pooling2d_1217_insert", 0, 0, {}]]]}, {"class_name": "CustomCropLayer", "config": {"name": "custom_crop_layer_674", "trainable": true, "dtype": "float32", "cropping": [[0, 0], [0, 1], [0, 1]]}, "name": "custom_crop_layer_674", "inbound_nodes": [[["custom_pad_layer_911", 0, 0, {}]]]}, {"class_name": "MaxPooling2D", "config": {"name": "max_pooling2d_1751_insert", "trainable": true, "dtype": "float32", "pool_size": [3, 3], "padding": "valid", "strides": [2, 2], "data_format": "channels_last"}, "name": "max_pooling2d_1751_insert", "inbound_nodes": [[["custom_crop_layer_674", 0, 0, {}]]]}, {"class_name": "BatchNormalization", "config": {"name": "batch_normalization_2149_insert_2", "trainable": true, "dtype": "float32", "axis": [3], "momentum": 0.99, "epsilon": 0.001, "center": true, "scale": false, "beta_initializer": {"class_name": "Zeros", "config": {}}, "gamma_initializer": {"class_name": "Ones", "config": {}}, "moving_mean_initializer": {"class_name": "Zeros", "config": {}}, "moving_variance_initializer": {"class_name": "Ones", "config": {}}, "beta_regularizer": null, "gamma_regularizer": null, "beta_constraint": null, "gamma_constraint": null}, "name": "batch_normalization_2149_insert_2", "inbound_nodes": [[["conv2d_5053_insert", 0, 0, {}]]]}, {"class_name": "Conv2D", "config": {"name": "conv2d_5059_insert_2", "trainable": true, "dtype": "float32", "filters": 3, "kernel_size": [1, 1], "strides": [1, 1], "padding": "same", "data_format": "channels_last", "dilation_rate": [1, 1], "groups": 1, "activation": "linear", "use_bias": false, "kernel_initializer": {"class_name": "VarianceScaling", "config": {"scale": 1.0, "mode": "fan_avg", "distribution": "uniform", "seed": null}}, "bias_initializer": {"class_name": "Zeros", "config": {}}, "kernel_regularizer": null, "bias_regularizer": null, "activity_regularizer": null, "kernel_constraint": null, "bias_constraint": null}, "name": "conv2d_5059_insert_2", "inbound_nodes": [[["average_pooling2d_1215_insert", 0, 0, {}]]]}, {"class_name": "AveragePooling2D", "config": {"name": "average_pooling2d_1213_insert_2", "trainable": true, "dtype": "float32", "pool_size": [3, 3], "padding": "same", "strides": [1, 1], "data_format": "channels_last"}, "name": "average_pooling2d_1213_insert_2", "inbound_nodes": [[["max_pooling2d_1751_insert", 0, 0, {}]]]}, {"class_name": "Cropping2D", "config": {"name": "cropping2d_91", "trainable": true, "dtype": "float32", "cropping": [[32, 32], [32, 32]], "data_format": "channels_last"}, "name": "cropping2d_91", "inbound_nodes": [[["batch_normalization_2149_insert_2", 0, 0, {}]]]}], "input_layers": [["input_948", 0, 0]], "output_layers": [["conv2d_5059_insert_2", 0, 0], ["average_pooling2d_1213_insert_2", 0, 0], ["cropping2d_91", 0, 0]]}, "keras_version": "2.7.0", "backend": "tensorflow"}