{"class_name": "Functional", "config": {"name": "model_8833", "layers": [{"class_name": "InputLayer", "config": {"batch_input_shape": [null, 32, 32, 3], "dtype": "float32", "sparse": false, "ragged": false, "name": "input_1104"}, "name": "input_1104", "inbound_nodes": []}, {"class_name": "Conv2D", "config": {"name": "conv2d_1_1", "trainable": true, "batch_input_shape": [null, 32, 32, 3], "dtype": "float32", "filters": 96, "kernel_size": [3, 3], "strides": [2, 2], "padding": "same", "data_format": "channels_last", "dilation_rate": [1, 1], "groups": 1, "activation": "relu", "use_bias": true, "kernel_initializer": {"class_name": "VarianceScaling", "config": {"scale": 1.0, "mode": "fan_avg", "distribution": "uniform", "seed": null}}, "bias_initializer": {"class_name": "Zeros", "config": {}}, "kernel_regularizer": null, "bias_regularizer": null, "activity_regularizer": null, "kernel_constraint": null, "bias_constraint": null}, "name": "conv2d_1_1", "inbound_nodes": [[["input_1104", 0, 0, {}]]]}, {"class_name": "MaxPooling2D", "config": {"name": "max_pooling2d_2065_insert", "trainable": true, "dtype": "float32", "pool_size": [2, 2], "padding": "valid", "strides": [2, 2], "data_format": "channels_last"}, "name": "max_pooling2d_2065_insert", "inbound_nodes": [[["conv2d_1_1", 0, 0, {}]]]}, {"class_name": "MaxPooling2D", "config": {"name": "max_pooling2d_2067_insert", "trainable": true, "dtype": "float32", "pool_size": [3, 3], "padding": "valid", "strides": [2, 2], "data_format": "channels_last"}, "name": "max_pooling2d_2067_insert", "inbound_nodes": [[["max_pooling2d_2065_insert", 0, 0, {}]]]}, {"class_name": "BatchNormalization", "config": {"name": "batch_normalization_2623_insert", "trainable": true, "dtype": "float32", "axis": [3], "momentum": 0.99, "epsilon": 0.001, "center": true, "scale": true, "beta_initializer": {"class_name": "Zeros", "config": {}}, "gamma_initializer": {"class_name": "Ones", "config": {}}, "moving_mean_initializer": {"class_name": "Zeros", "config": {}}, "moving_variance_initializer": {"class_name": "Ones", "config": {}}, "beta_regularizer": null, "gamma_regularizer": null, "beta_constraint": null, "gamma_constraint": null}, "name": "batch_normalization_2623_insert", "inbound_nodes": [[["max_pooling2d_2067_insert", 0, 0, {}]]]}, {"class_name": "Conv2D", "config": {"name": "conv2d_5951_insert", "trainable": true, "dtype": "float32", "filters": 6, "kernel_size": [5, 5], "strides": [1, 1], "padding": "same", "data_format": "channels_last", "dilation_rate": [1, 1], "groups": 1, "activation": "relu", "use_bias": true, "kernel_initializer": {"class_name": "VarianceScaling", "config": {"scale": 1.0, "mode": "fan_avg", "distribution": "uniform", "seed": null}}, "bias_initializer": {"class_name": "Zeros", "config": {}}, "kernel_regularizer": null, "bias_regularizer": null, "activity_regularizer": null, "kernel_constraint": null, "bias_constraint": null}, "name": "conv2d_5951_insert", "inbound_nodes": [[["batch_normalization_2623_insert", 0, 0, {}]]]}, {"class_name": "Dropout", "config": {"name": "dropout_407_insert", "trainable": true, "dtype": "float32", "rate": 0.5, "noise_shape": null, "seed": null}, "name": "dropout_407_insert", "inbound_nodes": [[["conv2d_5951_insert", 0, 0, {}]]]}, {"class_name": "Flatten", "config": {"name": "flatten_138_insert_1", "trainable": true, "dtype": "float32", "data_format": "channels_last"}, "name": "flatten_138_insert_1", "inbound_nodes": [[["dropout_407_insert", 0, 0, {}]]]}, {"class_name": "CustomExpandLayer", "config": {"name": "custom_expand_layer_1861_insert", "trainable": true, "dtype": "float32", "axis": 1}, "name": "custom_expand_layer_1861_insert", "inbound_nodes": [[["flatten_138_insert_1", 0, 0, {}]]]}, {"class_name": "CustomExpandLayer", "config": {"name": "custom_expand_layer_1862_insert", "trainable": true, "dtype": "float32", "axis": 1}, "name": "custom_expand_layer_1862_insert", "inbound_nodes": [[["custom_expand_layer_1861_insert", 0, 0, {}]]]}, {"class_name": "Conv2D", "config": {"name": "conv2d_5953_insert", "trainable": true, "dtype": "float32", "filters": 7, "kernel_size": [3, 3], "strides": [1, 1], "padding": "same", "data_format": "channels_last", "dilation_rate": [1, 1], "groups": 1, "activation": "relu", "use_bias": true, "kernel_initializer": {"class_name": "VarianceScaling", "config": {"scale": 1.0, "mode": "fan_avg", "distribution": "uniform", "seed": null}}, "bias_initializer": {"class_name": "Zeros", "config": {}}, "kernel_regularizer": null, "bias_regularizer": null, "activity_regularizer": null, "kernel_constraint": null, "bias_constraint": null}, "name": "conv2d_5953_insert", "inbound_nodes": [[["custom_expand_layer_1862_insert", 0, 0, {}]]]}, {"class_name": "CustomDropDimLayer", "config": {"name": "custom_drop_dim_layer_14", "trainable": true, "dtype": "float32", "axis": 1}, "name": "custom_drop_dim_layer_14", "inbound_nodes": [[["conv2d_5953_insert", 0, 0, {}]]]}, {"class_name": "CustomDropDimLayer", "config": {"name": "custom_drop_dim_layer_15", "trainable": true, "dtype": "float32", "axis": 1}, "name": "custom_drop_dim_layer_15", "inbound_nodes": [[["custom_drop_dim_layer_14", 0, 0, {}]]]}, {"class_name": "Dropout", "config": {"name": "dropout_409_insert", "trainable": true, "dtype": "float32", "rate": 0.5, "noise_shape": null, "seed": null}, "name": "dropout_409_insert", "inbound_nodes": [[["custom_drop_dim_layer_15", 0, 0, {}]]]}, {"class_name": "CustomExpandLayer", "config": {"name": "custom_expand_layer_1863", "trainable": true, "dtype": "float32", "axis": 1}, "name": "custom_expand_layer_1863", "inbound_nodes": [[["dropout_409_insert", 0, 0, {}]]]}, {"class_name": "CustomExpandLayer", "config": {"name": "custom_expand_layer_1864", "trainable": true, "dtype": "float32", "axis": 1}, "name": "custom_expand_layer_1864", "inbound_nodes": [[["custom_expand_layer_1863", 0, 0, {}]]]}, {"class_name": "CustomPadLayer", "config": {"name": "custom_pad_layer_1193", "trainable": true, "dtype": "float32", "padding": [[5, 6], [9, 9], [3, 4]], "constant_values": 2}, "name": "custom_pad_layer_1193", "inbound_nodes": [[["custom_expand_layer_1864", 0, 0, {}]]]}, {"class_name": "BatchNormalization", "config": {"name": "batch_normalization_2625_insert", "trainable": true, "dtype": "float32", "axis": [3], "momentum": 0.99, "epsilon": 0.001, "center": true, "scale": true, "beta_initializer": {"class_name": "Zeros", "config": {}}, "gamma_initializer": {"class_name": "Ones", "config": {}}, "moving_mean_initializer": {"class_name": "Zeros", "config": {}}, "moving_variance_initializer": {"class_name": "Ones", "config": {}}, "beta_regularizer": null, "gamma_regularizer": null, "beta_constraint": null, "gamma_constraint": null}, "name": "batch_normalization_2625_insert", "inbound_nodes": [[["custom_pad_layer_1193", 0, 0, {}]]]}, {"class_name": "CustomPadLayer", "config": {"name": "custom_pad_layer_1194", "trainable": true, "dtype": "float32", "padding": [[3, 4], [0, 0], [0, 0]], "constant_values": 2}, "name": "custom_pad_layer_1194", "inbound_nodes": [[["batch_normalization_2625_insert", 0, 0, {}]]]}, {"class_name": "CustomCropLayer", "config": {"name": "custom_crop_layer_881", "trainable": true, "dtype": "float32", "cropping": [[0, 0], [2, 3], [0, 1]]}, "name": "custom_crop_layer_881", "inbound_nodes": [[["custom_pad_layer_1194", 0, 0, {}]]]}, {"class_name": "Conv2D", "config": {"name": "conv2d_5955_insert", "trainable": true, "dtype": "float32", "filters": 4, "kernel_size": [3, 3], "strides": [1, 1], "padding": "same", "data_format": "channels_last", "dilation_rate": [1, 1], "groups": 1, "activation": "relu", "use_bias": true, "kernel_initializer": {"class_name": "VarianceScaling", "config": {"scale": 1.0, "mode": "fan_avg", "distribution": "uniform", "seed": null}}, "bias_initializer": {"class_name": "Zeros", "config": {}}, "kernel_regularizer": null, "bias_regularizer": null, "activity_regularizer": null, "kernel_constraint": null, "bias_constraint": null}, "name": "conv2d_5955_insert", "inbound_nodes": [[["custom_crop_layer_881", 0, 0, {}]]]}, {"class_name": "CustomPadLayer", "config": {"name": "custom_pad_layer_1195", "trainable": true, "dtype": "float32", "padding": [[0, 0], [0, 1], [0, 1]], "constant_values": 2}, "name": "custom_pad_layer_1195", "inbound_nodes": [[["conv2d_5955_insert", 0, 0, {}]]]}, {"class_name": "CustomCropLayer", "config": {"name": "custom_crop_layer_882", "trainable": true, "dtype": "float32", "cropping": [[7, 7], [0, 0], [0, 0]]}, "name": "custom_crop_layer_882", "inbound_nodes": [[["custom_pad_layer_1195", 0, 0, {}]]]}, {"class_name": "BatchNormalization", "config": {"name": "batch_normalization_2627_insert", "trainable": true, "dtype": "float32", "axis": [3], "momentum": 0.99, "epsilon": 0.001, "center": true, "scale": true, "beta_initializer": {"class_name": "Zeros", "config": {}}, "gamma_initializer": {"class_name": "Ones", "config": {}}, "moving_mean_initializer": {"class_name": "Zeros", "config": {}}, "moving_variance_initializer": {"class_name": "Ones", "config": {}}, "beta_regularizer": null, "gamma_regularizer": null, "beta_constraint": null, "gamma_constraint": null}, "name": "batch_normalization_2627_insert", "inbound_nodes": [[["custom_crop_layer_882", 0, 0, {}]]]}, {"class_name": "CustomPadLayer", "config": {"name": "custom_pad_layer_1196", "trainable": true, "dtype": "float32", "padding": [[0, 1], [0, 0], [4, 4]], "constant_values": 2}, "name": "custom_pad_layer_1196", "inbound_nodes": [[["batch_normalization_2627_insert", 0, 0, {}]]]}, {"class_name": "CustomCropLayer", "config": {"name": "custom_crop_layer_883", "trainable": true, "dtype": "float32", "cropping": [[0, 0], [3, 3], [0, 0]]}, "name": "custom_crop_layer_883", "inbound_nodes": [[["custom_pad_layer_1196", 0, 0, {}]]]}, {"class_name": "MaxPooling2D", "config": {"name": "max_pooling2d_2069_insert", "trainable": true, "dtype": "float32", "pool_size": [2, 2], "padding": "valid", "strides": [2, 2], "data_format": "channels_last"}, "name": "max_pooling2d_2069_insert", "inbound_nodes": [[["custom_crop_layer_883", 0, 0, {}]]]}, {"class_name": "Flatten", "config": {"name": "flatten_138_insert_2", "trainable": true, "dtype": "float32", "data_format": "channels_last"}, "name": "flatten_138_insert_2", "inbound_nodes": [[["batch_normalization_2623_insert", 0, 0, {}]]]}, {"class_name": "Conv2D", "config": {"name": "conv2d_1_2", "trainable": true, "batch_input_shape": [null, 32, 32, 3], "dtype": "float32", "filters": 96, "kernel_size": [3, 3], "strides": [2, 2], "padding": "same", "data_format": "channels_last", "dilation_rate": [1, 1], "groups": 1, "activation": "relu", "use_bias": true, "kernel_initializer": {"class_name": "VarianceScaling", "config": {"scale": 1.0, "mode": "fan_avg", "distribution": "uniform", "seed": null}}, "bias_initializer": {"class_name": "Zeros", "config": {}}, "kernel_regularizer": null, "bias_regularizer": null, "activity_regularizer": null, "kernel_constraint": null, "bias_constraint": null}, "name": "conv2d_1_2", "inbound_nodes": [[["conv2d_5953_insert", 0, 0, {}]]]}], "input_layers": [["input_1104", 0, 0]], "output_layers": [["max_pooling2d_2069_insert", 0, 0], ["flatten_138_insert_2", 0, 0], ["conv2d_1_2", 0, 0]]}, "keras_version": "2.7.0", "backend": "tensorflow"}