{"class_name": "Functional", "config": {"name": "model_9057", "layers": [{"class_name": "InputLayer", "config": {"batch_input_shape": [null, 299, 299, 3], "dtype": "float32", "sparse": false, "ragged": false, "name": "input_1132"}, "name": "input_1132", "inbound_nodes": []}, {"class_name": "Conv2D", "config": {"name": "conv2d_1", "trainable": true, "dtype": "float32", "filters": 32, "kernel_size": [3, 3], "strides": [2, 2], "padding": "valid", "data_format": "channels_last", "dilation_rate": [1, 1], "groups": 1, "activation": "linear", "use_bias": false, "kernel_initializer": {"class_name": "VarianceScaling", "config": {"scale": 1.0, "mode": "fan_avg", "distribution": "uniform", "seed": null}}, "bias_initializer": {"class_name": "Zeros", "config": {}}, "kernel_regularizer": null, "bias_regularizer": null, "activity_regularizer": null, "kernel_constraint": null, "bias_constraint": null}, "name": "conv2d_1", "inbound_nodes": [[["input_1132", 0, 0, {}]]]}, {"class_name": "Conv2D", "config": {"name": "conv2d_6083_insert", "trainable": true, "dtype": "float32", "filters": 2, "kernel_size": [7, 1], "strides": [1, 1], "padding": "same", "data_format": "channels_last", "dilation_rate": [1, 1], "groups": 1, "activation": "linear", "use_bias": false, "kernel_initializer": {"class_name": "VarianceScaling", "config": {"scale": 1.0, "mode": "fan_avg", "distribution": "uniform", "seed": null}}, "bias_initializer": {"class_name": "Zeros", "config": {}}, "kernel_regularizer": null, "bias_regularizer": null, "activity_regularizer": null, "kernel_constraint": null, "bias_constraint": null}, "name": "conv2d_6083_insert", "inbound_nodes": [[["conv2d_1", 0, 0, {}]]]}, {"class_name": "BatchNormalization", "config": {"name": "batch_normalization_2689_insert", "trainable": true, "dtype": "float32", "axis": [3], "momentum": 0.99, "epsilon": 0.001, "center": true, "scale": false, "beta_initializer": {"class_name": "Zeros", "config": {}}, "gamma_initializer": {"class_name": "Ones", "config": {}}, "moving_mean_initializer": {"class_name": "Zeros", "config": {}}, "moving_variance_initializer": {"class_name": "Ones", "config": {}}, "beta_regularizer": null, "gamma_regularizer": null, "beta_constraint": null, "gamma_constraint": null}, "name": "batch_normalization_2689_insert", "inbound_nodes": [[["conv2d_6083_insert", 0, 0, {}]]]}, {"class_name": "AveragePooling2D", "config": {"name": "average_pooling2d_1459_insert", "trainable": true, "dtype": "float32", "pool_size": [3, 3], "padding": "same", "strides": [1, 1], "data_format": "channels_last"}, "name": "average_pooling2d_1459_insert", "inbound_nodes": [[["batch_normalization_2689_insert", 0, 0, {}]]]}, {"class_name": "MaxPooling2D", "config": {"name": "max_pooling2d_2109_insert", "trainable": true, "dtype": "float32", "pool_size": [3, 3], "padding": "valid", "strides": [2, 2], "data_format": "channels_last"}, "name": "max_pooling2d_2109_insert", "inbound_nodes": [[["average_pooling2d_1459_insert", 0, 0, {}]]]}, {"class_name": "Conv2D", "config": {"name": "conv2d_6085_insert", "trainable": true, "dtype": "float32", "filters": 3, "kernel_size": [3, 1], "strides": [1, 1], "padding": "same", "data_format": "channels_last", "dilation_rate": [1, 1], "groups": 1, "activation": "linear", "use_bias": false, "kernel_initializer": {"class_name": "VarianceScaling", "config": {"scale": 1.0, "mode": "fan_avg", "distribution": "uniform", "seed": null}}, "bias_initializer": {"class_name": "Zeros", "config": {}}, "kernel_regularizer": null, "bias_regularizer": null, "activity_regularizer": null, "kernel_constraint": null, "bias_constraint": null}, "name": "conv2d_6085_insert", "inbound_nodes": [[["max_pooling2d_2109_insert", 0, 0, {}]]]}, {"class_name": "Conv2D", "config": {"name": "conv2d_6087_insert", "trainable": true, "dtype": "float32", "filters": 8, "kernel_size": [3, 3], "strides": [1, 1], "padding": "valid", "data_format": "channels_last", "dilation_rate": [1, 1], "groups": 1, "activation": "linear", "use_bias": false, "kernel_initializer": {"class_name": "VarianceScaling", "config": {"scale": 1.0, "mode": "fan_avg", "distribution": "uniform", "seed": null}}, "bias_initializer": {"class_name": "Zeros", "config": {}}, "kernel_regularizer": null, "bias_regularizer": null, "activity_regularizer": null, "kernel_constraint": null, "bias_constraint": null}, "name": "conv2d_6087_insert", "inbound_nodes": [[["conv2d_6085_insert", 0, 0, {}]]]}, {"class_name": "GlobalAveragePooling2D", "config": {"name": "global_average_pooling2d_1899_insert", "trainable": true, "dtype": "float32", "data_format": "channels_last", "keepdims": false}, "name": "global_average_pooling2d_1899_insert", "inbound_nodes": [[["conv2d_6087_insert", 0, 0, {}]]]}, {"class_name": "CustomExpandLayer", "config": {"name": "custom_expand_layer_1909_insert", "trainable": true, "dtype": "float32", "axis": 1}, "name": "custom_expand_layer_1909_insert", "inbound_nodes": [[["global_average_pooling2d_1899_insert", 0, 0, {}]]]}, {"class_name": "CustomExpandLayer", "config": {"name": "custom_expand_layer_1910_insert", "trainable": true, "dtype": "float32", "axis": 1}, "name": "custom_expand_layer_1910_insert", "inbound_nodes": [[["custom_expand_layer_1909_insert", 0, 0, {}]]]}, {"class_name": "Conv2D", "config": {"name": "conv2d_6089_insert", "trainable": true, "dtype": "float32", "filters": 9, "kernel_size": [1, 1], "strides": [1, 1], "padding": "valid", "data_format": "channels_last", "dilation_rate": [1, 1], "groups": 1, "activation": "linear", "use_bias": false, "kernel_initializer": {"class_name": "VarianceScaling", "config": {"scale": 1.0, "mode": "fan_avg", "distribution": "uniform", "seed": null}}, "bias_initializer": {"class_name": "Zeros", "config": {}}, "kernel_regularizer": null, "bias_regularizer": null, "activity_regularizer": null, "kernel_constraint": null, "bias_constraint": null}, "name": "conv2d_6089_insert", "inbound_nodes": [[["custom_expand_layer_1910_insert", 0, 0, {}]]]}, {"class_name": "Conv2D", "config": {"name": "conv2d_6091_insert", "trainable": true, "dtype": "float32", "filters": 1, "kernel_size": [1, 3], "strides": [1, 1], "padding": "same", "data_format": "channels_last", "dilation_rate": [1, 1], "groups": 1, "activation": "linear", "use_bias": false, "kernel_initializer": {"class_name": "VarianceScaling", "config": {"scale": 1.0, "mode": "fan_avg", "distribution": "uniform", "seed": null}}, "bias_initializer": {"class_name": "Zeros", "config": {}}, "kernel_regularizer": null, "bias_regularizer": null, "activity_regularizer": null, "kernel_constraint": null, "bias_constraint": null}, "name": "conv2d_6091_insert", "inbound_nodes": [[["conv2d_6089_insert", 0, 0, {}]]]}, {"class_name": "Conv2D", "config": {"name": "conv2d_6093_insert", "trainable": true, "dtype": "float32", "filters": 6, "kernel_size": [1, 1], "strides": [1, 1], "padding": "same", "data_format": "channels_last", "dilation_rate": [1, 1], "groups": 1, "activation": "linear", "use_bias": false, "kernel_initializer": {"class_name": "VarianceScaling", "config": {"scale": 1.0, "mode": "fan_avg", "distribution": "uniform", "seed": null}}, "bias_initializer": {"class_name": "Zeros", "config": {}}, "kernel_regularizer": null, "bias_regularizer": null, "activity_regularizer": null, "kernel_constraint": null, "bias_constraint": null}, "name": "conv2d_6093_insert", "inbound_nodes": [[["conv2d_6091_insert", 0, 0, {}]]]}, {"class_name": "Conv2D", "config": {"name": "conv2d_6095_insert", "trainable": true, "dtype": "float32", "filters": 5, "kernel_size": [5, 5], "strides": [1, 1], "padding": "same", "data_format": "channels_last", "dilation_rate": [1, 1], "groups": 1, "activation": "linear", "use_bias": false, "kernel_initializer": {"class_name": "VarianceScaling", "config": {"scale": 1.0, "mode": "fan_avg", "distribution": "uniform", "seed": null}}, "bias_initializer": {"class_name": "Zeros", "config": {}}, "kernel_regularizer": null, "bias_regularizer": null, "activity_regularizer": null, "kernel_constraint": null, "bias_constraint": null}, "name": "conv2d_6095_insert", "inbound_nodes": [[["conv2d_6093_insert", 0, 0, {}]]]}, {"class_name": "Conv2D", "config": {"name": "conv2d_6097_insert", "trainable": true, "dtype": "float32", "filters": 9, "kernel_size": [3, 3], "strides": [1, 1], "padding": "same", "data_format": "channels_last", "dilation_rate": [1, 1], "groups": 1, "activation": "linear", "use_bias": false, "kernel_initializer": {"class_name": "VarianceScaling", "config": {"scale": 1.0, "mode": "fan_avg", "distribution": "uniform", "seed": null}}, "bias_initializer": {"class_name": "Zeros", "config": {}}, "kernel_regularizer": null, "bias_regularizer": null, "activity_regularizer": null, "kernel_constraint": null, "bias_constraint": null}, "name": "conv2d_6097_insert", "inbound_nodes": [[["conv2d_6095_insert", 0, 0, {}]]]}, {"class_name": "Conv2D", "config": {"name": "conv2d_6099_insert_1", "trainable": true, "dtype": "float32", "filters": 3, "kernel_size": [1, 7], "strides": [1, 1], "padding": "same", "data_format": "channels_last", "dilation_rate": [1, 1], "groups": 1, "activation": "linear", "use_bias": false, "kernel_initializer": {"class_name": "VarianceScaling", "config": {"scale": 1.0, "mode": "fan_avg", "distribution": "uniform", "seed": null}}, "bias_initializer": {"class_name": "Zeros", "config": {}}, "kernel_regularizer": null, "bias_regularizer": null, "activity_regularizer": null, "kernel_constraint": null, "bias_constraint": null}, "name": "conv2d_6099_insert_1", "inbound_nodes": [[["conv2d_6097_insert", 0, 0, {}]]]}, {"class_name": "CustomPadLayer", "config": {"name": "custom_pad_layer_1231", "trainable": true, "dtype": "float32", "padding": [[6, 7], [2, 3], [5, 5]], "constant_values": 2}, "name": "custom_pad_layer_1231", "inbound_nodes": [[["conv2d_6099_insert_1", 0, 0, {}]]]}, {"class_name": "MaxPooling2D", "config": {"name": "max_pooling2d_2111_insert", "trainable": true, "dtype": "float32", "pool_size": [3, 3], "padding": "valid", "strides": [2, 2], "data_format": "channels_last"}, "name": "max_pooling2d_2111_insert", "inbound_nodes": [[["custom_pad_layer_1231", 0, 0, {}]]]}, {"class_name": "CustomPadLayer", "config": {"name": "custom_pad_layer_1232", "trainable": true, "dtype": "float32", "padding": [[6, 7], [5, 6], [0, 0]], "constant_values": 2}, "name": "custom_pad_layer_1232", "inbound_nodes": [[["max_pooling2d_2111_insert", 0, 0, {}]]]}, {"class_name": "CustomCropLayer", "config": {"name": "custom_crop_layer_905", "trainable": true, "dtype": "float32", "cropping": [[0, 0], [0, 0], [2, 3]]}, "name": "custom_crop_layer_905", "inbound_nodes": [[["custom_pad_layer_1232", 0, 0, {}]]]}, {"class_name": "BatchNormalization", "config": {"name": "batch_normalization_2691_insert", "trainable": true, "dtype": "float32", "axis": [3], "momentum": 0.99, "epsilon": 0.001, "center": true, "scale": false, "beta_initializer": {"class_name": "Zeros", "config": {}}, "gamma_initializer": {"class_name": "Ones", "config": {}}, "moving_mean_initializer": {"class_name": "Zeros", "config": {}}, "moving_variance_initializer": {"class_name": "Ones", "config": {}}, "beta_regularizer": null, "gamma_regularizer": null, "beta_constraint": null, "gamma_constraint": null}, "name": "batch_normalization_2691_insert", "inbound_nodes": [[["custom_crop_layer_905", 0, 0, {}]]]}, {"class_name": "CustomPadLayer", "config": {"name": "custom_pad_layer_1233", "trainable": true, "dtype": "float32", "padding": [[0, 0], [1, 1], [0, 0]], "constant_values": 2}, "name": "custom_pad_layer_1233", "inbound_nodes": [[["batch_normalization_2691_insert", 0, 0, {}]]]}, {"class_name": "CustomCropLayer", "config": {"name": "custom_crop_layer_906", "trainable": true, "dtype": "float32", "cropping": [[3, 4], [0, 0], [1, 2]]}, "name": "custom_crop_layer_906", "inbound_nodes": [[["custom_pad_layer_1233", 0, 0, {}]]]}, {"class_name": "BatchNormalization", "config": {"name": "batch_normalization_2693_insert", "trainable": true, "dtype": "float32", "axis": [3], "momentum": 0.99, "epsilon": 0.001, "center": true, "scale": false, "beta_initializer": {"class_name": "Zeros", "config": {}}, "gamma_initializer": {"class_name": "Ones", "config": {}}, "moving_mean_initializer": {"class_name": "Zeros", "config": {}}, "moving_variance_initializer": {"class_name": "Ones", "config": {}}, "beta_regularizer": null, "gamma_regularizer": null, "beta_constraint": null, "gamma_constraint": null}, "name": "batch_normalization_2693_insert", "inbound_nodes": [[["custom_crop_layer_906", 0, 0, {}]]]}, {"class_name": "CustomPadLayer", "config": {"name": "custom_pad_layer_1234", "trainable": true, "dtype": "float32", "padding": [[0, 0], [2, 2], [0, 1]], "constant_values": 2}, "name": "custom_pad_layer_1234", "inbound_nodes": [[["batch_normalization_2693_insert", 0, 0, {}]]]}, {"class_name": "CustomCropLayer", "config": {"name": "custom_crop_layer_907", "trainable": true, "dtype": "float32", "cropping": [[1, 1], [0, 0], [0, 0]]}, "name": "custom_crop_layer_907", "inbound_nodes": [[["custom_pad_layer_1234", 0, 0, {}]]]}, {"class_name": "BatchNormalization", "config": {"name": "batch_normalization_2695_insert", "trainable": true, "dtype": "float32", "axis": [3], "momentum": 0.99, "epsilon": 0.001, "center": true, "scale": false, "beta_initializer": {"class_name": "Zeros", "config": {}}, "gamma_initializer": {"class_name": "Ones", "config": {}}, "moving_mean_initializer": {"class_name": "Zeros", "config": {}}, "moving_variance_initializer": {"class_name": "Ones", "config": {}}, "beta_regularizer": null, "gamma_regularizer": null, "beta_constraint": null, "gamma_constraint": null}, "name": "batch_normalization_2695_insert", "inbound_nodes": [[["custom_crop_layer_907", 0, 0, {}]]]}, {"class_name": "CustomPadLayer", "config": {"name": "custom_pad_layer_1235", "trainable": true, "dtype": "float32", "padding": [[4, 5], [0, 0], [5, 6]], "constant_values": 2}, "name": "custom_pad_layer_1235", "inbound_nodes": [[["batch_normalization_2695_insert", 0, 0, {}]]]}, {"class_name": "CustomCropLayer", "config": {"name": "custom_crop_layer_908", "trainable": true, "dtype": "float32", "cropping": [[0, 0], [3, 3], [0, 0]]}, "name": "custom_crop_layer_908", "inbound_nodes": [[["custom_pad_layer_1235", 0, 0, {}]]]}, {"class_name": "BatchNormalization", "config": {"name": "batch_normalization_2697_insert", "trainable": true, "dtype": "float32", "axis": [3], "momentum": 0.99, "epsilon": 0.001, "center": true, "scale": false, "beta_initializer": {"class_name": "Zeros", "config": {}}, "gamma_initializer": {"class_name": "Ones", "config": {}}, "moving_mean_initializer": {"class_name": "Zeros", "config": {}}, "moving_variance_initializer": {"class_name": "Ones", "config": {}}, "beta_regularizer": null, "gamma_regularizer": null, "beta_constraint": null, "gamma_constraint": null}, "name": "batch_normalization_2697_insert", "inbound_nodes": [[["custom_crop_layer_908", 0, 0, {}]]]}, {"class_name": "CustomCropLayer", "config": {"name": "custom_crop_layer_909", "trainable": true, "dtype": "float32", "cropping": [[1, 2], [3, 3], [3, 3]]}, "name": "custom_crop_layer_909", "inbound_nodes": [[["batch_normalization_2697_insert", 0, 0, {}]]]}, {"class_name": "AveragePooling2D", "config": {"name": "average_pooling2d_1461_insert_1_merge1", "trainable": true, "dtype": "float32", "pool_size": [3, 3], "padding": "same", "strides": [1, 1], "data_format": "channels_last"}, "name": "average_pooling2d_1461_insert_1_merge1", "inbound_nodes": [[["custom_crop_layer_909", 0, 0, {}]]]}, {"class_name": "Concatenate", "config": {"name": "concatenate_63_copy_ML", "trainable": true, "dtype": "float32", "axis": 3}, "name": "concatenate_63_copy_ML", "inbound_nodes": [[["average_pooling2d_1461_insert_1_merge1", 0, 0, {}], ["custom_crop_layer_909", 0, 0, {}]]]}, {"class_name": "CustomPadLayer", "config": {"name": "custom_pad_layer_1236", "trainable": true, "dtype": "float32", "padding": [[0, 0], [2, 3], [0, 0]], "constant_values": 2}, "name": "custom_pad_layer_1236", "inbound_nodes": [[["concatenate_63_copy_ML", 0, 0, {}]]]}, {"class_name": "CustomCropLayer", "config": {"name": "custom_crop_layer_910", "trainable": true, "dtype": "float32", "cropping": [[4, 5], [0, 0], [0, 1]]}, "name": "custom_crop_layer_910", "inbound_nodes": [[["custom_pad_layer_1236", 0, 0, {}]]]}, {"class_name": "AveragePooling2D", "config": {"name": "average_pooling2d_1463_insert", "trainable": true, "dtype": "float32", "pool_size": [3, 3], "padding": "same", "strides": [1, 1], "data_format": "channels_last"}, "name": "average_pooling2d_1463_insert", "inbound_nodes": [[["custom_crop_layer_910", 0, 0, {}]]]}, {"class_name": "CustomPadLayer", "config": {"name": "custom_pad_layer_1237", "trainable": true, "dtype": "float32", "padding": [[5, 5], [0, 0], [0, 0]], "constant_values": 2}, "name": "custom_pad_layer_1237", "inbound_nodes": [[["average_pooling2d_1463_insert", 0, 0, {}]]]}, {"class_name": "CustomCropLayer", "config": {"name": "custom_crop_layer_911", "trainable": true, "dtype": "float32", "cropping": [[0, 0], [3, 3], [0, 1]]}, "name": "custom_crop_layer_911", "inbound_nodes": [[["custom_pad_layer_1237", 0, 0, {}]]]}, {"class_name": "AveragePooling2D", "config": {"name": "average_pooling2d_1465_insert", "trainable": true, "dtype": "float32", "pool_size": [3, 3], "padding": "same", "strides": [1, 1], "data_format": "channels_last"}, "name": "average_pooling2d_1465_insert", "inbound_nodes": [[["custom_crop_layer_911", 0, 0, {}]]]}, {"class_name": "CustomPadLayer", "config": {"name": "custom_pad_layer_1238", "trainable": true, "dtype": "float32", "padding": [[0, 0], [5, 6], [2, 2]], "constant_values": 2}, "name": "custom_pad_layer_1238", "inbound_nodes": [[["average_pooling2d_1465_insert", 0, 0, {}]]]}, {"class_name": "CustomCropLayer", "config": {"name": "custom_crop_layer_912", "trainable": true, "dtype": "float32", "cropping": [[6, 6], [0, 0], [0, 0]]}, "name": "custom_crop_layer_912", "inbound_nodes": [[["custom_pad_layer_1238", 0, 0, {}]]]}, {"class_name": "MaxPooling2D", "config": {"name": "max_pooling2d_2113_insert", "trainable": true, "dtype": "float32", "pool_size": [3, 3], "padding": "valid", "strides": [2, 2], "data_format": "channels_last"}, "name": "max_pooling2d_2113_insert", "inbound_nodes": [[["custom_crop_layer_912", 0, 0, {}]]]}, {"class_name": "CustomPadLayer", "config": {"name": "custom_pad_layer_1239", "trainable": true, "dtype": "float32", "padding": [[5, 6], [3, 3], [0, 0]], "constant_values": 2}, "name": "custom_pad_layer_1239", "inbound_nodes": [[["max_pooling2d_2113_insert", 0, 0, {}]]]}, {"class_name": "CustomCropLayer", "config": {"name": "custom_crop_layer_913", "trainable": true, "dtype": "float32", "cropping": [[0, 0], [0, 0], [1, 2]]}, "name": "custom_crop_layer_913", "inbound_nodes": [[["custom_pad_layer_1239", 0, 0, {}]]]}, {"class_name": "MaxPooling2D", "config": {"name": "max_pooling2d_2115_insert", "trainable": true, "dtype": "float32", "pool_size": [3, 3], "padding": "valid", "strides": [2, 2], "data_format": "channels_last"}, "name": "max_pooling2d_2115_insert", "inbound_nodes": [[["custom_crop_layer_913", 0, 0, {}]]]}, {"class_name": "CustomPadLayer", "config": {"name": "custom_pad_layer_1240", "trainable": true, "dtype": "float32", "padding": [[6, 6], [2, 2], [1, 1]], "constant_values": 2}, "name": "custom_pad_layer_1240", "inbound_nodes": [[["max_pooling2d_2115_insert", 0, 0, {}]]]}, {"class_name": "Conv2D", "config": {"name": "conv2d_6099_insert_2", "trainable": true, "dtype": "float32", "filters": 3, "kernel_size": [1, 7], "strides": [1, 1], "padding": "same", "data_format": "channels_last", "dilation_rate": [1, 1], "groups": 1, "activation": "linear", "use_bias": false, "kernel_initializer": {"class_name": "VarianceScaling", "config": {"scale": 1.0, "mode": "fan_avg", "distribution": "uniform", "seed": null}}, "bias_initializer": {"class_name": "Zeros", "config": {}}, "kernel_regularizer": null, "bias_regularizer": null, "activity_regularizer": null, "kernel_constraint": null, "bias_constraint": null}, "name": "conv2d_6099_insert_2", "inbound_nodes": [[["average_pooling2d_1459_insert", 0, 0, {}]]]}, {"class_name": "AveragePooling2D", "config": {"name": "average_pooling2d_1467_insert", "trainable": true, "dtype": "float32", "pool_size": [3, 3], "padding": "same", "strides": [1, 1], "data_format": "channels_last"}, "name": "average_pooling2d_1467_insert", "inbound_nodes": [[["custom_pad_layer_1240", 0, 0, {}]]]}, {"class_name": "AveragePooling2D", "config": {"name": "average_pooling2d_1461_insert_2", "trainable": true, "dtype": "float32", "pool_size": [3, 3], "padding": "same", "strides": [1, 1], "data_format": "channels_last"}, "name": "average_pooling2d_1461_insert_2", "inbound_nodes": [[["max_pooling2d_2115_insert", 0, 0, {}]]]}, {"class_name": "Cropping2D", "config": {"name": "cropping2d_127", "trainable": true, "dtype": "float32", "cropping": [[69, 69], [69, 69]], "data_format": "channels_last"}, "name": "cropping2d_127", "inbound_nodes": [[["conv2d_6099_insert_2", 0, 0, {}]]]}], "input_layers": [["input_1132", 0, 0]], "output_layers": [["average_pooling2d_1467_insert", 0, 0], ["average_pooling2d_1461_insert_2", 0, 0], ["cropping2d_127", 0, 0]]}, "keras_version": "2.7.0", "backend": "tensorflow"}