{"class_name": "Functional", "config": {"name": "model_7827", "layers": [{"class_name": "InputLayer", "config": {"batch_input_shape": [null, 32, 32, 3], "dtype": "float32", "sparse": false, "ragged": false, "name": "input_992"}, "name": "input_992", "inbound_nodes": []}, {"class_name": "Conv2D", "config": {"name": "conv2d_1_1", "trainable": true, "batch_input_shape": [null, 32, 32, 3], "dtype": "float32", "filters": 96, "kernel_size": [3, 3], "strides": [2, 2], "padding": "same", "data_format": "channels_last", "dilation_rate": [1, 1], "groups": 1, "activation": "relu", "use_bias": true, "kernel_initializer": {"class_name": "VarianceScaling", "config": {"scale": 1.0, "mode": "fan_avg", "distribution": "uniform", "seed": null}}, "bias_initializer": {"class_name": "Zeros", "config": {}}, "kernel_regularizer": null, "bias_regularizer": null, "activity_regularizer": null, "kernel_constraint": null, "bias_constraint": null}, "name": "conv2d_1_1", "inbound_nodes": [[["input_992", 0, 0, {}]]]}, {"class_name": "MaxPooling2D", "config": {"name": "max_pooling2d_1841_insert", "trainable": true, "dtype": "float32", "pool_size": [3, 3], "padding": "valid", "strides": [2, 2], "data_format": "channels_last"}, "name": "max_pooling2d_1841_insert", "inbound_nodes": [[["conv2d_1_1", 0, 0, {}]]]}, {"class_name": "MaxPooling2D", "config": {"name": "max_pooling2d_1843_insert", "trainable": true, "dtype": "float32", "pool_size": [2, 2], "padding": "valid", "strides": [2, 2], "data_format": "channels_last"}, "name": "max_pooling2d_1843_insert", "inbound_nodes": [[["max_pooling2d_1841_insert", 0, 0, {}]]]}, {"class_name": "Dropout", "config": {"name": "dropout_363_insert", "trainable": true, "dtype": "float32", "rate": 0.5, "noise_shape": null, "seed": null}, "name": "dropout_363_insert", "inbound_nodes": [[["max_pooling2d_1843_insert", 0, 0, {}]]]}, {"class_name": "BatchNormalization", "config": {"name": "batch_normalization_2295_insert", "trainable": true, "dtype": "float32", "axis": [3], "momentum": 0.99, "epsilon": 0.001, "center": true, "scale": true, "beta_initializer": {"class_name": "Zeros", "config": {}}, "gamma_initializer": {"class_name": "Ones", "config": {}}, "moving_mean_initializer": {"class_name": "Zeros", "config": {}}, "moving_variance_initializer": {"class_name": "Ones", "config": {}}, "beta_regularizer": null, "gamma_regularizer": null, "beta_constraint": null, "gamma_constraint": null}, "name": "batch_normalization_2295_insert", "inbound_nodes": [[["dropout_363_insert", 0, 0, {}]]]}, {"class_name": "Flatten", "config": {"name": "flatten_126_insert", "trainable": true, "dtype": "float32", "data_format": "channels_last"}, "name": "flatten_126_insert", "inbound_nodes": [[["batch_normalization_2295_insert", 0, 0, {}]]]}, {"class_name": "CustomExpandLayer", "config": {"name": "custom_expand_layer_1680_insert", "trainable": true, "dtype": "float32", "axis": 1}, "name": "custom_expand_layer_1680_insert", "inbound_nodes": [[["flatten_126_insert", 0, 0, {}]]]}, {"class_name": "CustomExpandLayer", "config": {"name": "custom_expand_layer_1681_insert", "trainable": true, "dtype": "float32", "axis": 1}, "name": "custom_expand_layer_1681_insert", "inbound_nodes": [[["custom_expand_layer_1680_insert", 0, 0, {}]]]}, {"class_name": "Conv2D", "config": {"name": "conv2d_5331_insert", "trainable": true, "dtype": "float32", "filters": 3, "kernel_size": [5, 5], "strides": [1, 1], "padding": "same", "data_format": "channels_last", "dilation_rate": [1, 1], "groups": 1, "activation": "relu", "use_bias": true, "kernel_initializer": {"class_name": "VarianceScaling", "config": {"scale": 1.0, "mode": "fan_avg", "distribution": "uniform", "seed": null}}, "bias_initializer": {"class_name": "Zeros", "config": {}}, "kernel_regularizer": null, "bias_regularizer": null, "activity_regularizer": null, "kernel_constraint": null, "bias_constraint": null}, "name": "conv2d_5331_insert", "inbound_nodes": [[["custom_expand_layer_1681_insert", 0, 0, {}]]]}, {"class_name": "Conv2D", "config": {"name": "conv2d_5333_insert", "trainable": true, "dtype": "float32", "filters": 1, "kernel_size": [3, 3], "strides": [1, 1], "padding": "same", "data_format": "channels_last", "dilation_rate": [1, 1], "groups": 1, "activation": "relu", "use_bias": true, "kernel_initializer": {"class_name": "VarianceScaling", "config": {"scale": 1.0, "mode": "fan_avg", "distribution": "uniform", "seed": null}}, "bias_initializer": {"class_name": "Zeros", "config": {}}, "kernel_regularizer": null, "bias_regularizer": null, "activity_regularizer": null, "kernel_constraint": null, "bias_constraint": null}, "name": "conv2d_5333_insert", "inbound_nodes": [[["conv2d_5331_insert", 0, 0, {}]]]}, {"class_name": "CustomDropDimLayer", "config": {"name": "custom_drop_dim_layer_12", "trainable": true, "dtype": "float32", "axis": 1}, "name": "custom_drop_dim_layer_12", "inbound_nodes": [[["conv2d_5333_insert", 0, 0, {}]]]}, {"class_name": "CustomDropDimLayer", "config": {"name": "custom_drop_dim_layer_13", "trainable": true, "dtype": "float32", "axis": 1}, "name": "custom_drop_dim_layer_13", "inbound_nodes": [[["custom_drop_dim_layer_12", 0, 0, {}]]]}, {"class_name": "Dropout", "config": {"name": "dropout_365_insert", "trainable": true, "dtype": "float32", "rate": 0.5, "noise_shape": null, "seed": null}, "name": "dropout_365_insert", "inbound_nodes": [[["custom_drop_dim_layer_13", 0, 0, {}]]]}, {"class_name": "CustomExpandLayer", "config": {"name": "custom_expand_layer_1682", "trainable": true, "dtype": "float32", "axis": 1}, "name": "custom_expand_layer_1682", "inbound_nodes": [[["dropout_365_insert", 0, 0, {}]]]}, {"class_name": "CustomExpandLayer", "config": {"name": "custom_expand_layer_1683", "trainable": true, "dtype": "float32", "axis": 1}, "name": "custom_expand_layer_1683", "inbound_nodes": [[["custom_expand_layer_1682", 0, 0, {}]]]}, {"class_name": "CustomPadLayer", "config": {"name": "custom_pad_layer_1005", "trainable": true, "dtype": "float32", "padding": [[3, 4], [3, 4], [4, 5]], "constant_values": 2}, "name": "custom_pad_layer_1005", "inbound_nodes": [[["custom_expand_layer_1683", 0, 0, {}]]]}, {"class_name": "Conv2D", "config": {"name": "conv2d_5335_insert", "trainable": true, "dtype": "float32", "filters": 4, "kernel_size": [5, 5], "strides": [1, 1], "padding": "same", "data_format": "channels_last", "dilation_rate": [1, 1], "groups": 1, "activation": "relu", "use_bias": true, "kernel_initializer": {"class_name": "VarianceScaling", "config": {"scale": 1.0, "mode": "fan_avg", "distribution": "uniform", "seed": null}}, "bias_initializer": {"class_name": "Zeros", "config": {}}, "kernel_regularizer": null, "bias_regularizer": null, "activity_regularizer": null, "kernel_constraint": null, "bias_constraint": null}, "name": "conv2d_5335_insert", "inbound_nodes": [[["custom_pad_layer_1005", 0, 0, {}]]]}, {"class_name": "CustomPadLayer", "config": {"name": "custom_pad_layer_1006", "trainable": true, "dtype": "float32", "padding": [[4, 4], [5, 6], [5, 6]], "constant_values": 2}, "name": "custom_pad_layer_1006", "inbound_nodes": [[["conv2d_5335_insert", 0, 0, {}]]]}, {"class_name": "MaxPooling2D", "config": {"name": "max_pooling2d_1845_insert", "trainable": true, "dtype": "float32", "pool_size": [2, 2], "padding": "valid", "strides": [2, 2], "data_format": "channels_last"}, "name": "max_pooling2d_1845_insert", "inbound_nodes": [[["custom_pad_layer_1006", 0, 0, {}]]]}, {"class_name": "CustomPadLayer", "config": {"name": "custom_pad_layer_1007", "trainable": true, "dtype": "float32", "padding": [[0, 1], [2, 3], [1, 2]], "constant_values": 2}, "name": "custom_pad_layer_1007", "inbound_nodes": [[["max_pooling2d_1845_insert", 0, 0, {}]]]}, {"class_name": "BatchNormalization", "config": {"name": "batch_normalization_2297_insert_1", "trainable": true, "dtype": "float32", "axis": [3], "momentum": 0.99, "epsilon": 0.001, "center": true, "scale": true, "beta_initializer": {"class_name": "Zeros", "config": {}}, "gamma_initializer": {"class_name": "Ones", "config": {}}, "moving_mean_initializer": {"class_name": "Zeros", "config": {}}, "moving_variance_initializer": {"class_name": "Ones", "config": {}}, "beta_regularizer": null, "gamma_regularizer": null, "beta_constraint": null, "gamma_constraint": null}, "name": "batch_normalization_2297_insert_1", "inbound_nodes": [[["custom_pad_layer_1007", 0, 0, {}]]]}, {"class_name": "CustomCropLayer", "config": {"name": "custom_crop_layer_744", "trainable": true, "dtype": "float32", "cropping": [[1, 1], [3, 4], [6, 7]]}, "name": "custom_crop_layer_744", "inbound_nodes": [[["batch_normalization_2297_insert_1", 0, 0, {}]]]}, {"class_name": "BatchNormalization", "config": {"name": "batch_normalization_2297_insert_2", "trainable": true, "dtype": "float32", "axis": [3], "momentum": 0.99, "epsilon": 0.001, "center": true, "scale": true, "beta_initializer": {"class_name": "Zeros", "config": {}}, "gamma_initializer": {"class_name": "Ones", "config": {}}, "moving_mean_initializer": {"class_name": "Zeros", "config": {}}, "moving_variance_initializer": {"class_name": "Ones", "config": {}}, "beta_regularizer": null, "gamma_regularizer": null, "beta_constraint": null, "gamma_constraint": null}, "name": "batch_normalization_2297_insert_2", "inbound_nodes": [[["max_pooling2d_1843_insert", 0, 0, {}]]]}, {"class_name": "BatchNormalization", "config": {"name": "batch_normalization_2299_insert", "trainable": true, "dtype": "float32", "axis": [3], "momentum": 0.99, "epsilon": 0.001, "center": true, "scale": true, "beta_initializer": {"class_name": "Zeros", "config": {}}, "gamma_initializer": {"class_name": "Ones", "config": {}}, "moving_mean_initializer": {"class_name": "Zeros", "config": {}}, "moving_variance_initializer": {"class_name": "Ones", "config": {}}, "beta_regularizer": null, "gamma_regularizer": null, "beta_constraint": null, "gamma_constraint": null}, "name": "batch_normalization_2299_insert", "inbound_nodes": [[["custom_crop_layer_744", 0, 0, {}]]]}, {"class_name": "Conv2D", "config": {"name": "conv2d_1_2", "trainable": true, "batch_input_shape": [null, 32, 32, 3], "dtype": "float32", "filters": 96, "kernel_size": [3, 3], "strides": [2, 2], "padding": "same", "data_format": "channels_last", "dilation_rate": [1, 1], "groups": 1, "activation": "relu", "use_bias": true, "kernel_initializer": {"class_name": "VarianceScaling", "config": {"scale": 1.0, "mode": "fan_avg", "distribution": "uniform", "seed": null}}, "bias_initializer": {"class_name": "Zeros", "config": {}}, "kernel_regularizer": null, "bias_regularizer": null, "activity_regularizer": null, "kernel_constraint": null, "bias_constraint": null}, "name": "conv2d_1_2", "inbound_nodes": [[["batch_normalization_2297_insert_2", 0, 0, {}]]]}], "input_layers": [["input_992", 0, 0]], "output_layers": [["batch_normalization_2299_insert", 0, 0], ["batch_normalization_2297_insert_2", 0, 0], ["conv2d_1_2", 0, 0]]}, "keras_version": "2.7.0", "backend": "tensorflow"}