{"class_name": "Functional", "config": {"name": "model_7905", "layers": [{"class_name": "InputLayer", "config": {"batch_input_shape": [null, 299, 299, 3], "dtype": "float32", "sparse": false, "ragged": false, "name": "input_998"}, "name": "input_998", "inbound_nodes": []}, {"class_name": "Conv2D", "config": {"name": "conv2d_1", "trainable": true, "dtype": "float32", "filters": 32, "kernel_size": [3, 3], "strides": [2, 2], "padding": "valid", "data_format": "channels_last", "dilation_rate": [1, 1], "groups": 1, "activation": "linear", "use_bias": false, "kernel_initializer": {"class_name": "VarianceScaling", "config": {"scale": 1.0, "mode": "fan_avg", "distribution": "uniform", "seed": null}}, "bias_initializer": {"class_name": "Zeros", "config": {}}, "kernel_regularizer": null, "bias_regularizer": null, "activity_regularizer": null, "kernel_constraint": null, "bias_constraint": null}, "name": "conv2d_1", "inbound_nodes": [[["input_998", 0, 0, {}]]]}, {"class_name": "MaxPooling2D", "config": {"name": "max_pooling2d_1851_insert", "trainable": true, "dtype": "float32", "pool_size": [3, 3], "padding": "valid", "strides": [2, 2], "data_format": "channels_last"}, "name": "max_pooling2d_1851_insert", "inbound_nodes": [[["conv2d_1", 0, 0, {}]]]}, {"class_name": "Conv2D", "config": {"name": "conv2d_5359_insert", "trainable": true, "dtype": "float32", "filters": 2, "kernel_size": [1, 1], "strides": [1, 1], "padding": "same", "data_format": "channels_last", "dilation_rate": [1, 1], "groups": 1, "activation": "linear", "use_bias": false, "kernel_initializer": {"class_name": "VarianceScaling", "config": {"scale": 1.0, "mode": "fan_avg", "distribution": "uniform", "seed": null}}, "bias_initializer": {"class_name": "Zeros", "config": {}}, "kernel_regularizer": null, "bias_regularizer": null, "activity_regularizer": null, "kernel_constraint": null, "bias_constraint": null}, "name": "conv2d_5359_insert", "inbound_nodes": [[["max_pooling2d_1851_insert", 0, 0, {}]]]}, {"class_name": "Conv2D", "config": {"name": "conv2d_5361_insert", "trainable": true, "dtype": "float32", "filters": 3, "kernel_size": [1, 7], "strides": [1, 1], "padding": "same", "data_format": "channels_last", "dilation_rate": [1, 1], "groups": 1, "activation": "linear", "use_bias": false, "kernel_initializer": {"class_name": "VarianceScaling", "config": {"scale": 1.0, "mode": "fan_avg", "distribution": "uniform", "seed": null}}, "bias_initializer": {"class_name": "Zeros", "config": {}}, "kernel_regularizer": null, "bias_regularizer": null, "activity_regularizer": null, "kernel_constraint": null, "bias_constraint": null}, "name": "conv2d_5361_insert", "inbound_nodes": [[["conv2d_5359_insert", 0, 0, {}]]]}, {"class_name": "AveragePooling2D", "config": {"name": "average_pooling2d_1281_insert_1", "trainable": true, "dtype": "float32", "pool_size": [3, 3], "padding": "same", "strides": [1, 1], "data_format": "channels_last"}, "name": "average_pooling2d_1281_insert_1", "inbound_nodes": [[["conv2d_5361_insert", 0, 0, {}]]]}, {"class_name": "BatchNormalization", "config": {"name": "batch_normalization_2315_insert", "trainable": true, "dtype": "float32", "axis": [3], "momentum": 0.99, "epsilon": 0.001, "center": true, "scale": false, "beta_initializer": {"class_name": "Zeros", "config": {}}, "gamma_initializer": {"class_name": "Ones", "config": {}}, "moving_mean_initializer": {"class_name": "Zeros", "config": {}}, "moving_variance_initializer": {"class_name": "Ones", "config": {}}, "beta_regularizer": null, "gamma_regularizer": null, "beta_constraint": null, "gamma_constraint": null}, "name": "batch_normalization_2315_insert", "inbound_nodes": [[["average_pooling2d_1281_insert_1", 0, 0, {}]]]}, {"class_name": "Conv2D", "config": {"name": "conv2d_5363_insert", "trainable": true, "dtype": "float32", "filters": 2, "kernel_size": [3, 3], "strides": [1, 1], "padding": "valid", "data_format": "channels_last", "dilation_rate": [1, 1], "groups": 1, "activation": "linear", "use_bias": false, "kernel_initializer": {"class_name": "VarianceScaling", "config": {"scale": 1.0, "mode": "fan_avg", "distribution": "uniform", "seed": null}}, "bias_initializer": {"class_name": "Zeros", "config": {}}, "kernel_regularizer": null, "bias_regularizer": null, "activity_regularizer": null, "kernel_constraint": null, "bias_constraint": null}, "name": "conv2d_5363_insert", "inbound_nodes": [[["batch_normalization_2315_insert", 0, 0, {}]]]}, {"class_name": "GlobalAveragePooling2D", "config": {"name": "global_average_pooling2d_1673_insert", "trainable": true, "dtype": "float32", "data_format": "channels_last", "keepdims": false}, "name": "global_average_pooling2d_1673_insert", "inbound_nodes": [[["conv2d_5363_insert", 0, 0, {}]]]}, {"class_name": "CustomExpandLayer", "config": {"name": "custom_expand_layer_1694_insert", "trainable": true, "dtype": "float32", "axis": 1}, "name": "custom_expand_layer_1694_insert", "inbound_nodes": [[["global_average_pooling2d_1673_insert", 0, 0, {}]]]}, {"class_name": "CustomExpandLayer", "config": {"name": "custom_expand_layer_1695_insert", "trainable": true, "dtype": "float32", "axis": 1}, "name": "custom_expand_layer_1695_insert", "inbound_nodes": [[["custom_expand_layer_1694_insert", 0, 0, {}]]]}, {"class_name": "Conv2D", "config": {"name": "conv2d_5365_insert", "trainable": true, "dtype": "float32", "filters": 8, "kernel_size": [3, 3], "strides": [1, 1], "padding": "same", "data_format": "channels_last", "dilation_rate": [1, 1], "groups": 1, "activation": "linear", "use_bias": false, "kernel_initializer": {"class_name": "VarianceScaling", "config": {"scale": 1.0, "mode": "fan_avg", "distribution": "uniform", "seed": null}}, "bias_initializer": {"class_name": "Zeros", "config": {}}, "kernel_regularizer": null, "bias_regularizer": null, "activity_regularizer": null, "kernel_constraint": null, "bias_constraint": null}, "name": "conv2d_5365_insert", "inbound_nodes": [[["custom_expand_layer_1695_insert", 0, 0, {}]]]}, {"class_name": "Conv2D", "config": {"name": "conv2d_5367_insert", "trainable": true, "dtype": "float32", "filters": 7, "kernel_size": [7, 1], "strides": [1, 1], "padding": "same", "data_format": "channels_last", "dilation_rate": [1, 1], "groups": 1, "activation": "linear", "use_bias": false, "kernel_initializer": {"class_name": "VarianceScaling", "config": {"scale": 1.0, "mode": "fan_avg", "distribution": "uniform", "seed": null}}, "bias_initializer": {"class_name": "Zeros", "config": {}}, "kernel_regularizer": null, "bias_regularizer": null, "activity_regularizer": null, "kernel_constraint": null, "bias_constraint": null}, "name": "conv2d_5367_insert", "inbound_nodes": [[["conv2d_5365_insert", 0, 0, {}]]]}, {"class_name": "Conv2D", "config": {"name": "conv2d_5369_insert", "trainable": true, "dtype": "float32", "filters": 6, "kernel_size": [1, 3], "strides": [1, 1], "padding": "same", "data_format": "channels_last", "dilation_rate": [1, 1], "groups": 1, "activation": "linear", "use_bias": false, "kernel_initializer": {"class_name": "VarianceScaling", "config": {"scale": 1.0, "mode": "fan_avg", "distribution": "uniform", "seed": null}}, "bias_initializer": {"class_name": "Zeros", "config": {}}, "kernel_regularizer": null, "bias_regularizer": null, "activity_regularizer": null, "kernel_constraint": null, "bias_constraint": null}, "name": "conv2d_5369_insert", "inbound_nodes": [[["conv2d_5367_insert", 0, 0, {}]]]}, {"class_name": "Conv2D", "config": {"name": "conv2d_5371_insert_1", "trainable": true, "dtype": "float32", "filters": 1, "kernel_size": [1, 1], "strides": [1, 1], "padding": "valid", "data_format": "channels_last", "dilation_rate": [1, 1], "groups": 1, "activation": "linear", "use_bias": false, "kernel_initializer": {"class_name": "VarianceScaling", "config": {"scale": 1.0, "mode": "fan_avg", "distribution": "uniform", "seed": null}}, "bias_initializer": {"class_name": "Zeros", "config": {}}, "kernel_regularizer": null, "bias_regularizer": null, "activity_regularizer": null, "kernel_constraint": null, "bias_constraint": null}, "name": "conv2d_5371_insert_1", "inbound_nodes": [[["conv2d_5369_insert", 0, 0, {}]]]}, {"class_name": "Conv2D", "config": {"name": "conv2d_5373_insert", "trainable": true, "dtype": "float32", "filters": 9, "kernel_size": [5, 5], "strides": [1, 1], "padding": "same", "data_format": "channels_last", "dilation_rate": [1, 1], "groups": 1, "activation": "linear", "use_bias": false, "kernel_initializer": {"class_name": "VarianceScaling", "config": {"scale": 1.0, "mode": "fan_avg", "distribution": "uniform", "seed": null}}, "bias_initializer": {"class_name": "Zeros", "config": {}}, "kernel_regularizer": null, "bias_regularizer": null, "activity_regularizer": null, "kernel_constraint": null, "bias_constraint": null}, "name": "conv2d_5373_insert", "inbound_nodes": [[["conv2d_5371_insert_1", 0, 0, {}]]]}, {"class_name": "Conv2D", "config": {"name": "conv2d_5375_insert", "trainable": true, "dtype": "float32", "filters": 3, "kernel_size": [3, 1], "strides": [1, 1], "padding": "same", "data_format": "channels_last", "dilation_rate": [1, 1], "groups": 1, "activation": "linear", "use_bias": false, "kernel_initializer": {"class_name": "VarianceScaling", "config": {"scale": 1.0, "mode": "fan_avg", "distribution": "uniform", "seed": null}}, "bias_initializer": {"class_name": "Zeros", "config": {}}, "kernel_regularizer": null, "bias_regularizer": null, "activity_regularizer": null, "kernel_constraint": null, "bias_constraint": null}, "name": "conv2d_5375_insert", "inbound_nodes": [[["conv2d_5373_insert", 0, 0, {}]]]}, {"class_name": "Conv2D", "config": {"name": "conv2d_5377_insert", "trainable": true, "dtype": "float32", "filters": 1, "kernel_size": [1, 1], "strides": [1, 1], "padding": "same", "data_format": "channels_last", "dilation_rate": [1, 1], "groups": 1, "activation": "linear", "use_bias": true, "kernel_initializer": {"class_name": "VarianceScaling", "config": {"scale": 1.0, "mode": "fan_avg", "distribution": "uniform", "seed": null}}, "bias_initializer": {"class_name": "Zeros", "config": {}}, "kernel_regularizer": null, "bias_regularizer": null, "activity_regularizer": null, "kernel_constraint": null, "bias_constraint": null}, "name": "conv2d_5377_insert", "inbound_nodes": [[["conv2d_5375_insert", 0, 0, {}]]]}, {"class_name": "CustomPadLayer", "config": {"name": "custom_pad_layer_1017", "trainable": true, "dtype": "float32", "padding": [[8, 8], [6, 6], [8, 9]], "constant_values": 2}, "name": "custom_pad_layer_1017", "inbound_nodes": [[["conv2d_5377_insert", 0, 0, {}]]]}, {"class_name": "BatchNormalization", "config": {"name": "batch_normalization_2317_insert_1", "trainable": true, "dtype": "float32", "axis": [3], "momentum": 0.99, "epsilon": 0.001, "center": true, "scale": false, "beta_initializer": {"class_name": "Zeros", "config": {}}, "gamma_initializer": {"class_name": "Ones", "config": {}}, "moving_mean_initializer": {"class_name": "Zeros", "config": {}}, "moving_variance_initializer": {"class_name": "Ones", "config": {}}, "beta_regularizer": null, "gamma_regularizer": null, "beta_constraint": null, "gamma_constraint": null}, "name": "batch_normalization_2317_insert_1", "inbound_nodes": [[["custom_pad_layer_1017", 0, 0, {}]]]}, {"class_name": "CustomPadLayer", "config": {"name": "custom_pad_layer_1018", "trainable": true, "dtype": "float32", "padding": [[0, 1], [3, 3], [0, 0]], "constant_values": 2}, "name": "custom_pad_layer_1018", "inbound_nodes": [[["batch_normalization_2317_insert_1", 0, 0, {}]]]}, {"class_name": "CustomCropLayer", "config": {"name": "custom_crop_layer_750", "trainable": true, "dtype": "float32", "cropping": [[0, 0], [0, 0], [4, 5]]}, "name": "custom_crop_layer_750", "inbound_nodes": [[["custom_pad_layer_1018", 0, 0, {}]]]}, {"class_name": "MaxPooling2D", "config": {"name": "max_pooling2d_1853_insert", "trainable": true, "dtype": "float32", "pool_size": [3, 3], "padding": "valid", "strides": [2, 2], "data_format": "channels_last"}, "name": "max_pooling2d_1853_insert", "inbound_nodes": [[["custom_crop_layer_750", 0, 0, {}]]]}, {"class_name": "CustomPadLayer", "config": {"name": "custom_pad_layer_1019", "trainable": true, "dtype": "float32", "padding": [[0, 0], [1, 2], [0, 0]], "constant_values": 2}, "name": "custom_pad_layer_1019", "inbound_nodes": [[["max_pooling2d_1853_insert", 0, 0, {}]]]}, {"class_name": "CustomCropLayer", "config": {"name": "custom_crop_layer_751", "trainable": true, "dtype": "float32", "cropping": [[0, 1], [0, 0], [0, 0]]}, "name": "custom_crop_layer_751", "inbound_nodes": [[["custom_pad_layer_1019", 0, 0, {}]]]}, {"class_name": "MaxPooling2D", "config": {"name": "max_pooling2d_1855_insert", "trainable": true, "dtype": "float32", "pool_size": [3, 3], "padding": "valid", "strides": [2, 2], "data_format": "channels_last"}, "name": "max_pooling2d_1855_insert", "inbound_nodes": [[["custom_crop_layer_751", 0, 0, {}]]]}, {"class_name": "CustomPadLayer", "config": {"name": "custom_pad_layer_1020", "trainable": true, "dtype": "float32", "padding": [[8, 8], [3, 4], [0, 0]], "constant_values": 2}, "name": "custom_pad_layer_1020", "inbound_nodes": [[["max_pooling2d_1855_insert", 0, 0, {}]]]}, {"class_name": "CustomCropLayer", "config": {"name": "custom_crop_layer_752", "trainable": true, "dtype": "float32", "cropping": [[0, 0], [0, 0], [1, 1]]}, "name": "custom_crop_layer_752", "inbound_nodes": [[["custom_pad_layer_1020", 0, 0, {}]]]}, {"class_name": "MaxPooling2D", "config": {"name": "max_pooling2d_1857_insert", "trainable": true, "dtype": "float32", "pool_size": [3, 3], "padding": "valid", "strides": [2, 2], "data_format": "channels_last"}, "name": "max_pooling2d_1857_insert", "inbound_nodes": [[["custom_crop_layer_752", 0, 0, {}]]]}, {"class_name": "CustomPadLayer", "config": {"name": "custom_pad_layer_1021", "trainable": true, "dtype": "float32", "padding": [[1, 2], [7, 7], [1, 2]], "constant_values": 2}, "name": "custom_pad_layer_1021", "inbound_nodes": [[["max_pooling2d_1857_insert", 0, 0, {}]]]}, {"class_name": "BatchNormalization", "config": {"name": "batch_normalization_2319_insert", "trainable": true, "dtype": "float32", "axis": [3], "momentum": 0.99, "epsilon": 0.001, "center": true, "scale": false, "beta_initializer": {"class_name": "Zeros", "config": {}}, "gamma_initializer": {"class_name": "Ones", "config": {}}, "moving_mean_initializer": {"class_name": "Zeros", "config": {}}, "moving_variance_initializer": {"class_name": "Ones", "config": {}}, "beta_regularizer": null, "gamma_regularizer": null, "beta_constraint": null, "gamma_constraint": null}, "name": "batch_normalization_2319_insert", "inbound_nodes": [[["custom_pad_layer_1021", 0, 0, {}]]]}, {"class_name": "CustomPadLayer", "config": {"name": "custom_pad_layer_1022", "trainable": true, "dtype": "float32", "padding": [[0, 1], [0, 0], [0, 0]], "constant_values": 2}, "name": "custom_pad_layer_1022", "inbound_nodes": [[["batch_normalization_2319_insert", 0, 0, {}]]]}, {"class_name": "CustomCropLayer", "config": {"name": "custom_crop_layer_753", "trainable": true, "dtype": "float32", "cropping": [[0, 0], [2, 2], [2, 3]]}, "name": "custom_crop_layer_753", "inbound_nodes": [[["custom_pad_layer_1022", 0, 0, {}]]]}, {"class_name": "BatchNormalization", "config": {"name": "batch_normalization_2321_insert", "trainable": true, "dtype": "float32", "axis": [3], "momentum": 0.99, "epsilon": 0.001, "center": true, "scale": false, "beta_initializer": {"class_name": "Zeros", "config": {}}, "gamma_initializer": {"class_name": "Ones", "config": {}}, "moving_mean_initializer": {"class_name": "Zeros", "config": {}}, "moving_variance_initializer": {"class_name": "Ones", "config": {}}, "beta_regularizer": null, "gamma_regularizer": null, "beta_constraint": null, "gamma_constraint": null}, "name": "batch_normalization_2321_insert", "inbound_nodes": [[["custom_crop_layer_753", 0, 0, {}]]]}, {"class_name": "CustomPadLayer", "config": {"name": "custom_pad_layer_1023", "trainable": true, "dtype": "float32", "padding": [[3, 3], [0, 0], [1, 2]], "constant_values": 2}, "name": "custom_pad_layer_1023", "inbound_nodes": [[["batch_normalization_2321_insert", 0, 0, {}]]]}, {"class_name": "AveragePooling2D", "config": {"name": "average_pooling2d_1281_insert_2", "trainable": true, "dtype": "float32", "pool_size": [3, 3], "padding": "same", "strides": [1, 1], "data_format": "channels_last"}, "name": "average_pooling2d_1281_insert_2", "inbound_nodes": [[["max_pooling2d_1851_insert", 0, 0, {}]]]}, {"class_name": "CustomCropLayer", "config": {"name": "custom_crop_layer_754", "trainable": true, "dtype": "float32", "cropping": [[0, 0], [3, 4], [0, 0]]}, "name": "custom_crop_layer_754", "inbound_nodes": [[["custom_pad_layer_1023", 0, 0, {}]]]}, {"class_name": "Conv2D", "config": {"name": "conv2d_5371_insert_2", "trainable": true, "dtype": "float32", "filters": 1, "kernel_size": [1, 1], "strides": [1, 1], "padding": "valid", "data_format": "channels_last", "dilation_rate": [1, 1], "groups": 1, "activation": "linear", "use_bias": false, "kernel_initializer": {"class_name": "VarianceScaling", "config": {"scale": 1.0, "mode": "fan_avg", "distribution": "uniform", "seed": null}}, "bias_initializer": {"class_name": "Zeros", "config": {}}, "kernel_regularizer": null, "bias_regularizer": null, "activity_regularizer": null, "kernel_constraint": null, "bias_constraint": null}, "name": "conv2d_5371_insert_2", "inbound_nodes": [[["average_pooling2d_1281_insert_2", 0, 0, {}]]]}, {"class_name": "BatchNormalization", "config": {"name": "batch_normalization_2317_insert_2_merge1", "trainable": true, "dtype": "float32", "axis": [3], "momentum": 0.99, "epsilon": 0.001, "center": true, "scale": false, "beta_initializer": {"class_name": "Zeros", "config": {}}, "gamma_initializer": {"class_name": "Ones", "config": {}}, "moving_mean_initializer": {"class_name": "Zeros", "config": {}}, "moving_variance_initializer": {"class_name": "Ones", "config": {}}, "beta_regularizer": null, "gamma_regularizer": null, "beta_constraint": null, "gamma_constraint": null}, "name": "batch_normalization_2317_insert_2_merge1", "inbound_nodes": [[["conv2d_5367_insert", 0, 0, {}]]]}, {"class_name": "BatchNormalization", "config": {"name": "batch_normalization_2323_insert", "trainable": true, "dtype": "float32", "axis": [3], "momentum": 0.99, "epsilon": 0.001, "center": true, "scale": false, "beta_initializer": {"class_name": "Zeros", "config": {}}, "gamma_initializer": {"class_name": "Ones", "config": {}}, "moving_mean_initializer": {"class_name": "Zeros", "config": {}}, "moving_variance_initializer": {"class_name": "Ones", "config": {}}, "beta_regularizer": null, "gamma_regularizer": null, "beta_constraint": null, "gamma_constraint": null}, "name": "batch_normalization_2323_insert", "inbound_nodes": [[["custom_crop_layer_754", 0, 0, {}]]]}, {"class_name": "Cropping2D", "config": {"name": "cropping2d_105", "trainable": true, "dtype": "float32", "cropping": [[32, 32], [32, 32]], "data_format": "channels_last"}, "name": "cropping2d_105", "inbound_nodes": [[["average_pooling2d_1281_insert_2", 0, 0, {}]]]}, {"class_name": "Cropping2D", "config": {"name": "cropping2d_106", "trainable": true, "dtype": "float32", "cropping": [[32, 32], [32, 32]], "data_format": "channels_last"}, "name": "cropping2d_106", "inbound_nodes": [[["conv2d_5371_insert_2", 0, 0, {}]]]}, {"class_name": "Concatenate", "config": {"name": "concatenate_52_copy_ML", "trainable": true, "dtype": "float32", "axis": 3}, "name": "concatenate_52_copy_ML", "inbound_nodes": [[["batch_normalization_2317_insert_2_merge1", 0, 0, {}], ["conv2d_5367_insert", 0, 0, {}]]]}], "input_layers": [["input_998", 0, 0]], "output_layers": [["batch_normalization_2323_insert", 0, 0], ["cropping2d_105", 0, 0], ["cropping2d_106", 0, 0], ["concatenate_52_copy_ML", 0, 0]]}, "keras_version": "2.7.0", "backend": "tensorflow"}