{"class_name": "Functional", "config": {"name": "model_7979", "layers": [{"class_name": "InputLayer", "config": {"batch_input_shape": [null, 224, 224, 3], "dtype": "float32", "sparse": false, "ragged": false, "name": "input_1005"}, "name": "input_1005", "inbound_nodes": []}, {"class_name": "ZeroPadding2D", "config": {"name": "conv1_pad", "trainable": true, "dtype": "float32", "padding": [[3, 3], [3, 3]], "data_format": "channels_last"}, "name": "conv1_pad", "inbound_nodes": [[["input_1005", 0, 0, {}]]]}, {"class_name": "Conv2D", "config": {"name": "conv2d_5427_insert", "trainable": true, "dtype": "float32", "filters": 4, "kernel_size": [7, 7], "strides": [2, 2], "padding": "valid", "data_format": "channels_last", "dilation_rate": [1, 1], "groups": 1, "activation": "linear", "use_bias": true, "kernel_initializer": {"class_name": "VarianceScaling", "config": {"scale": 1.0, "mode": "fan_avg", "distribution": "uniform", "seed": null}}, "bias_initializer": {"class_name": "Zeros", "config": {}}, "kernel_regularizer": null, "bias_regularizer": null, "activity_regularizer": null, "kernel_constraint": null, "bias_constraint": null}, "name": "conv2d_5427_insert", "inbound_nodes": [[["conv1_pad", 0, 0, {}]]]}, {"class_name": "ZeroPadding2D", "config": {"name": "zero_padding2d_447_insert", "trainable": true, "dtype": "float32", "padding": [[1, 1], [1, 1]], "data_format": "channels_last"}, "name": "zero_padding2d_447_insert", "inbound_nodes": [[["conv2d_5427_insert", 0, 0, {}]]]}, {"class_name": "Conv2D", "config": {"name": "conv2d_5429_insert", "trainable": true, "dtype": "float32", "filters": 1, "kernel_size": [1, 1], "strides": [1, 1], "padding": "valid", "data_format": "channels_last", "dilation_rate": [1, 1], "groups": 1, "activation": "linear", "use_bias": true, "kernel_initializer": {"class_name": "VarianceScaling", "config": {"scale": 1.0, "mode": "fan_avg", "distribution": "uniform", "seed": null}}, "bias_initializer": {"class_name": "Zeros", "config": {}}, "kernel_regularizer": null, "bias_regularizer": null, "activity_regularizer": null, "kernel_constraint": null, "bias_constraint": null}, "name": "conv2d_5429_insert", "inbound_nodes": [[["zero_padding2d_447_insert", 0, 0, {}]]]}, {"class_name": "MaxPooling2D", "config": {"name": "max_pooling2d_1877_insert_1", "trainable": true, "dtype": "float32", "pool_size": [3, 3], "padding": "valid", "strides": [2, 2], "data_format": "channels_last"}, "name": "max_pooling2d_1877_insert_1", "inbound_nodes": [[["conv2d_5429_insert", 0, 0, {}]]]}, {"class_name": "Conv2D", "config": {"name": "conv2d_5431_insert", "trainable": true, "dtype": "float32", "filters": 5, "kernel_size": [3, 3], "strides": [1, 1], "padding": "same", "data_format": "channels_last", "dilation_rate": [1, 1], "groups": 1, "activation": "linear", "use_bias": true, "kernel_initializer": {"class_name": "VarianceScaling", "config": {"scale": 1.0, "mode": "fan_avg", "distribution": "uniform", "seed": null}}, "bias_initializer": {"class_name": "Zeros", "config": {}}, "kernel_regularizer": null, "bias_regularizer": null, "activity_regularizer": null, "kernel_constraint": null, "bias_constraint": null}, "name": "conv2d_5431_insert", "inbound_nodes": [[["max_pooling2d_1877_insert_1", 0, 0, {}]]]}, {"class_name": "BatchNormalization", "config": {"name": "batch_normalization_2341_insert_merge1", "trainable": true, "dtype": "float32", "axis": [3], "momentum": 0.99, "epsilon": 1.001e-05, "center": true, "scale": true, "beta_initializer": {"class_name": "Zeros", "config": {}}, "gamma_initializer": {"class_name": "Ones", "config": {}}, "moving_mean_initializer": {"class_name": "Zeros", "config": {}}, "moving_variance_initializer": {"class_name": "Ones", "config": {}}, "beta_regularizer": null, "gamma_regularizer": null, "beta_constraint": null, "gamma_constraint": null}, "name": "batch_normalization_2341_insert_merge1", "inbound_nodes": [[["conv2d_5431_insert", 0, 0, {}]]]}, {"class_name": "Add", "config": {"name": "add_62_copy_ML", "trainable": true, "dtype": "float32"}, "name": "add_62_copy_ML", "inbound_nodes": [[["batch_normalization_2341_insert_merge1", 0, 0, {}], ["conv2d_5431_insert", 0, 0, {}]]]}, {"class_name": "GlobalAveragePooling2D", "config": {"name": "global_average_pooling2d_1687_insert", "trainable": true, "dtype": "float32", "data_format": "channels_last", "keepdims": false}, "name": "global_average_pooling2d_1687_insert", "inbound_nodes": [[["add_62_copy_ML", 0, 0, {}]]]}, {"class_name": "CustomExpandLayer", "config": {"name": "custom_expand_layer_1708_insert", "trainable": true, "dtype": "float32", "axis": 1}, "name": "custom_expand_layer_1708_insert", "inbound_nodes": [[["global_average_pooling2d_1687_insert", 0, 0, {}]]]}, {"class_name": "CustomExpandLayer", "config": {"name": "custom_expand_layer_1709_insert", "trainable": true, "dtype": "float32", "axis": 1}, "name": "custom_expand_layer_1709_insert", "inbound_nodes": [[["custom_expand_layer_1708_insert", 0, 0, {}]]]}, {"class_name": "Conv2D", "config": {"name": "conv2d_5433_insert", "trainable": true, "dtype": "float32", "filters": 4, "kernel_size": [1, 1], "strides": [2, 2], "padding": "valid", "data_format": "channels_last", "dilation_rate": [1, 1], "groups": 1, "activation": "linear", "use_bias": true, "kernel_initializer": {"class_name": "VarianceScaling", "config": {"scale": 1.0, "mode": "fan_avg", "distribution": "uniform", "seed": null}}, "bias_initializer": {"class_name": "Zeros", "config": {}}, "kernel_regularizer": null, "bias_regularizer": null, "activity_regularizer": null, "kernel_constraint": null, "bias_constraint": null}, "name": "conv2d_5433_insert", "inbound_nodes": [[["custom_expand_layer_1709_insert", 0, 0, {}]]]}, {"class_name": "CustomPadLayer", "config": {"name": "custom_pad_layer_1034", "trainable": true, "dtype": "float32", "padding": [[5, 5], [5, 6], [1, 1]], "constant_values": 2}, "name": "custom_pad_layer_1034", "inbound_nodes": [[["conv2d_5433_insert", 0, 0, {}]]]}, {"class_name": "BatchNormalization", "config": {"name": "batch_normalization_2343_insert", "trainable": true, "dtype": "float32", "axis": [3], "momentum": 0.99, "epsilon": 1.001e-05, "center": true, "scale": true, "beta_initializer": {"class_name": "Zeros", "config": {}}, "gamma_initializer": {"class_name": "Ones", "config": {}}, "moving_mean_initializer": {"class_name": "Zeros", "config": {}}, "moving_variance_initializer": {"class_name": "Ones", "config": {}}, "beta_regularizer": null, "gamma_regularizer": null, "beta_constraint": null, "gamma_constraint": null}, "name": "batch_normalization_2343_insert", "inbound_nodes": [[["custom_pad_layer_1034", 0, 0, {}]]]}, {"class_name": "CustomPadLayer", "config": {"name": "custom_pad_layer_1035", "trainable": true, "dtype": "float32", "padding": [[0, 1], [1, 2], [3, 4]], "constant_values": 2}, "name": "custom_pad_layer_1035", "inbound_nodes": [[["batch_normalization_2343_insert", 0, 0, {}]]]}, {"class_name": "Conv2D", "config": {"name": "conv2d_5435_insert", "trainable": true, "dtype": "float32", "filters": 9, "kernel_size": [3, 3], "strides": [1, 1], "padding": "same", "data_format": "channels_last", "dilation_rate": [1, 1], "groups": 1, "activation": "linear", "use_bias": true, "kernel_initializer": {"class_name": "VarianceScaling", "config": {"scale": 1.0, "mode": "fan_avg", "distribution": "uniform", "seed": null}}, "bias_initializer": {"class_name": "Zeros", "config": {}}, "kernel_regularizer": null, "bias_regularizer": null, "activity_regularizer": null, "kernel_constraint": null, "bias_constraint": null}, "name": "conv2d_5435_insert", "inbound_nodes": [[["custom_pad_layer_1035", 0, 0, {}]]]}, {"class_name": "CustomPadLayer", "config": {"name": "custom_pad_layer_1036", "trainable": true, "dtype": "float32", "padding": [[1, 1], [0, 0], [2, 2]], "constant_values": 2}, "name": "custom_pad_layer_1036", "inbound_nodes": [[["conv2d_5435_insert", 0, 0, {}]]]}, {"class_name": "CustomCropLayer", "config": {"name": "custom_crop_layer_763", "trainable": true, "dtype": "float32", "cropping": [[0, 0], [3, 4], [0, 0]]}, "name": "custom_crop_layer_763", "inbound_nodes": [[["custom_pad_layer_1036", 0, 0, {}]]]}, {"class_name": "BatchNormalization", "config": {"name": "batch_normalization_2345_insert", "trainable": true, "dtype": "float32", "axis": [3], "momentum": 0.99, "epsilon": 1.001e-05, "center": true, "scale": true, "beta_initializer": {"class_name": "Zeros", "config": {}}, "gamma_initializer": {"class_name": "Ones", "config": {}}, "moving_mean_initializer": {"class_name": "Zeros", "config": {}}, "moving_variance_initializer": {"class_name": "Ones", "config": {}}, "beta_regularizer": null, "gamma_regularizer": null, "beta_constraint": null, "gamma_constraint": null}, "name": "batch_normalization_2345_insert", "inbound_nodes": [[["custom_crop_layer_763", 0, 0, {}]]]}, {"class_name": "CustomCropLayer", "config": {"name": "custom_crop_layer_764", "trainable": true, "dtype": "float32", "cropping": [[3, 4], [0, 0], [3, 4]]}, "name": "custom_crop_layer_764", "inbound_nodes": [[["batch_normalization_2345_insert", 0, 0, {}]]]}, {"class_name": "BatchNormalization", "config": {"name": "batch_normalization_2347_insert", "trainable": true, "dtype": "float32", "axis": [3], "momentum": 0.99, "epsilon": 1.001e-05, "center": true, "scale": true, "beta_initializer": {"class_name": "Zeros", "config": {}}, "gamma_initializer": {"class_name": "Ones", "config": {}}, "moving_mean_initializer": {"class_name": "Zeros", "config": {}}, "moving_variance_initializer": {"class_name": "Ones", "config": {}}, "beta_regularizer": null, "gamma_regularizer": null, "beta_constraint": null, "gamma_constraint": null}, "name": "batch_normalization_2347_insert", "inbound_nodes": [[["custom_crop_layer_764", 0, 0, {}]]]}, {"class_name": "CustomPadLayer", "config": {"name": "custom_pad_layer_1037", "trainable": true, "dtype": "float32", "padding": [[5, 6], [1, 1], [4, 4]], "constant_values": 2}, "name": "custom_pad_layer_1037", "inbound_nodes": [[["batch_normalization_2347_insert", 0, 0, {}]]]}, {"class_name": "MaxPooling2D", "config": {"name": "max_pooling2d_1877_insert_2", "trainable": true, "dtype": "float32", "pool_size": [3, 3], "padding": "valid", "strides": [2, 2], "data_format": "channels_last"}, "name": "max_pooling2d_1877_insert_2", "inbound_nodes": [[["zero_padding2d_447_insert", 0, 0, {}]]]}, {"class_name": "BatchNormalization", "config": {"name": "batch_normalization_2349_insert", "trainable": true, "dtype": "float32", "axis": [3], "momentum": 0.99, "epsilon": 1.001e-05, "center": true, "scale": true, "beta_initializer": {"class_name": "Zeros", "config": {}}, "gamma_initializer": {"class_name": "Ones", "config": {}}, "moving_mean_initializer": {"class_name": "Zeros", "config": {}}, "moving_variance_initializer": {"class_name": "Ones", "config": {}}, "beta_regularizer": null, "gamma_regularizer": null, "beta_constraint": null, "gamma_constraint": null}, "name": "batch_normalization_2349_insert", "inbound_nodes": [[["custom_pad_layer_1037", 0, 0, {}]]]}, {"class_name": "Cropping2D", "config": {"name": "cropping2d_107", "trainable": true, "dtype": "float32", "cropping": [[23, 23], [23, 23]], "data_format": "channels_last"}, "name": "cropping2d_107", "inbound_nodes": [[["max_pooling2d_1877_insert_2", 0, 0, {}]]]}], "input_layers": [["input_1005", 0, 0]], "output_layers": [["batch_normalization_2349_insert", 0, 0], ["cropping2d_107", 0, 0]]}, "keras_version": "2.7.0", "backend": "tensorflow"}