{"class_name": "Functional", "config": {"name": "model_7480", "layers": [{"class_name": "InputLayer", "config": {"batch_input_shape": [null, 32, 32, 3], "dtype": "float32", "sparse": false, "ragged": false, "name": "input_953"}, "name": "input_953", "inbound_nodes": []}, {"class_name": "Conv2D", "config": {"name": "conv2d_1", "trainable": true, "batch_input_shape": [null, 32, 32, 3], "dtype": "float32", "filters": 96, "kernel_size": [3, 3], "strides": [2, 2], "padding": "same", "data_format": "channels_last", "dilation_rate": [1, 1], "groups": 1, "activation": "relu", "use_bias": true, "kernel_initializer": {"class_name": "VarianceScaling", "config": {"scale": 1.0, "mode": "fan_avg", "distribution": "uniform", "seed": null}}, "bias_initializer": {"class_name": "Zeros", "config": {}}, "kernel_regularizer": null, "bias_regularizer": null, "activity_regularizer": null, "kernel_constraint": null, "bias_constraint": null}, "name": "conv2d_1", "inbound_nodes": [[["input_953", 0, 0, {}]]]}, {"class_name": "Conv2D", "config": {"name": "conv2d_5097_insert", "trainable": true, "dtype": "float32", "filters": 7, "kernel_size": [3, 3], "strides": [1, 1], "padding": "same", "data_format": "channels_last", "dilation_rate": [1, 1], "groups": 1, "activation": "relu", "use_bias": true, "kernel_initializer": {"class_name": "VarianceScaling", "config": {"scale": 1.0, "mode": "fan_avg", "distribution": "uniform", "seed": null}}, "bias_initializer": {"class_name": "Zeros", "config": {}}, "kernel_regularizer": null, "bias_regularizer": null, "activity_regularizer": null, "kernel_constraint": null, "bias_constraint": null}, "name": "conv2d_5097_insert", "inbound_nodes": [[["conv2d_1", 0, 0, {}]]]}, {"class_name": "Conv2D", "config": {"name": "conv2d_5099_insert", "trainable": true, "dtype": "float32", "filters": 6, "kernel_size": [5, 5], "strides": [1, 1], "padding": "same", "data_format": "channels_last", "dilation_rate": [1, 1], "groups": 1, "activation": "relu", "use_bias": true, "kernel_initializer": {"class_name": "VarianceScaling", "config": {"scale": 1.0, "mode": "fan_avg", "distribution": "uniform", "seed": null}}, "bias_initializer": {"class_name": "Zeros", "config": {}}, "kernel_regularizer": null, "bias_regularizer": null, "activity_regularizer": null, "kernel_constraint": null, "bias_constraint": null}, "name": "conv2d_5099_insert", "inbound_nodes": [[["conv2d_5097_insert", 0, 0, {}]]]}, {"class_name": "MaxPooling2D", "config": {"name": "max_pooling2d_1763_insert", "trainable": true, "dtype": "float32", "pool_size": [3, 3], "padding": "valid", "strides": [2, 2], "data_format": "channels_last"}, "name": "max_pooling2d_1763_insert", "inbound_nodes": [[["conv2d_5099_insert", 0, 0, {}]]]}, {"class_name": "Dropout", "config": {"name": "dropout_351_insert", "trainable": true, "dtype": "float32", "rate": 0.5, "noise_shape": null, "seed": null}, "name": "dropout_351_insert", "inbound_nodes": [[["max_pooling2d_1763_insert", 0, 0, {}]]]}, {"class_name": "BatchNormalization", "config": {"name": "batch_normalization_2185_insert", "trainable": true, "dtype": "float32", "axis": [3], "momentum": 0.99, "epsilon": 0.001, "center": true, "scale": true, "beta_initializer": {"class_name": "Zeros", "config": {}}, "gamma_initializer": {"class_name": "Ones", "config": {}}, "moving_mean_initializer": {"class_name": "Zeros", "config": {}}, "moving_variance_initializer": {"class_name": "Ones", "config": {}}, "beta_regularizer": null, "gamma_regularizer": null, "beta_constraint": null, "gamma_constraint": null}, "name": "batch_normalization_2185_insert", "inbound_nodes": [[["dropout_351_insert", 0, 0, {}]]]}, {"class_name": "MaxPooling2D", "config": {"name": "max_pooling2d_1765_insert", "trainable": true, "dtype": "float32", "pool_size": [2, 2], "padding": "valid", "strides": [2, 2], "data_format": "channels_last"}, "name": "max_pooling2d_1765_insert", "inbound_nodes": [[["batch_normalization_2185_insert", 0, 0, {}]]]}, {"class_name": "Flatten", "config": {"name": "flatten_124_insert_1", "trainable": true, "dtype": "float32", "data_format": "channels_last"}, "name": "flatten_124_insert_1", "inbound_nodes": [[["max_pooling2d_1765_insert", 0, 0, {}]]]}, {"class_name": "Dropout", "config": {"name": "dropout_353_insert", "trainable": true, "dtype": "float32", "rate": 0.5, "noise_shape": null, "seed": null}, "name": "dropout_353_insert", "inbound_nodes": [[["flatten_124_insert_1", 0, 0, {}]]]}, {"class_name": "CustomExpandLayer", "config": {"name": "custom_expand_layer_1625", "trainable": true, "dtype": "float32", "axis": 1}, "name": "custom_expand_layer_1625", "inbound_nodes": [[["dropout_353_insert", 0, 0, {}]]]}, {"class_name": "CustomExpandLayer", "config": {"name": "custom_expand_layer_1626", "trainable": true, "dtype": "float32", "axis": 1}, "name": "custom_expand_layer_1626", "inbound_nodes": [[["custom_expand_layer_1625", 0, 0, {}]]]}, {"class_name": "CustomPadLayer", "config": {"name": "custom_pad_layer_944", "trainable": true, "dtype": "float32", "padding": [[9, 9], [4, 5], [0, 0]], "constant_values": 2}, "name": "custom_pad_layer_944", "inbound_nodes": [[["custom_expand_layer_1626", 0, 0, {}]]]}, {"class_name": "CustomCropLayer", "config": {"name": "custom_crop_layer_695", "trainable": true, "dtype": "float32", "cropping": [[0, 0], [0, 0], [18, 18]]}, "name": "custom_crop_layer_695", "inbound_nodes": [[["custom_pad_layer_944", 0, 0, {}]]]}, {"class_name": "Conv2D", "config": {"name": "conv2d_5101_insert_1", "trainable": true, "batch_input_shape": [null, 32, 32, 3], "dtype": "float32", "filters": 3, "kernel_size": [3, 3], "strides": [2, 2], "padding": "same", "data_format": "channels_last", "dilation_rate": [1, 1], "groups": 1, "activation": "relu", "use_bias": true, "kernel_initializer": {"class_name": "VarianceScaling", "config": {"scale": 1.0, "mode": "fan_avg", "distribution": "uniform", "seed": null}}, "bias_initializer": {"class_name": "Zeros", "config": {}}, "kernel_regularizer": null, "bias_regularizer": null, "activity_regularizer": null, "kernel_constraint": null, "bias_constraint": null}, "name": "conv2d_5101_insert_1", "inbound_nodes": [[["custom_crop_layer_695", 0, 0, {}]]]}, {"class_name": "CustomPadLayer", "config": {"name": "custom_pad_layer_945", "trainable": true, "dtype": "float32", "padding": [[2, 2], [5, 6], [6, 6]], "constant_values": 2}, "name": "custom_pad_layer_945", "inbound_nodes": [[["conv2d_5101_insert_1", 0, 0, {}]]]}, {"class_name": "BatchNormalization", "config": {"name": "batch_normalization_2187_insert_1", "trainable": true, "dtype": "float32", "axis": [3], "momentum": 0.99, "epsilon": 0.001, "center": true, "scale": true, "beta_initializer": {"class_name": "Zeros", "config": {}}, "gamma_initializer": {"class_name": "Ones", "config": {}}, "moving_mean_initializer": {"class_name": "Zeros", "config": {}}, "moving_variance_initializer": {"class_name": "Ones", "config": {}}, "beta_regularizer": null, "gamma_regularizer": null, "beta_constraint": null, "gamma_constraint": null}, "name": "batch_normalization_2187_insert_1", "inbound_nodes": [[["custom_pad_layer_945", 0, 0, {}]]]}, {"class_name": "CustomCropLayer", "config": {"name": "custom_crop_layer_696", "trainable": true, "dtype": "float32", "cropping": [[4, 5], [3, 3], [2, 3]]}, "name": "custom_crop_layer_696", "inbound_nodes": [[["batch_normalization_2187_insert_1", 0, 0, {}]]]}, {"class_name": "MaxPooling2D", "config": {"name": "max_pooling2d_1767_insert", "trainable": true, "dtype": "float32", "pool_size": [2, 2], "padding": "valid", "strides": [2, 2], "data_format": "channels_last"}, "name": "max_pooling2d_1767_insert", "inbound_nodes": [[["custom_crop_layer_696", 0, 0, {}]]]}, {"class_name": "CustomPadLayer", "config": {"name": "custom_pad_layer_946", "trainable": true, "dtype": "float32", "padding": [[2, 2], [3, 3], [0, 0]], "constant_values": 2}, "name": "custom_pad_layer_946", "inbound_nodes": [[["max_pooling2d_1767_insert", 0, 0, {}]]]}, {"class_name": "CustomCropLayer", "config": {"name": "custom_crop_layer_697", "trainable": true, "dtype": "float32", "cropping": [[0, 0], [0, 0], [1, 2]]}, "name": "custom_crop_layer_697", "inbound_nodes": [[["custom_pad_layer_946", 0, 0, {}]]]}, {"class_name": "BatchNormalization", "config": {"name": "batch_normalization_2189_insert", "trainable": true, "dtype": "float32", "axis": [3], "momentum": 0.99, "epsilon": 0.001, "center": true, "scale": true, "beta_initializer": {"class_name": "Zeros", "config": {}}, "gamma_initializer": {"class_name": "Ones", "config": {}}, "moving_mean_initializer": {"class_name": "Zeros", "config": {}}, "moving_variance_initializer": {"class_name": "Ones", "config": {}}, "beta_regularizer": null, "gamma_regularizer": null, "beta_constraint": null, "gamma_constraint": null}, "name": "batch_normalization_2189_insert", "inbound_nodes": [[["custom_crop_layer_697", 0, 0, {}]]]}, {"class_name": "Conv2D", "config": {"name": "conv2d_5101_insert_2", "trainable": true, "batch_input_shape": [null, 32, 32, 3], "dtype": "float32", "filters": 3, "kernel_size": [3, 3], "strides": [2, 2], "padding": "same", "data_format": "channels_last", "dilation_rate": [1, 1], "groups": 1, "activation": "relu", "use_bias": true, "kernel_initializer": {"class_name": "VarianceScaling", "config": {"scale": 1.0, "mode": "fan_avg", "distribution": "uniform", "seed": null}}, "bias_initializer": {"class_name": "Zeros", "config": {}}, "kernel_regularizer": null, "bias_regularizer": null, "activity_regularizer": null, "kernel_constraint": null, "bias_constraint": null}, "name": "conv2d_5101_insert_2", "inbound_nodes": [[["batch_normalization_2185_insert", 0, 0, {}]]]}, {"class_name": "BatchNormalization", "config": {"name": "batch_normalization_2187_insert_2", "trainable": true, "dtype": "float32", "axis": [3], "momentum": 0.99, "epsilon": 0.001, "center": true, "scale": true, "beta_initializer": {"class_name": "Zeros", "config": {}}, "gamma_initializer": {"class_name": "Ones", "config": {}}, "moving_mean_initializer": {"class_name": "Zeros", "config": {}}, "moving_variance_initializer": {"class_name": "Ones", "config": {}}, "beta_regularizer": null, "gamma_regularizer": null, "beta_constraint": null, "gamma_constraint": null}, "name": "batch_normalization_2187_insert_2", "inbound_nodes": [[["max_pooling2d_1765_insert", 0, 0, {}]]]}, {"class_name": "Flatten", "config": {"name": "flatten_124_insert_2", "trainable": true, "dtype": "float32", "data_format": "channels_last"}, "name": "flatten_124_insert_2", "inbound_nodes": [[["batch_normalization_2185_insert", 0, 0, {}]]]}], "input_layers": [["input_953", 0, 0]], "output_layers": [["batch_normalization_2189_insert", 0, 0], ["conv2d_5101_insert_2", 0, 0], ["batch_normalization_2187_insert_2", 0, 0], ["flatten_124_insert_2", 0, 0]]}, "keras_version": "2.7.0", "backend": "tensorflow"}