{"class_name": "Functional", "config": {"name": "model_7713", "layers": [{"class_name": "InputLayer", "config": {"batch_input_shape": [null, 299, 299, 3], "dtype": "float32", "sparse": false, "ragged": false, "name": "input_980"}, "name": "input_980", "inbound_nodes": []}, {"class_name": "Conv2D", "config": {"name": "conv2d_1", "trainable": true, "dtype": "float32", "filters": 32, "kernel_size": [3, 3], "strides": [2, 2], "padding": "valid", "data_format": "channels_last", "dilation_rate": [1, 1], "groups": 1, "activation": "linear", "use_bias": false, "kernel_initializer": {"class_name": "VarianceScaling", "config": {"scale": 1.0, "mode": "fan_avg", "distribution": "uniform", "seed": null}}, "bias_initializer": {"class_name": "Zeros", "config": {}}, "kernel_regularizer": null, "bias_regularizer": null, "activity_regularizer": null, "kernel_constraint": null, "bias_constraint": null}, "name": "conv2d_1", "inbound_nodes": [[["input_980", 0, 0, {}]]]}, {"class_name": "Conv2D", "config": {"name": "conv2d_5273_insert", "trainable": true, "dtype": "float32", "filters": 3, "kernel_size": [3, 3], "strides": [1, 1], "padding": "valid", "data_format": "channels_last", "dilation_rate": [1, 1], "groups": 1, "activation": "linear", "use_bias": false, "kernel_initializer": {"class_name": "VarianceScaling", "config": {"scale": 1.0, "mode": "fan_avg", "distribution": "uniform", "seed": null}}, "bias_initializer": {"class_name": "Zeros", "config": {}}, "kernel_regularizer": null, "bias_regularizer": null, "activity_regularizer": null, "kernel_constraint": null, "bias_constraint": null}, "name": "conv2d_5273_insert", "inbound_nodes": [[["conv2d_1", 0, 0, {}]]]}, {"class_name": "MaxPooling2D", "config": {"name": "max_pooling2d_1813_insert", "trainable": true, "dtype": "float32", "pool_size": [3, 3], "padding": "valid", "strides": [2, 2], "data_format": "channels_last"}, "name": "max_pooling2d_1813_insert", "inbound_nodes": [[["conv2d_5273_insert", 0, 0, {}]]]}, {"class_name": "AveragePooling2D", "config": {"name": "average_pooling2d_1259_insert", "trainable": true, "dtype": "float32", "pool_size": [3, 3], "padding": "same", "strides": [1, 1], "data_format": "channels_last"}, "name": "average_pooling2d_1259_insert", "inbound_nodes": [[["max_pooling2d_1813_insert", 0, 0, {}]]]}, {"class_name": "BatchNormalization", "config": {"name": "batch_normalization_2247_insert_1", "trainable": true, "dtype": "float32", "axis": [3], "momentum": 0.99, "epsilon": 0.001, "center": true, "scale": false, "beta_initializer": {"class_name": "Zeros", "config": {}}, "gamma_initializer": {"class_name": "Ones", "config": {}}, "moving_mean_initializer": {"class_name": "Zeros", "config": {}}, "moving_variance_initializer": {"class_name": "Ones", "config": {}}, "beta_regularizer": null, "gamma_regularizer": null, "beta_constraint": null, "gamma_constraint": null}, "name": "batch_normalization_2247_insert_1", "inbound_nodes": [[["average_pooling2d_1259_insert", 0, 0, {}]]]}, {"class_name": "GlobalAveragePooling2D", "config": {"name": "global_average_pooling2d_1645_insert", "trainable": true, "dtype": "float32", "data_format": "channels_last", "keepdims": false}, "name": "global_average_pooling2d_1645_insert", "inbound_nodes": [[["batch_normalization_2247_insert_1", 0, 0, {}]]]}, {"class_name": "CustomExpandLayer", "config": {"name": "custom_expand_layer_1664_insert", "trainable": true, "dtype": "float32", "axis": 1}, "name": "custom_expand_layer_1664_insert", "inbound_nodes": [[["global_average_pooling2d_1645_insert", 0, 0, {}]]]}, {"class_name": "CustomExpandLayer", "config": {"name": "custom_expand_layer_1665_insert", "trainable": true, "dtype": "float32", "axis": 1}, "name": "custom_expand_layer_1665_insert", "inbound_nodes": [[["custom_expand_layer_1664_insert", 0, 0, {}]]]}, {"class_name": "Conv2D", "config": {"name": "conv2d_5275_insert", "trainable": true, "dtype": "float32", "filters": 9, "kernel_size": [1, 1], "strides": [1, 1], "padding": "same", "data_format": "channels_last", "dilation_rate": [1, 1], "groups": 1, "activation": "linear", "use_bias": false, "kernel_initializer": {"class_name": "VarianceScaling", "config": {"scale": 1.0, "mode": "fan_avg", "distribution": "uniform", "seed": null}}, "bias_initializer": {"class_name": "Zeros", "config": {}}, "kernel_regularizer": null, "bias_regularizer": null, "activity_regularizer": null, "kernel_constraint": null, "bias_constraint": null}, "name": "conv2d_5275_insert", "inbound_nodes": [[["custom_expand_layer_1665_insert", 0, 0, {}]]]}, {"class_name": "Conv2D", "config": {"name": "conv2d_5277_insert_1", "trainable": true, "dtype": "float32", "filters": 3, "kernel_size": [3, 3], "strides": [1, 1], "padding": "same", "data_format": "channels_last", "dilation_rate": [1, 1], "groups": 1, "activation": "linear", "use_bias": false, "kernel_initializer": {"class_name": "VarianceScaling", "config": {"scale": 1.0, "mode": "fan_avg", "distribution": "uniform", "seed": null}}, "bias_initializer": {"class_name": "Zeros", "config": {}}, "kernel_regularizer": null, "bias_regularizer": null, "activity_regularizer": null, "kernel_constraint": null, "bias_constraint": null}, "name": "conv2d_5277_insert_1", "inbound_nodes": [[["conv2d_5275_insert", 0, 0, {}]]]}, {"class_name": "Conv2D", "config": {"name": "conv2d_5279_insert", "trainable": true, "dtype": "float32", "filters": 3, "kernel_size": [1, 7], "strides": [1, 1], "padding": "same", "data_format": "channels_last", "dilation_rate": [1, 1], "groups": 1, "activation": "linear", "use_bias": false, "kernel_initializer": {"class_name": "VarianceScaling", "config": {"scale": 1.0, "mode": "fan_avg", "distribution": "uniform", "seed": null}}, "bias_initializer": {"class_name": "Zeros", "config": {}}, "kernel_regularizer": null, "bias_regularizer": null, "activity_regularizer": null, "kernel_constraint": null, "bias_constraint": null}, "name": "conv2d_5279_insert", "inbound_nodes": [[["conv2d_5277_insert_1", 0, 0, {}]]]}, {"class_name": "Conv2D", "config": {"name": "conv2d_5281_insert", "trainable": true, "dtype": "float32", "filters": 5, "kernel_size": [3, 1], "strides": [1, 1], "padding": "same", "data_format": "channels_last", "dilation_rate": [1, 1], "groups": 1, "activation": "linear", "use_bias": false, "kernel_initializer": {"class_name": "VarianceScaling", "config": {"scale": 1.0, "mode": "fan_avg", "distribution": "uniform", "seed": null}}, "bias_initializer": {"class_name": "Zeros", "config": {}}, "kernel_regularizer": null, "bias_regularizer": null, "activity_regularizer": null, "kernel_constraint": null, "bias_constraint": null}, "name": "conv2d_5281_insert", "inbound_nodes": [[["conv2d_5279_insert", 0, 0, {}]]]}, {"class_name": "Conv2D", "config": {"name": "conv2d_5283_insert", "trainable": true, "dtype": "float32", "filters": 4, "kernel_size": [1, 1], "strides": [1, 1], "padding": "valid", "data_format": "channels_last", "dilation_rate": [1, 1], "groups": 1, "activation": "linear", "use_bias": false, "kernel_initializer": {"class_name": "VarianceScaling", "config": {"scale": 1.0, "mode": "fan_avg", "distribution": "uniform", "seed": null}}, "bias_initializer": {"class_name": "Zeros", "config": {}}, "kernel_regularizer": null, "bias_regularizer": null, "activity_regularizer": null, "kernel_constraint": null, "bias_constraint": null}, "name": "conv2d_5283_insert", "inbound_nodes": [[["conv2d_5281_insert", 0, 0, {}]]]}, {"class_name": "Conv2D", "config": {"name": "conv2d_5285_insert", "trainable": true, "dtype": "float32", "filters": 9, "kernel_size": [1, 3], "strides": [1, 1], "padding": "same", "data_format": "channels_last", "dilation_rate": [1, 1], "groups": 1, "activation": "linear", "use_bias": false, "kernel_initializer": {"class_name": "VarianceScaling", "config": {"scale": 1.0, "mode": "fan_avg", "distribution": "uniform", "seed": null}}, "bias_initializer": {"class_name": "Zeros", "config": {}}, "kernel_regularizer": null, "bias_regularizer": null, "activity_regularizer": null, "kernel_constraint": null, "bias_constraint": null}, "name": "conv2d_5285_insert", "inbound_nodes": [[["conv2d_5283_insert", 0, 0, {}]]]}, {"class_name": "Conv2D", "config": {"name": "conv2d_5287_insert_1", "trainable": true, "dtype": "float32", "filters": 6, "kernel_size": [5, 5], "strides": [1, 1], "padding": "same", "data_format": "channels_last", "dilation_rate": [1, 1], "groups": 1, "activation": "linear", "use_bias": false, "kernel_initializer": {"class_name": "VarianceScaling", "config": {"scale": 1.0, "mode": "fan_avg", "distribution": "uniform", "seed": null}}, "bias_initializer": {"class_name": "Zeros", "config": {}}, "kernel_regularizer": null, "bias_regularizer": null, "activity_regularizer": null, "kernel_constraint": null, "bias_constraint": null}, "name": "conv2d_5287_insert_1", "inbound_nodes": [[["conv2d_5285_insert", 0, 0, {}]]]}, {"class_name": "Conv2D", "config": {"name": "conv2d_5289_insert", "trainable": true, "dtype": "float32", "filters": 4, "kernel_size": [7, 1], "strides": [1, 1], "padding": "same", "data_format": "channels_last", "dilation_rate": [1, 1], "groups": 1, "activation": "linear", "use_bias": false, "kernel_initializer": {"class_name": "VarianceScaling", "config": {"scale": 1.0, "mode": "fan_avg", "distribution": "uniform", "seed": null}}, "bias_initializer": {"class_name": "Zeros", "config": {}}, "kernel_regularizer": null, "bias_regularizer": null, "activity_regularizer": null, "kernel_constraint": null, "bias_constraint": null}, "name": "conv2d_5289_insert", "inbound_nodes": [[["conv2d_5287_insert_1", 0, 0, {}]]]}, {"class_name": "CustomPadLayer", "config": {"name": "custom_pad_layer_964", "trainable": true, "dtype": "float32", "padding": [[9, 9], [8, 9], [6, 6]], "constant_values": 2}, "name": "custom_pad_layer_964", "inbound_nodes": [[["conv2d_5289_insert", 0, 0, {}]]]}, {"class_name": "BatchNormalization", "config": {"name": "batch_normalization_2249_insert", "trainable": true, "dtype": "float32", "axis": [3], "momentum": 0.99, "epsilon": 0.001, "center": true, "scale": false, "beta_initializer": {"class_name": "Zeros", "config": {}}, "gamma_initializer": {"class_name": "Ones", "config": {}}, "moving_mean_initializer": {"class_name": "Zeros", "config": {}}, "moving_variance_initializer": {"class_name": "Ones", "config": {}}, "beta_regularizer": null, "gamma_regularizer": null, "beta_constraint": null, "gamma_constraint": null}, "name": "batch_normalization_2249_insert", "inbound_nodes": [[["custom_pad_layer_964", 0, 0, {}]]]}, {"class_name": "CustomCropLayer", "config": {"name": "custom_crop_layer_711", "trainable": true, "dtype": "float32", "cropping": [[0, 0], [3, 3], [1, 1]]}, "name": "custom_crop_layer_711", "inbound_nodes": [[["batch_normalization_2249_insert", 0, 0, {}]]]}, {"class_name": "AveragePooling2D", "config": {"name": "average_pooling2d_1261_insert", "trainable": true, "dtype": "float32", "pool_size": [3, 3], "padding": "same", "strides": [1, 1], "data_format": "channels_last"}, "name": "average_pooling2d_1261_insert", "inbound_nodes": [[["custom_crop_layer_711", 0, 0, {}]]]}, {"class_name": "CustomPadLayer", "config": {"name": "custom_pad_layer_965", "trainable": true, "dtype": "float32", "padding": [[0, 0], [2, 2], [0, 0]], "constant_values": 2}, "name": "custom_pad_layer_965", "inbound_nodes": [[["average_pooling2d_1261_insert", 0, 0, {}]]]}, {"class_name": "CustomCropLayer", "config": {"name": "custom_crop_layer_712", "trainable": true, "dtype": "float32", "cropping": [[0, 1], [0, 0], [3, 3]]}, "name": "custom_crop_layer_712", "inbound_nodes": [[["custom_pad_layer_965", 0, 0, {}]]]}, {"class_name": "AveragePooling2D", "config": {"name": "average_pooling2d_1263_insert", "trainable": true, "dtype": "float32", "pool_size": [3, 3], "padding": "same", "strides": [1, 1], "data_format": "channels_last"}, "name": "average_pooling2d_1263_insert", "inbound_nodes": [[["custom_crop_layer_712", 0, 0, {}]]]}, {"class_name": "CustomPadLayer", "config": {"name": "custom_pad_layer_966", "trainable": true, "dtype": "float32", "padding": [[0, 0], [0, 0], [0, 1]], "constant_values": 2}, "name": "custom_pad_layer_966", "inbound_nodes": [[["average_pooling2d_1263_insert", 0, 0, {}]]]}, {"class_name": "CustomCropLayer", "config": {"name": "custom_crop_layer_713", "trainable": true, "dtype": "float32", "cropping": [[5, 5], [1, 2], [0, 0]]}, "name": "custom_crop_layer_713", "inbound_nodes": [[["custom_pad_layer_966", 0, 0, {}]]]}, {"class_name": "BatchNormalization", "config": {"name": "batch_normalization_2251_insert", "trainable": true, "dtype": "float32", "axis": [3], "momentum": 0.99, "epsilon": 0.001, "center": true, "scale": false, "beta_initializer": {"class_name": "Zeros", "config": {}}, "gamma_initializer": {"class_name": "Ones", "config": {}}, "moving_mean_initializer": {"class_name": "Zeros", "config": {}}, "moving_variance_initializer": {"class_name": "Ones", "config": {}}, "beta_regularizer": null, "gamma_regularizer": null, "beta_constraint": null, "gamma_constraint": null}, "name": "batch_normalization_2251_insert", "inbound_nodes": [[["custom_crop_layer_713", 0, 0, {}]]]}, {"class_name": "CustomPadLayer", "config": {"name": "custom_pad_layer_967", "trainable": true, "dtype": "float32", "padding": [[2, 3], [0, 0], [0, 0]], "constant_values": 2}, "name": "custom_pad_layer_967", "inbound_nodes": [[["batch_normalization_2251_insert", 0, 0, {}]]]}, {"class_name": "CustomCropLayer", "config": {"name": "custom_crop_layer_714", "trainable": true, "dtype": "float32", "cropping": [[0, 0], [2, 3], [2, 2]]}, "name": "custom_crop_layer_714", "inbound_nodes": [[["custom_pad_layer_967", 0, 0, {}]]]}, {"class_name": "MaxPooling2D", "config": {"name": "max_pooling2d_1815_insert", "trainable": true, "dtype": "float32", "pool_size": [3, 3], "padding": "valid", "strides": [2, 2], "data_format": "channels_last"}, "name": "max_pooling2d_1815_insert", "inbound_nodes": [[["custom_crop_layer_714", 0, 0, {}]]]}, {"class_name": "CustomPadLayer", "config": {"name": "custom_pad_layer_968", "trainable": true, "dtype": "float32", "padding": [[0, 1], [6, 7], [6, 7]], "constant_values": 2}, "name": "custom_pad_layer_968", "inbound_nodes": [[["max_pooling2d_1815_insert", 0, 0, {}]]]}, {"class_name": "MaxPooling2D", "config": {"name": "max_pooling2d_1817_insert", "trainable": true, "dtype": "float32", "pool_size": [3, 3], "padding": "valid", "strides": [2, 2], "data_format": "channels_last"}, "name": "max_pooling2d_1817_insert", "inbound_nodes": [[["custom_pad_layer_968", 0, 0, {}]]]}, {"class_name": "CustomPadLayer", "config": {"name": "custom_pad_layer_969", "trainable": true, "dtype": "float32", "padding": [[5, 6], [5, 6], [0, 0]], "constant_values": 2}, "name": "custom_pad_layer_969", "inbound_nodes": [[["max_pooling2d_1817_insert", 0, 0, {}]]]}, {"class_name": "CustomCropLayer", "config": {"name": "custom_crop_layer_715", "trainable": true, "dtype": "float32", "cropping": [[0, 0], [0, 0], [3, 3]]}, "name": "custom_crop_layer_715", "inbound_nodes": [[["custom_pad_layer_969", 0, 0, {}]]]}, {"class_name": "BatchNormalization", "config": {"name": "batch_normalization_2253_insert", "trainable": true, "dtype": "float32", "axis": [3], "momentum": 0.99, "epsilon": 0.001, "center": true, "scale": false, "beta_initializer": {"class_name": "Zeros", "config": {}}, "gamma_initializer": {"class_name": "Ones", "config": {}}, "moving_mean_initializer": {"class_name": "Zeros", "config": {}}, "moving_variance_initializer": {"class_name": "Ones", "config": {}}, "beta_regularizer": null, "gamma_regularizer": null, "beta_constraint": null, "gamma_constraint": null}, "name": "batch_normalization_2253_insert", "inbound_nodes": [[["custom_crop_layer_715", 0, 0, {}]]]}, {"class_name": "CustomPadLayer", "config": {"name": "custom_pad_layer_970", "trainable": true, "dtype": "float32", "padding": [[0, 0], [0, 0], [3, 4]], "constant_values": 2}, "name": "custom_pad_layer_970", "inbound_nodes": [[["batch_normalization_2253_insert", 0, 0, {}]]]}, {"class_name": "CustomCropLayer", "config": {"name": "custom_crop_layer_716", "trainable": true, "dtype": "float32", "cropping": [[3, 4], [6, 6], [0, 0]]}, "name": "custom_crop_layer_716", "inbound_nodes": [[["custom_pad_layer_970", 0, 0, {}]]]}, {"class_name": "AveragePooling2D", "config": {"name": "average_pooling2d_1265_insert", "trainable": true, "dtype": "float32", "pool_size": [3, 3], "padding": "same", "strides": [1, 1], "data_format": "channels_last"}, "name": "average_pooling2d_1265_insert", "inbound_nodes": [[["custom_crop_layer_716", 0, 0, {}]]]}, {"class_name": "CustomPadLayer", "config": {"name": "custom_pad_layer_971", "trainable": true, "dtype": "float32", "padding": [[1, 1], [3, 4], [0, 0]], "constant_values": 2}, "name": "custom_pad_layer_971", "inbound_nodes": [[["average_pooling2d_1265_insert", 0, 0, {}]]]}, {"class_name": "CustomCropLayer", "config": {"name": "custom_crop_layer_717", "trainable": true, "dtype": "float32", "cropping": [[0, 0], [0, 0], [3, 3]]}, "name": "custom_crop_layer_717", "inbound_nodes": [[["custom_pad_layer_971", 0, 0, {}]]]}, {"class_name": "MaxPooling2D", "config": {"name": "max_pooling2d_1819_insert", "trainable": true, "dtype": "float32", "pool_size": [3, 3], "padding": "valid", "strides": [2, 2], "data_format": "channels_last"}, "name": "max_pooling2d_1819_insert", "inbound_nodes": [[["custom_crop_layer_717", 0, 0, {}]]]}, {"class_name": "CustomPadLayer", "config": {"name": "custom_pad_layer_972", "trainable": true, "dtype": "float32", "padding": [[6, 6], [5, 6], [0, 0]], "constant_values": 2}, "name": "custom_pad_layer_972", "inbound_nodes": [[["max_pooling2d_1819_insert", 0, 0, {}]]]}, {"class_name": "CustomCropLayer", "config": {"name": "custom_crop_layer_718", "trainable": true, "dtype": "float32", "cropping": [[0, 0], [0, 0], [0, 1]]}, "name": "custom_crop_layer_718", "inbound_nodes": [[["custom_pad_layer_972", 0, 0, {}]]]}, {"class_name": "AveragePooling2D", "config": {"name": "average_pooling2d_1267_insert_merge1", "trainable": true, "dtype": "float32", "pool_size": [3, 3], "padding": "same", "strides": [1, 1], "data_format": "channels_last"}, "name": "average_pooling2d_1267_insert_merge1", "inbound_nodes": [[["custom_crop_layer_718", 0, 0, {}]]]}, {"class_name": "Concatenate", "config": {"name": "concatenate_50_copy_ML", "trainable": true, "dtype": "float32", "axis": 3}, "name": "concatenate_50_copy_ML", "inbound_nodes": [[["average_pooling2d_1267_insert_merge1", 0, 0, {}], ["custom_crop_layer_718", 0, 0, {}]]]}, {"class_name": "CustomCropLayer", "config": {"name": "custom_crop_layer_719", "trainable": true, "dtype": "float32", "cropping": [[3, 3], [2, 2], [2, 2]]}, "name": "custom_crop_layer_719", "inbound_nodes": [[["concatenate_50_copy_ML", 0, 0, {}]]]}, {"class_name": "Conv2D", "config": {"name": "conv2d_5277_insert_2", "trainable": true, "dtype": "float32", "filters": 3, "kernel_size": [3, 3], "strides": [1, 1], "padding": "same", "data_format": "channels_last", "dilation_rate": [1, 1], "groups": 1, "activation": "linear", "use_bias": false, "kernel_initializer": {"class_name": "VarianceScaling", "config": {"scale": 1.0, "mode": "fan_avg", "distribution": "uniform", "seed": null}}, "bias_initializer": {"class_name": "Zeros", "config": {}}, "kernel_regularizer": null, "bias_regularizer": null, "activity_regularizer": null, "kernel_constraint": null, "bias_constraint": null}, "name": "conv2d_5277_insert_2", "inbound_nodes": [[["average_pooling2d_1259_insert", 0, 0, {}]]]}, {"class_name": "BatchNormalization", "config": {"name": "batch_normalization_2247_insert_2", "trainable": true, "dtype": "float32", "axis": [3], "momentum": 0.99, "epsilon": 0.001, "center": true, "scale": false, "beta_initializer": {"class_name": "Zeros", "config": {}}, "gamma_initializer": {"class_name": "Ones", "config": {}}, "moving_mean_initializer": {"class_name": "Zeros", "config": {}}, "moving_variance_initializer": {"class_name": "Ones", "config": {}}, "beta_regularizer": null, "gamma_regularizer": null, "beta_constraint": null, "gamma_constraint": null}, "name": "batch_normalization_2247_insert_2", "inbound_nodes": [[["conv2d_5273_insert", 0, 0, {}]]]}, {"class_name": "BatchNormalization", "config": {"name": "batch_normalization_2255_insert", "trainable": true, "dtype": "float32", "axis": [3], "momentum": 0.99, "epsilon": 0.001, "center": true, "scale": false, "beta_initializer": {"class_name": "Zeros", "config": {}}, "gamma_initializer": {"class_name": "Ones", "config": {}}, "moving_mean_initializer": {"class_name": "Zeros", "config": {}}, "moving_variance_initializer": {"class_name": "Ones", "config": {}}, "beta_regularizer": null, "gamma_regularizer": null, "beta_constraint": null, "gamma_constraint": null}, "name": "batch_normalization_2255_insert", "inbound_nodes": [[["custom_crop_layer_719", 0, 0, {}]]]}, {"class_name": "Cropping2D", "config": {"name": "cropping2d_99", "trainable": true, "dtype": "float32", "cropping": [[31, 31], [31, 31]], "data_format": "channels_last"}, "name": "cropping2d_99", "inbound_nodes": [[["conv2d_5277_insert_2", 0, 0, {}]]]}, {"class_name": "Cropping2D", "config": {"name": "cropping2d_100", "trainable": true, "dtype": "float32", "cropping": [[68, 68], [68, 68]], "data_format": "channels_last"}, "name": "cropping2d_100", "inbound_nodes": [[["batch_normalization_2247_insert_2", 0, 0, {}]]]}, {"class_name": "Conv2D", "config": {"name": "conv2d_5287_insert_2", "trainable": true, "dtype": "float32", "filters": 6, "kernel_size": [5, 5], "strides": [1, 1], "padding": "same", "data_format": "channels_last", "dilation_rate": [1, 1], "groups": 1, "activation": "linear", "use_bias": false, "kernel_initializer": {"class_name": "VarianceScaling", "config": {"scale": 1.0, "mode": "fan_avg", "distribution": "uniform", "seed": null}}, "bias_initializer": {"class_name": "Zeros", "config": {}}, "kernel_regularizer": null, "bias_regularizer": null, "activity_regularizer": null, "kernel_constraint": null, "bias_constraint": null}, "name": "conv2d_5287_insert_2", "inbound_nodes": [[["max_pooling2d_1817_insert", 0, 0, {}]]]}], "input_layers": [["input_980", 0, 0]], "output_layers": [["batch_normalization_2255_insert", 0, 0], ["cropping2d_99", 0, 0], ["cropping2d_100", 0, 0], ["conv2d_5287_insert_2", 0, 0]]}, "keras_version": "2.7.0", "backend": "tensorflow"}