{"class_name": "Functional", "config": {"name": "model_3490", "layers": [{"class_name": "InputLayer", "config": {"batch_input_shape": [null, 32, 32, 3], "dtype": "float32", "sparse": false, "ragged": false, "name": "input_447"}, "name": "input_447", "inbound_nodes": []}, {"class_name": "Conv2D", "config": {"name": "conv2d_1", "trainable": true, "batch_input_shape": [null, 32, 32, 3], "dtype": "float32", "filters": 96, "kernel_size": [3, 3], "strides": [2, 2], "padding": "same", "data_format": "channels_last", "dilation_rate": [1, 1], "groups": 1, "activation": "relu", "use_bias": true, "kernel_initializer": {"class_name": "VarianceScaling", "config": {"scale": 1.0, "mode": "fan_avg", "distribution": "uniform", "seed": null}}, "bias_initializer": {"class_name": "Zeros", "config": {}}, "kernel_regularizer": null, "bias_regularizer": null, "activity_regularizer": null, "kernel_constraint": null, "bias_constraint": null}, "name": "conv2d_1", "inbound_nodes": [[["input_447", 0, 0, {}]]]}, {"class_name": "MaxPooling2D", "config": {"name": "max_pooling2d_797_insert", "trainable": true, "dtype": "float32", "pool_size": [2, 2], "padding": "valid", "strides": [2, 2], "data_format": "channels_last"}, "name": "max_pooling2d_797_insert", "inbound_nodes": [[["conv2d_1", 0, 0, {}]]]}, {"class_name": "MaxPooling2D", "config": {"name": "max_pooling2d_799_insert", "trainable": true, "dtype": "float32", "pool_size": [3, 3], "padding": "valid", "strides": [2, 2], "data_format": "channels_last"}, "name": "max_pooling2d_799_insert", "inbound_nodes": [[["max_pooling2d_797_insert", 0, 0, {}]]]}, {"class_name": "Conv2D", "config": {"name": "conv2d_2307_insert", "trainable": true, "dtype": "float32", "filters": 2, "kernel_size": [5, 5], "strides": [1, 1], "padding": "same", "data_format": "channels_last", "dilation_rate": [1, 1], "groups": 1, "activation": "relu", "use_bias": true, "kernel_initializer": {"class_name": "VarianceScaling", "config": {"scale": 1.0, "mode": "fan_avg", "distribution": "uniform", "seed": null}}, "bias_initializer": {"class_name": "Zeros", "config": {}}, "kernel_regularizer": null, "bias_regularizer": null, "activity_regularizer": null, "kernel_constraint": null, "bias_constraint": null}, "name": "conv2d_2307_insert", "inbound_nodes": [[["max_pooling2d_799_insert", 0, 0, {}]]]}, {"class_name": "Dropout", "config": {"name": "dropout_169_insert", "trainable": true, "dtype": "float32", "rate": 0.5, "noise_shape": null, "seed": null}, "name": "dropout_169_insert", "inbound_nodes": [[["conv2d_2307_insert", 0, 0, {}]]]}, {"class_name": "Conv2D", "config": {"name": "conv2d_2309_insert_1", "trainable": true, "dtype": "float32", "filters": 1, "kernel_size": [3, 3], "strides": [1, 1], "padding": "same", "data_format": "channels_last", "dilation_rate": [1, 1], "groups": 1, "activation": "relu", "use_bias": true, "kernel_initializer": {"class_name": "VarianceScaling", "config": {"scale": 1.0, "mode": "fan_avg", "distribution": "uniform", "seed": null}}, "bias_initializer": {"class_name": "Zeros", "config": {}}, "kernel_regularizer": null, "bias_regularizer": null, "activity_regularizer": null, "kernel_constraint": null, "bias_constraint": null}, "name": "conv2d_2309_insert_1", "inbound_nodes": [[["dropout_169_insert", 0, 0, {}]]]}, {"class_name": "BatchNormalization", "config": {"name": "batch_normalization_1023_insert", "trainable": true, "dtype": "float32", "axis": [3], "momentum": 0.99, "epsilon": 0.001, "center": true, "scale": true, "beta_initializer": {"class_name": "Zeros", "config": {}}, "gamma_initializer": {"class_name": "Ones", "config": {}}, "moving_mean_initializer": {"class_name": "Zeros", "config": {}}, "moving_variance_initializer": {"class_name": "Ones", "config": {}}, "beta_regularizer": null, "gamma_regularizer": null, "beta_constraint": null, "gamma_constraint": null}, "name": "batch_normalization_1023_insert", "inbound_nodes": [[["conv2d_2309_insert_1", 0, 0, {}]]]}, {"class_name": "Flatten", "config": {"name": "flatten_62_insert", "trainable": true, "dtype": "float32", "data_format": "channels_last"}, "name": "flatten_62_insert", "inbound_nodes": [[["batch_normalization_1023_insert", 0, 0, {}]]]}, {"class_name": "Dropout", "config": {"name": "dropout_171_insert", "trainable": true, "dtype": "float32", "rate": 0.5, "noise_shape": null, "seed": null}, "name": "dropout_171_insert", "inbound_nodes": [[["flatten_62_insert", 0, 0, {}]]]}, {"class_name": "CustomExpandLayer", "config": {"name": "custom_expand_layer_760", "trainable": true, "dtype": "float32", "axis": 1}, "name": "custom_expand_layer_760", "inbound_nodes": [[["dropout_171_insert", 0, 0, {}]]]}, {"class_name": "CustomExpandLayer", "config": {"name": "custom_expand_layer_761", "trainable": true, "dtype": "float32", "axis": 1}, "name": "custom_expand_layer_761", "inbound_nodes": [[["custom_expand_layer_760", 0, 0, {}]]]}, {"class_name": "CustomPadLayer", "config": {"name": "custom_pad_layer_448", "trainable": true, "dtype": "float32", "padding": [[4, 5], [4, 5], [1, 1]], "constant_values": 2}, "name": "custom_pad_layer_448", "inbound_nodes": [[["custom_expand_layer_761", 0, 0, {}]]]}, {"class_name": "Conv2D", "config": {"name": "conv2d_2311_insert_1", "trainable": true, "batch_input_shape": [null, 32, 32, 3], "dtype": "float32", "filters": 4, "kernel_size": [3, 3], "strides": [2, 2], "padding": "same", "data_format": "channels_last", "dilation_rate": [1, 1], "groups": 1, "activation": "relu", "use_bias": true, "kernel_initializer": {"class_name": "VarianceScaling", "config": {"scale": 1.0, "mode": "fan_avg", "distribution": "uniform", "seed": null}}, "bias_initializer": {"class_name": "Zeros", "config": {}}, "kernel_regularizer": null, "bias_regularizer": null, "activity_regularizer": null, "kernel_constraint": null, "bias_constraint": null}, "name": "conv2d_2311_insert_1", "inbound_nodes": [[["custom_pad_layer_448", 0, 0, {}]]]}, {"class_name": "CustomPadLayer", "config": {"name": "custom_pad_layer_449", "trainable": true, "dtype": "float32", "padding": [[2, 3], [7, 7], [1, 2]], "constant_values": 2}, "name": "custom_pad_layer_449", "inbound_nodes": [[["conv2d_2311_insert_1", 0, 0, {}]]]}, {"class_name": "MaxPooling2D", "config": {"name": "max_pooling2d_801_insert", "trainable": true, "dtype": "float32", "pool_size": [3, 3], "padding": "valid", "strides": [2, 2], "data_format": "channels_last"}, "name": "max_pooling2d_801_insert", "inbound_nodes": [[["custom_pad_layer_449", 0, 0, {}]]]}, {"class_name": "CustomPadLayer", "config": {"name": "custom_pad_layer_450", "trainable": true, "dtype": "float32", "padding": [[4, 4], [0, 1], [1, 2]], "constant_values": 2}, "name": "custom_pad_layer_450", "inbound_nodes": [[["max_pooling2d_801_insert", 0, 0, {}]]]}, {"class_name": "BatchNormalization", "config": {"name": "batch_normalization_1025_insert", "trainable": true, "dtype": "float32", "axis": [3], "momentum": 0.99, "epsilon": 0.001, "center": true, "scale": true, "beta_initializer": {"class_name": "Zeros", "config": {}}, "gamma_initializer": {"class_name": "Ones", "config": {}}, "moving_mean_initializer": {"class_name": "Zeros", "config": {}}, "moving_variance_initializer": {"class_name": "Ones", "config": {}}, "beta_regularizer": null, "gamma_regularizer": null, "beta_constraint": null, "gamma_constraint": null}, "name": "batch_normalization_1025_insert", "inbound_nodes": [[["custom_pad_layer_450", 0, 0, {}]]]}, {"class_name": "CustomPadLayer", "config": {"name": "custom_pad_layer_451", "trainable": true, "dtype": "float32", "padding": [[2, 2], [1, 2], [0, 0]], "constant_values": 2}, "name": "custom_pad_layer_451", "inbound_nodes": [[["batch_normalization_1025_insert", 0, 0, {}]]]}, {"class_name": "BatchNormalization", "config": {"name": "batch_normalization_1027_insert_2", "trainable": true, "dtype": "float32", "axis": [3], "momentum": 0.99, "epsilon": 0.001, "center": true, "scale": true, "beta_initializer": {"class_name": "Zeros", "config": {}}, "gamma_initializer": {"class_name": "Ones", "config": {}}, "moving_mean_initializer": {"class_name": "Zeros", "config": {}}, "moving_variance_initializer": {"class_name": "Ones", "config": {}}, "beta_regularizer": null, "gamma_regularizer": null, "beta_constraint": null, "gamma_constraint": null}, "name": "batch_normalization_1027_insert_2", "inbound_nodes": [[["max_pooling2d_797_insert", 0, 0, {}]]]}, {"class_name": "BatchNormalization", "config": {"name": "batch_normalization_1027_insert_1", "trainable": true, "dtype": "float32", "axis": [3], "momentum": 0.99, "epsilon": 0.001, "center": true, "scale": true, "beta_initializer": {"class_name": "Zeros", "config": {}}, "gamma_initializer": {"class_name": "Ones", "config": {}}, "moving_mean_initializer": {"class_name": "Zeros", "config": {}}, "moving_variance_initializer": {"class_name": "Ones", "config": {}}, "beta_regularizer": null, "gamma_regularizer": null, "beta_constraint": null, "gamma_constraint": null}, "name": "batch_normalization_1027_insert_1", "inbound_nodes": [[["custom_pad_layer_451", 0, 0, {}]]]}, {"class_name": "Conv2D", "config": {"name": "conv2d_2309_insert_2", "trainable": true, "dtype": "float32", "filters": 1, "kernel_size": [3, 3], "strides": [1, 1], "padding": "same", "data_format": "channels_last", "dilation_rate": [1, 1], "groups": 1, "activation": "relu", "use_bias": true, "kernel_initializer": {"class_name": "VarianceScaling", "config": {"scale": 1.0, "mode": "fan_avg", "distribution": "uniform", "seed": null}}, "bias_initializer": {"class_name": "Zeros", "config": {}}, "kernel_regularizer": null, "bias_regularizer": null, "activity_regularizer": null, "kernel_constraint": null, "bias_constraint": null}, "name": "conv2d_2309_insert_2", "inbound_nodes": [[["batch_normalization_1027_insert_2", 0, 0, {}]]]}, {"class_name": "Conv2D", "config": {"name": "conv2d_2311_insert_2", "trainable": true, "batch_input_shape": [null, 32, 32, 3], "dtype": "float32", "filters": 4, "kernel_size": [3, 3], "strides": [2, 2], "padding": "same", "data_format": "channels_last", "dilation_rate": [1, 1], "groups": 1, "activation": "relu", "use_bias": true, "kernel_initializer": {"class_name": "VarianceScaling", "config": {"scale": 1.0, "mode": "fan_avg", "distribution": "uniform", "seed": null}}, "bias_initializer": {"class_name": "Zeros", "config": {}}, "kernel_regularizer": null, "bias_regularizer": null, "activity_regularizer": null, "kernel_constraint": null, "bias_constraint": null}, "name": "conv2d_2311_insert_2", "inbound_nodes": [[["conv2d_2307_insert", 0, 0, {}]]]}], "input_layers": [["input_447", 0, 0]], "output_layers": [["batch_normalization_1027_insert_1", 0, 0], ["conv2d_2309_insert_2", 0, 0], ["conv2d_2311_insert_2", 0, 0]]}, "keras_version": "2.7.0", "backend": "tensorflow"}