{"class_name": "Functional", "config": {"name": "model_3868", "layers": [{"class_name": "InputLayer", "config": {"batch_input_shape": [null, 224, 224, 3], "dtype": "float32", "sparse": false, "ragged": false, "name": "input_501"}, "name": "input_501", "inbound_nodes": []}, {"class_name": "ZeroPadding2D", "config": {"name": "conv1_pad", "trainable": true, "dtype": "float32", "padding": [[3, 3], [3, 3]], "data_format": "channels_last"}, "name": "conv1_pad", "inbound_nodes": [[["input_501", 0, 0, {}]]]}, {"class_name": "ZeroPadding2D", "config": {"name": "zero_padding2d_209_insert", "trainable": true, "dtype": "float32", "padding": [[1, 1], [1, 1]], "data_format": "channels_last"}, "name": "zero_padding2d_209_insert", "inbound_nodes": [[["conv1_pad", 0, 0, {}]]]}, {"class_name": "MaxPooling2D", "config": {"name": "max_pooling2d_883_insert", "trainable": true, "dtype": "float32", "pool_size": [3, 3], "padding": "valid", "strides": [2, 2], "data_format": "channels_last"}, "name": "max_pooling2d_883_insert", "inbound_nodes": [[["zero_padding2d_209_insert", 0, 0, {}]]]}, {"class_name": "BatchNormalization", "config": {"name": "batch_normalization_1123_insert_merge1", "trainable": true, "dtype": "float32", "axis": [3], "momentum": 0.99, "epsilon": 1.001e-05, "center": true, "scale": true, "beta_initializer": {"class_name": "Zeros", "config": {}}, "gamma_initializer": {"class_name": "Ones", "config": {}}, "moving_mean_initializer": {"class_name": "Zeros", "config": {}}, "moving_variance_initializer": {"class_name": "Ones", "config": {}}, "beta_regularizer": null, "gamma_regularizer": null, "beta_constraint": null, "gamma_constraint": null}, "name": "batch_normalization_1123_insert_merge1", "inbound_nodes": [[["max_pooling2d_883_insert", 0, 0, {}]]]}, {"class_name": "Add", "config": {"name": "add_24_copy_ML", "trainable": true, "dtype": "float32"}, "name": "add_24_copy_ML", "inbound_nodes": [[["batch_normalization_1123_insert_merge1", 0, 0, {}], ["max_pooling2d_883_insert", 0, 0, {}]]]}, {"class_name": "Conv2D", "config": {"name": "conv2d_2605_insert", "trainable": true, "dtype": "float32", "filters": 1, "kernel_size": [7, 7], "strides": [2, 2], "padding": "valid", "data_format": "channels_last", "dilation_rate": [1, 1], "groups": 1, "activation": "linear", "use_bias": true, "kernel_initializer": {"class_name": "VarianceScaling", "config": {"scale": 1.0, "mode": "fan_avg", "distribution": "uniform", "seed": null}}, "bias_initializer": {"class_name": "Zeros", "config": {}}, "kernel_regularizer": null, "bias_regularizer": null, "activity_regularizer": null, "kernel_constraint": null, "bias_constraint": null}, "name": "conv2d_2605_insert", "inbound_nodes": [[["add_24_copy_ML", 0, 0, {}]]]}, {"class_name": "GlobalAveragePooling2D", "config": {"name": "global_average_pooling2d_829_insert", "trainable": true, "dtype": "float32", "data_format": "channels_last", "keepdims": false}, "name": "global_average_pooling2d_829_insert", "inbound_nodes": [[["conv2d_2605_insert", 0, 0, {}]]]}, {"class_name": "CustomExpandLayer", "config": {"name": "custom_expand_layer_850_insert", "trainable": true, "dtype": "float32", "axis": 1}, "name": "custom_expand_layer_850_insert", "inbound_nodes": [[["global_average_pooling2d_829_insert", 0, 0, {}]]]}, {"class_name": "CustomExpandLayer", "config": {"name": "custom_expand_layer_851_insert", "trainable": true, "dtype": "float32", "axis": 1}, "name": "custom_expand_layer_851_insert", "inbound_nodes": [[["custom_expand_layer_850_insert", 0, 0, {}]]]}, {"class_name": "Conv2D", "config": {"name": "conv2d_2607_insert", "trainable": true, "dtype": "float32", "filters": 9, "kernel_size": [3, 3], "strides": [1, 1], "padding": "same", "data_format": "channels_last", "dilation_rate": [1, 1], "groups": 1, "activation": "linear", "use_bias": true, "kernel_initializer": {"class_name": "VarianceScaling", "config": {"scale": 1.0, "mode": "fan_avg", "distribution": "uniform", "seed": null}}, "bias_initializer": {"class_name": "Zeros", "config": {}}, "kernel_regularizer": null, "bias_regularizer": null, "activity_regularizer": null, "kernel_constraint": null, "bias_constraint": null}, "name": "conv2d_2607_insert", "inbound_nodes": [[["custom_expand_layer_851_insert", 0, 0, {}]]]}, {"class_name": "Conv2D", "config": {"name": "conv2d_2609_insert_1", "trainable": true, "dtype": "float32", "filters": 2, "kernel_size": [1, 1], "strides": [2, 2], "padding": "valid", "data_format": "channels_last", "dilation_rate": [1, 1], "groups": 1, "activation": "linear", "use_bias": true, "kernel_initializer": {"class_name": "VarianceScaling", "config": {"scale": 1.0, "mode": "fan_avg", "distribution": "uniform", "seed": null}}, "bias_initializer": {"class_name": "Zeros", "config": {}}, "kernel_regularizer": null, "bias_regularizer": null, "activity_regularizer": null, "kernel_constraint": null, "bias_constraint": null}, "name": "conv2d_2609_insert_1", "inbound_nodes": [[["conv2d_2607_insert", 0, 0, {}]]]}, {"class_name": "Conv2D", "config": {"name": "conv2d_2611_insert_1", "trainable": true, "dtype": "float32", "filters": 6, "kernel_size": [1, 1], "strides": [1, 1], "padding": "valid", "data_format": "channels_last", "dilation_rate": [1, 1], "groups": 1, "activation": "linear", "use_bias": true, "kernel_initializer": {"class_name": "VarianceScaling", "config": {"scale": 1.0, "mode": "fan_avg", "distribution": "uniform", "seed": null}}, "bias_initializer": {"class_name": "Zeros", "config": {}}, "kernel_regularizer": null, "bias_regularizer": null, "activity_regularizer": null, "kernel_constraint": null, "bias_constraint": null}, "name": "conv2d_2611_insert_1", "inbound_nodes": [[["conv2d_2609_insert_1", 0, 0, {}]]]}, {"class_name": "CustomPadLayer", "config": {"name": "custom_pad_layer_475", "trainable": true, "dtype": "float32", "padding": [[4, 4], [8, 9], [1, 1]], "constant_values": 2}, "name": "custom_pad_layer_475", "inbound_nodes": [[["conv2d_2611_insert_1", 0, 0, {}]]]}, {"class_name": "Conv2D", "config": {"name": "conv2d_2613_insert", "trainable": true, "dtype": "float32", "filters": 4, "kernel_size": [3, 3], "strides": [1, 1], "padding": "same", "data_format": "channels_last", "dilation_rate": [1, 1], "groups": 1, "activation": "linear", "use_bias": true, "kernel_initializer": {"class_name": "VarianceScaling", "config": {"scale": 1.0, "mode": "fan_avg", "distribution": "uniform", "seed": null}}, "bias_initializer": {"class_name": "Zeros", "config": {}}, "kernel_regularizer": null, "bias_regularizer": null, "activity_regularizer": null, "kernel_constraint": null, "bias_constraint": null}, "name": "conv2d_2613_insert", "inbound_nodes": [[["custom_pad_layer_475", 0, 0, {}]]]}, {"class_name": "CustomPadLayer", "config": {"name": "custom_pad_layer_476", "trainable": true, "dtype": "float32", "padding": [[1, 1], [0, 0], [4, 5]], "constant_values": 2}, "name": "custom_pad_layer_476", "inbound_nodes": [[["conv2d_2613_insert", 0, 0, {}]]]}, {"class_name": "CustomCropLayer", "config": {"name": "custom_crop_layer_353", "trainable": true, "dtype": "float32", "cropping": [[0, 0], [6, 6], [0, 0]]}, "name": "custom_crop_layer_353", "inbound_nodes": [[["custom_pad_layer_476", 0, 0, {}]]]}, {"class_name": "BatchNormalization", "config": {"name": "batch_normalization_1125_insert", "trainable": true, "dtype": "float32", "axis": [3], "momentum": 0.99, "epsilon": 1.001e-05, "center": true, "scale": true, "beta_initializer": {"class_name": "Zeros", "config": {}}, "gamma_initializer": {"class_name": "Ones", "config": {}}, "moving_mean_initializer": {"class_name": "Zeros", "config": {}}, "moving_variance_initializer": {"class_name": "Ones", "config": {}}, "beta_regularizer": null, "gamma_regularizer": null, "beta_constraint": null, "gamma_constraint": null}, "name": "batch_normalization_1125_insert", "inbound_nodes": [[["custom_crop_layer_353", 0, 0, {}]]]}, {"class_name": "CustomPadLayer", "config": {"name": "custom_pad_layer_477", "trainable": true, "dtype": "float32", "padding": [[0, 0], [4, 5], [2, 2]], "constant_values": 2}, "name": "custom_pad_layer_477", "inbound_nodes": [[["batch_normalization_1125_insert", 0, 0, {}]]]}, {"class_name": "BatchNormalization", "config": {"name": "batch_normalization_1127_insert_1", "trainable": true, "dtype": "float32", "axis": [3], "momentum": 0.99, "epsilon": 1.001e-05, "center": true, "scale": true, "beta_initializer": {"class_name": "Zeros", "config": {}}, "gamma_initializer": {"class_name": "Ones", "config": {}}, "moving_mean_initializer": {"class_name": "Zeros", "config": {}}, "moving_variance_initializer": {"class_name": "Ones", "config": {}}, "beta_regularizer": null, "gamma_regularizer": null, "beta_constraint": null, "gamma_constraint": null}, "name": "batch_normalization_1127_insert_1", "inbound_nodes": [[["custom_pad_layer_477", 0, 0, {}]]]}, {"class_name": "CustomPadLayer", "config": {"name": "custom_pad_layer_478", "trainable": true, "dtype": "float32", "padding": [[1, 1], [1, 1], [0, 0]], "constant_values": 2}, "name": "custom_pad_layer_478", "inbound_nodes": [[["batch_normalization_1127_insert_1", 0, 0, {}]]]}, {"class_name": "CustomCropLayer", "config": {"name": "custom_crop_layer_354", "trainable": true, "dtype": "float32", "cropping": [[0, 0], [0, 0], [4, 4]]}, "name": "custom_crop_layer_354", "inbound_nodes": [[["custom_pad_layer_478", 0, 0, {}]]]}, {"class_name": "BatchNormalization", "config": {"name": "batch_normalization_1129_insert", "trainable": true, "dtype": "float32", "axis": [3], "momentum": 0.99, "epsilon": 1.001e-05, "center": true, "scale": true, "beta_initializer": {"class_name": "Zeros", "config": {}}, "gamma_initializer": {"class_name": "Ones", "config": {}}, "moving_mean_initializer": {"class_name": "Zeros", "config": {}}, "moving_variance_initializer": {"class_name": "Ones", "config": {}}, "beta_regularizer": null, "gamma_regularizer": null, "beta_constraint": null, "gamma_constraint": null}, "name": "batch_normalization_1129_insert", "inbound_nodes": [[["custom_crop_layer_354", 0, 0, {}]]]}, {"class_name": "CustomPadLayer", "config": {"name": "custom_pad_layer_479", "trainable": true, "dtype": "float32", "padding": [[0, 0], [0, 0], [3, 3]], "constant_values": 2}, "name": "custom_pad_layer_479", "inbound_nodes": [[["batch_normalization_1129_insert", 0, 0, {}]]]}, {"class_name": "CustomCropLayer", "config": {"name": "custom_crop_layer_355", "trainable": true, "dtype": "float32", "cropping": [[1, 1], [5, 6], [0, 0]]}, "name": "custom_crop_layer_355", "inbound_nodes": [[["custom_pad_layer_479", 0, 0, {}]]]}, {"class_name": "Conv2D", "config": {"name": "conv2d_2609_insert_2", "trainable": true, "dtype": "float32", "filters": 2, "kernel_size": [1, 1], "strides": [2, 2], "padding": "valid", "data_format": "channels_last", "dilation_rate": [1, 1], "groups": 1, "activation": "linear", "use_bias": true, "kernel_initializer": {"class_name": "VarianceScaling", "config": {"scale": 1.0, "mode": "fan_avg", "distribution": "uniform", "seed": null}}, "bias_initializer": {"class_name": "Zeros", "config": {}}, "kernel_regularizer": null, "bias_regularizer": null, "activity_regularizer": null, "kernel_constraint": null, "bias_constraint": null}, "name": "conv2d_2609_insert_2", "inbound_nodes": [[["max_pooling2d_883_insert", 0, 0, {}]]]}, {"class_name": "Conv2D", "config": {"name": "conv2d_2611_insert_2", "trainable": true, "dtype": "float32", "filters": 6, "kernel_size": [1, 1], "strides": [1, 1], "padding": "valid", "data_format": "channels_last", "dilation_rate": [1, 1], "groups": 1, "activation": "linear", "use_bias": true, "kernel_initializer": {"class_name": "VarianceScaling", "config": {"scale": 1.0, "mode": "fan_avg", "distribution": "uniform", "seed": null}}, "bias_initializer": {"class_name": "Zeros", "config": {}}, "kernel_regularizer": null, "bias_regularizer": null, "activity_regularizer": null, "kernel_constraint": null, "bias_constraint": null}, "name": "conv2d_2611_insert_2", "inbound_nodes": [[["zero_padding2d_209_insert", 0, 0, {}]]]}, {"class_name": "BatchNormalization", "config": {"name": "batch_normalization_1131_insert", "trainable": true, "dtype": "float32", "axis": [3], "momentum": 0.99, "epsilon": 1.001e-05, "center": true, "scale": true, "beta_initializer": {"class_name": "Zeros", "config": {}}, "gamma_initializer": {"class_name": "Ones", "config": {}}, "moving_mean_initializer": {"class_name": "Zeros", "config": {}}, "moving_variance_initializer": {"class_name": "Ones", "config": {}}, "beta_regularizer": null, "gamma_regularizer": null, "beta_constraint": null, "gamma_constraint": null}, "name": "batch_normalization_1131_insert", "inbound_nodes": [[["custom_crop_layer_355", 0, 0, {}]]]}, {"class_name": "BatchNormalization", "config": {"name": "batch_normalization_1127_insert_2", "trainable": true, "dtype": "float32", "axis": [3], "momentum": 0.99, "epsilon": 1.001e-05, "center": true, "scale": true, "beta_initializer": {"class_name": "Zeros", "config": {}}, "gamma_initializer": {"class_name": "Ones", "config": {}}, "moving_mean_initializer": {"class_name": "Zeros", "config": {}}, "moving_variance_initializer": {"class_name": "Ones", "config": {}}, "beta_regularizer": null, "gamma_regularizer": null, "beta_constraint": null, "gamma_constraint": null}, "name": "batch_normalization_1127_insert_2", "inbound_nodes": [[["conv2d_2613_insert", 0, 0, {}]]]}, {"class_name": "Cropping2D", "config": {"name": "cropping2d_47", "trainable": true, "dtype": "float32", "cropping": [[24, 24], [24, 24]], "data_format": "channels_last"}, "name": "cropping2d_47", "inbound_nodes": [[["conv2d_2609_insert_2", 0, 0, {}]]]}, {"class_name": "Cropping2D", "config": {"name": "cropping2d_48", "trainable": true, "dtype": "float32", "cropping": [[111, 111], [111, 111]], "data_format": "channels_last"}, "name": "cropping2d_48", "inbound_nodes": [[["conv2d_2611_insert_2", 0, 0, {}]]]}], "input_layers": [["input_501", 0, 0]], "output_layers": [["batch_normalization_1131_insert", 0, 0], ["batch_normalization_1127_insert_2", 0, 0], ["cropping2d_47", 0, 0], ["cropping2d_48", 0, 0]]}, "keras_version": "2.7.0", "backend": "tensorflow"}