{"class_name": "Functional", "config": {"name": "model_3899", "layers": [{"class_name": "InputLayer", "config": {"batch_input_shape": [null, 299, 299, 3], "dtype": "float32", "sparse": false, "ragged": false, "name": "input_504"}, "name": "input_504", "inbound_nodes": []}, {"class_name": "Conv2D", "config": {"name": "block1_conv1", "trainable": true, "dtype": "float32", "filters": 32, "kernel_size": [3, 3], "strides": [2, 2], "padding": "valid", "data_format": "channels_last", "dilation_rate": [1, 1], "groups": 1, "activation": "linear", "use_bias": false, "kernel_initializer": {"class_name": "VarianceScaling", "config": {"scale": 1.0, "mode": "fan_avg", "distribution": "uniform", "seed": null}}, "bias_initializer": {"class_name": "Zeros", "config": {}}, "kernel_regularizer": null, "bias_regularizer": null, "activity_regularizer": null, "kernel_constraint": null, "bias_constraint": null}, "name": "block1_conv1", "inbound_nodes": [[["input_504", 0, 0, {}]]]}, {"class_name": "Conv2D", "config": {"name": "conv2d_2621_insert", "trainable": true, "dtype": "float32", "filters": 7, "kernel_size": [1, 1], "strides": [2, 2], "padding": "same", "data_format": "channels_last", "dilation_rate": [1, 1], "groups": 1, "activation": "linear", "use_bias": false, "kernel_initializer": {"class_name": "VarianceScaling", "config": {"scale": 1.0, "mode": "fan_avg", "distribution": "uniform", "seed": null}}, "bias_initializer": {"class_name": "Zeros", "config": {}}, "kernel_regularizer": null, "bias_regularizer": null, "activity_regularizer": null, "kernel_constraint": null, "bias_constraint": null}, "name": "conv2d_2621_insert", "inbound_nodes": [[["block1_conv1", 0, 0, {}]]]}, {"class_name": "BatchNormalization", "config": {"name": "batch_normalization_1133_insert", "trainable": true, "dtype": "float32", "axis": [3], "momentum": 0.99, "epsilon": 0.001, "center": true, "scale": true, "beta_initializer": {"class_name": "Zeros", "config": {}}, "gamma_initializer": {"class_name": "Ones", "config": {}}, "moving_mean_initializer": {"class_name": "Zeros", "config": {}}, "moving_variance_initializer": {"class_name": "Ones", "config": {}}, "beta_regularizer": null, "gamma_regularizer": null, "beta_constraint": null, "gamma_constraint": null}, "name": "batch_normalization_1133_insert", "inbound_nodes": [[["conv2d_2621_insert", 0, 0, {}]]]}, {"class_name": "Conv2D", "config": {"name": "conv2d_2623_insert", "trainable": true, "dtype": "float32", "filters": 5, "kernel_size": [3, 3], "strides": [1, 1], "padding": "valid", "data_format": "channels_last", "dilation_rate": [1, 1], "groups": 1, "activation": "linear", "use_bias": false, "kernel_initializer": {"class_name": "VarianceScaling", "config": {"scale": 1.0, "mode": "fan_avg", "distribution": "uniform", "seed": null}}, "bias_initializer": {"class_name": "Zeros", "config": {}}, "kernel_regularizer": null, "bias_regularizer": null, "activity_regularizer": null, "kernel_constraint": null, "bias_constraint": null}, "name": "conv2d_2623_insert", "inbound_nodes": [[["batch_normalization_1133_insert", 0, 0, {}]]]}, {"class_name": "SeparableConv2D", "config": {"name": "separable_conv2d_99_insert", "trainable": true, "dtype": "float32", "filters": 2, "kernel_size": [3, 3], "strides": [1, 1], "padding": "same", "data_format": "channels_last", "dilation_rate": [1, 1], "groups": 1, "activation": "linear", "use_bias": false, "kernel_initializer": {"class_name": "GlorotUniform", "config": {"seed": null}}, "bias_initializer": {"class_name": "Zeros", "config": {}, "shared_object_id": 17}, "kernel_regularizer": null, "bias_regularizer": null, "activity_regularizer": null, "kernel_constraint": null, "bias_constraint": null, "depth_multiplier": 1, "depthwise_initializer": {"class_name": "VarianceScaling", "config": {"scale": 1.0, "mode": "fan_avg", "distribution": "uniform", "seed": null}}, "pointwise_initializer": {"class_name": "VarianceScaling", "config": {"scale": 1.0, "mode": "fan_avg", "distribution": "uniform", "seed": null}}, "depthwise_regularizer": null, "pointwise_regularizer": null, "depthwise_constraint": null, "pointwise_constraint": null}, "name": "separable_conv2d_99_insert", "inbound_nodes": [[["conv2d_2623_insert", 0, 0, {}]]]}, {"class_name": "GlobalAveragePooling2D", "config": {"name": "global_average_pooling2d_835_insert", "trainable": true, "dtype": "float32", "data_format": "channels_last", "keepdims": false}, "name": "global_average_pooling2d_835_insert", "inbound_nodes": [[["separable_conv2d_99_insert", 0, 0, {}]]]}, {"class_name": "CustomExpandLayer", "config": {"name": "custom_expand_layer_856_insert", "trainable": true, "dtype": "float32", "axis": 1}, "name": "custom_expand_layer_856_insert", "inbound_nodes": [[["global_average_pooling2d_835_insert", 0, 0, {}]]]}, {"class_name": "CustomExpandLayer", "config": {"name": "custom_expand_layer_857_insert", "trainable": true, "dtype": "float32", "axis": 1}, "name": "custom_expand_layer_857_insert", "inbound_nodes": [[["custom_expand_layer_856_insert", 0, 0, {}]]]}, {"class_name": "MaxPooling2D", "config": {"name": "max_pooling2d_887_insert", "trainable": true, "dtype": "float32", "pool_size": [3, 3], "padding": "same", "strides": [2, 2], "data_format": "channels_last"}, "name": "max_pooling2d_887_insert", "inbound_nodes": [[["custom_expand_layer_857_insert", 0, 0, {}]]]}, {"class_name": "CustomPadLayer", "config": {"name": "custom_pad_layer_480", "trainable": true, "dtype": "float32", "padding": [[5, 6], [9, 9], [3, 4]], "constant_values": 2}, "name": "custom_pad_layer_480", "inbound_nodes": [[["max_pooling2d_887_insert", 0, 0, {}]]]}, {"class_name": "SeparableConv2D", "config": {"name": "separable_conv2d_101_insert", "trainable": true, "dtype": "float32", "filters": 6, "kernel_size": [3, 3], "strides": [1, 1], "padding": "same", "data_format": "channels_last", "dilation_rate": [1, 1], "groups": 1, "activation": "linear", "use_bias": false, "kernel_initializer": {"class_name": "GlorotUniform", "config": {"seed": null}}, "bias_initializer": {"class_name": "Zeros", "config": {}, "shared_object_id": 27}, "kernel_regularizer": null, "bias_regularizer": null, "activity_regularizer": null, "kernel_constraint": null, "bias_constraint": null, "depth_multiplier": 1, "depthwise_initializer": {"class_name": "VarianceScaling", "config": {"scale": 1.0, "mode": "fan_avg", "distribution": "uniform", "seed": null}}, "pointwise_initializer": {"class_name": "VarianceScaling", "config": {"scale": 1.0, "mode": "fan_avg", "distribution": "uniform", "seed": null}}, "depthwise_regularizer": null, "pointwise_regularizer": null, "depthwise_constraint": null, "pointwise_constraint": null}, "name": "separable_conv2d_101_insert", "inbound_nodes": [[["custom_pad_layer_480", 0, 0, {}]]]}, {"class_name": "CustomPadLayer", "config": {"name": "custom_pad_layer_481", "trainable": true, "dtype": "float32", "padding": [[0, 0], [0, 0], [1, 1]], "constant_values": 2}, "name": "custom_pad_layer_481", "inbound_nodes": [[["separable_conv2d_101_insert", 0, 0, {}]]]}, {"class_name": "CustomCropLayer", "config": {"name": "custom_crop_layer_356", "trainable": true, "dtype": "float32", "cropping": [[1, 1], [4, 5], [0, 0]]}, "name": "custom_crop_layer_356", "inbound_nodes": [[["custom_pad_layer_481", 0, 0, {}]]]}, {"class_name": "MaxPooling2D", "config": {"name": "max_pooling2d_889_insert", "trainable": true, "dtype": "float32", "pool_size": [3, 3], "padding": "same", "strides": [2, 2], "data_format": "channels_last"}, "name": "max_pooling2d_889_insert", "inbound_nodes": [[["custom_crop_layer_356", 0, 0, {}]]]}, {"class_name": "CustomPadLayer", "config": {"name": "custom_pad_layer_482", "trainable": true, "dtype": "float32", "padding": [[6, 7], [4, 4], [0, 1]], "constant_values": 2}, "name": "custom_pad_layer_482", "inbound_nodes": [[["max_pooling2d_889_insert", 0, 0, {}]]]}, {"class_name": "BatchNormalization", "config": {"name": "batch_normalization_1135_insert", "trainable": true, "dtype": "float32", "axis": [3], "momentum": 0.99, "epsilon": 0.001, "center": true, "scale": true, "beta_initializer": {"class_name": "Zeros", "config": {}}, "gamma_initializer": {"class_name": "Ones", "config": {}}, "moving_mean_initializer": {"class_name": "Zeros", "config": {}}, "moving_variance_initializer": {"class_name": "Ones", "config": {}}, "beta_regularizer": null, "gamma_regularizer": null, "beta_constraint": null, "gamma_constraint": null}, "name": "batch_normalization_1135_insert", "inbound_nodes": [[["custom_pad_layer_482", 0, 0, {}]]]}, {"class_name": "CustomPadLayer", "config": {"name": "custom_pad_layer_483", "trainable": true, "dtype": "float32", "padding": [[0, 0], [0, 0], [2, 3]], "constant_values": 2}, "name": "custom_pad_layer_483", "inbound_nodes": [[["batch_normalization_1135_insert", 0, 0, {}]]]}, {"class_name": "CustomCropLayer", "config": {"name": "custom_crop_layer_357", "trainable": true, "dtype": "float32", "cropping": [[2, 2], [0, 1], [0, 0]]}, "name": "custom_crop_layer_357", "inbound_nodes": [[["custom_pad_layer_483", 0, 0, {}]]]}, {"class_name": "SeparableConv2D", "config": {"name": "separable_conv2d_103_insert", "trainable": true, "dtype": "float32", "filters": 9, "kernel_size": [3, 3], "strides": [1, 1], "padding": "same", "data_format": "channels_last", "dilation_rate": [1, 1], "groups": 1, "activation": "linear", "use_bias": false, "kernel_initializer": {"class_name": "GlorotUniform", "config": {"seed": null}}, "bias_initializer": {"class_name": "Zeros", "config": {}, "shared_object_id": 43}, "kernel_regularizer": null, "bias_regularizer": null, "activity_regularizer": null, "kernel_constraint": null, "bias_constraint": null, "depth_multiplier": 1, "depthwise_initializer": {"class_name": "VarianceScaling", "config": {"scale": 1.0, "mode": "fan_avg", "distribution": "uniform", "seed": null}}, "pointwise_initializer": {"class_name": "VarianceScaling", "config": {"scale": 1.0, "mode": "fan_avg", "distribution": "uniform", "seed": null}}, "depthwise_regularizer": null, "pointwise_regularizer": null, "depthwise_constraint": null, "pointwise_constraint": null}, "name": "separable_conv2d_103_insert", "inbound_nodes": [[["custom_crop_layer_357", 0, 0, {}]]]}, {"class_name": "CustomPadLayer", "config": {"name": "custom_pad_layer_484", "trainable": true, "dtype": "float32", "padding": [[0, 0], [0, 1], [2, 3]], "constant_values": 2}, "name": "custom_pad_layer_484", "inbound_nodes": [[["separable_conv2d_103_insert", 0, 0, {}]]]}, {"class_name": "CustomCropLayer", "config": {"name": "custom_crop_layer_358", "trainable": true, "dtype": "float32", "cropping": [[3, 3], [0, 0], [0, 0]]}, "name": "custom_crop_layer_358", "inbound_nodes": [[["custom_pad_layer_484", 0, 0, {}]]]}, {"class_name": "BatchNormalization", "config": {"name": "batch_normalization_1137_insert", "trainable": true, "dtype": "float32", "axis": [3], "momentum": 0.99, "epsilon": 0.001, "center": true, "scale": true, "beta_initializer": {"class_name": "Zeros", "config": {}}, "gamma_initializer": {"class_name": "Ones", "config": {}}, "moving_mean_initializer": {"class_name": "Zeros", "config": {}}, "moving_variance_initializer": {"class_name": "Ones", "config": {}}, "beta_regularizer": null, "gamma_regularizer": null, "beta_constraint": null, "gamma_constraint": null}, "name": "batch_normalization_1137_insert", "inbound_nodes": [[["custom_crop_layer_358", 0, 0, {}]]]}, {"class_name": "CustomPadLayer", "config": {"name": "custom_pad_layer_485", "trainable": true, "dtype": "float32", "padding": [[1, 1], [0, 0], [0, 0]], "constant_values": 2}, "name": "custom_pad_layer_485", "inbound_nodes": [[["batch_normalization_1137_insert", 0, 0, {}]]]}, {"class_name": "CustomCropLayer", "config": {"name": "custom_crop_layer_359", "trainable": true, "dtype": "float32", "cropping": [[0, 0], [3, 4], [2, 3]]}, "name": "custom_crop_layer_359", "inbound_nodes": [[["custom_pad_layer_485", 0, 0, {}]]]}, {"class_name": "BatchNormalization", "config": {"name": "batch_normalization_1139_insert_1_merge1", "trainable": true, "dtype": "float32", "axis": [3], "momentum": 0.99, "epsilon": 0.001, "center": true, "scale": true, "beta_initializer": {"class_name": "Zeros", "config": {}}, "gamma_initializer": {"class_name": "Ones", "config": {}}, "moving_mean_initializer": {"class_name": "Zeros", "config": {}}, "moving_variance_initializer": {"class_name": "Ones", "config": {}}, "beta_regularizer": null, "gamma_regularizer": null, "beta_constraint": null, "gamma_constraint": null}, "name": "batch_normalization_1139_insert_1_merge1", "inbound_nodes": [[["custom_crop_layer_359", 0, 0, {}]]]}, {"class_name": "Add", "config": {"name": "add_26_copy_ML", "trainable": true, "dtype": "float32"}, "name": "add_26_copy_ML", "inbound_nodes": [[["batch_normalization_1139_insert_1_merge1", 0, 0, {}], ["custom_crop_layer_359", 0, 0, {}]]]}, {"class_name": "CustomPadLayer", "config": {"name": "custom_pad_layer_486", "trainable": true, "dtype": "float32", "padding": [[3, 3], [6, 6], [4, 4]], "constant_values": 2}, "name": "custom_pad_layer_486", "inbound_nodes": [[["add_26_copy_ML", 0, 0, {}]]]}, {"class_name": "MaxPooling2D", "config": {"name": "max_pooling2d_891_insert", "trainable": true, "dtype": "float32", "pool_size": [3, 3], "padding": "same", "strides": [2, 2], "data_format": "channels_last"}, "name": "max_pooling2d_891_insert", "inbound_nodes": [[["custom_pad_layer_486", 0, 0, {}]]]}, {"class_name": "CustomPadLayer", "config": {"name": "custom_pad_layer_487", "trainable": true, "dtype": "float32", "padding": [[5, 6], [2, 3], [0, 0]], "constant_values": 2}, "name": "custom_pad_layer_487", "inbound_nodes": [[["max_pooling2d_891_insert", 0, 0, {}]]]}, {"class_name": "Conv2D", "config": {"name": "conv2d_2625_insert", "trainable": true, "dtype": "float32", "filters": 7, "kernel_size": [1, 1], "strides": [2, 2], "padding": "same", "data_format": "channels_last", "dilation_rate": [1, 1], "groups": 1, "activation": "linear", "use_bias": false, "kernel_initializer": {"class_name": "VarianceScaling", "config": {"scale": 1.0, "mode": "fan_avg", "distribution": "uniform", "seed": null}}, "bias_initializer": {"class_name": "Zeros", "config": {}}, "kernel_regularizer": null, "bias_regularizer": null, "activity_regularizer": null, "kernel_constraint": null, "bias_constraint": null}, "name": "conv2d_2625_insert", "inbound_nodes": [[["custom_pad_layer_487", 0, 0, {}]]]}, {"class_name": "CustomPadLayer", "config": {"name": "custom_pad_layer_488", "trainable": true, "dtype": "float32", "padding": [[0, 0], [1, 1], [1, 1]], "constant_values": 2}, "name": "custom_pad_layer_488", "inbound_nodes": [[["conv2d_2625_insert", 0, 0, {}]]]}, {"class_name": "SeparableConv2D", "config": {"name": "separable_conv2d_105_insert", "trainable": true, "dtype": "float32", "filters": 4, "kernel_size": [3, 3], "strides": [1, 1], "padding": "same", "data_format": "channels_last", "dilation_rate": [1, 1], "groups": 1, "activation": "linear", "use_bias": false, "kernel_initializer": {"class_name": "GlorotUniform", "config": {"seed": null}}, "bias_initializer": {"class_name": "Zeros", "config": {}, "shared_object_id": 70}, "kernel_regularizer": null, "bias_regularizer": null, "activity_regularizer": null, "kernel_constraint": null, "bias_constraint": null, "depth_multiplier": 1, "depthwise_initializer": {"class_name": "VarianceScaling", "config": {"scale": 1.0, "mode": "fan_avg", "distribution": "uniform", "seed": null}}, "pointwise_initializer": {"class_name": "VarianceScaling", "config": {"scale": 1.0, "mode": "fan_avg", "distribution": "uniform", "seed": null}}, "depthwise_regularizer": null, "pointwise_regularizer": null, "depthwise_constraint": null, "pointwise_constraint": null}, "name": "separable_conv2d_105_insert", "inbound_nodes": [[["custom_pad_layer_488", 0, 0, {}]]]}, {"class_name": "CustomPadLayer", "config": {"name": "custom_pad_layer_489", "trainable": true, "dtype": "float32", "padding": [[4, 4], [0, 0], [1, 2]], "constant_values": 2}, "name": "custom_pad_layer_489", "inbound_nodes": [[["separable_conv2d_105_insert", 0, 0, {}]]]}, {"class_name": "CustomCropLayer", "config": {"name": "custom_crop_layer_360", "trainable": true, "dtype": "float32", "cropping": [[0, 0], [0, 1], [0, 0]]}, "name": "custom_crop_layer_360", "inbound_nodes": [[["custom_pad_layer_489", 0, 0, {}]]]}, {"class_name": "BatchNormalization", "config": {"name": "batch_normalization_1141_insert", "trainable": true, "dtype": "float32", "axis": [3], "momentum": 0.99, "epsilon": 0.001, "center": true, "scale": true, "beta_initializer": {"class_name": "Zeros", "config": {}}, "gamma_initializer": {"class_name": "Ones", "config": {}}, "moving_mean_initializer": {"class_name": "Zeros", "config": {}}, "moving_variance_initializer": {"class_name": "Ones", "config": {}}, "beta_regularizer": null, "gamma_regularizer": null, "beta_constraint": null, "gamma_constraint": null}, "name": "batch_normalization_1141_insert", "inbound_nodes": [[["custom_crop_layer_360", 0, 0, {}]]]}, {"class_name": "CustomPadLayer", "config": {"name": "custom_pad_layer_490", "trainable": true, "dtype": "float32", "padding": [[0, 1], [1, 2], [3, 3]], "constant_values": 2}, "name": "custom_pad_layer_490", "inbound_nodes": [[["batch_normalization_1141_insert", 0, 0, {}]]]}, {"class_name": "MaxPooling2D", "config": {"name": "max_pooling2d_893_insert_1", "trainable": true, "dtype": "float32", "pool_size": [3, 3], "padding": "same", "strides": [2, 2], "data_format": "channels_last"}, "name": "max_pooling2d_893_insert_1", "inbound_nodes": [[["custom_pad_layer_490", 0, 0, {}]]]}, {"class_name": "CustomPadLayer", "config": {"name": "custom_pad_layer_491", "trainable": true, "dtype": "float32", "padding": [[1, 2], [5, 6], [0, 0]], "constant_values": 2}, "name": "custom_pad_layer_491", "inbound_nodes": [[["max_pooling2d_893_insert_1", 0, 0, {}]]]}, {"class_name": "CustomCropLayer", "config": {"name": "custom_crop_layer_361", "trainable": true, "dtype": "float32", "cropping": [[0, 0], [0, 0], [1, 1]]}, "name": "custom_crop_layer_361", "inbound_nodes": [[["custom_pad_layer_491", 0, 0, {}]]]}, {"class_name": "Conv2D", "config": {"name": "conv2d_2627_insert", "trainable": true, "dtype": "float32", "filters": 8, "kernel_size": [3, 3], "strides": [1, 1], "padding": "valid", "data_format": "channels_last", "dilation_rate": [1, 1], "groups": 1, "activation": "linear", "use_bias": false, "kernel_initializer": {"class_name": "VarianceScaling", "config": {"scale": 1.0, "mode": "fan_avg", "distribution": "uniform", "seed": null}}, "bias_initializer": {"class_name": "Zeros", "config": {}}, "kernel_regularizer": null, "bias_regularizer": null, "activity_regularizer": null, "kernel_constraint": null, "bias_constraint": null}, "name": "conv2d_2627_insert", "inbound_nodes": [[["custom_crop_layer_361", 0, 0, {}]]]}, {"class_name": "CustomPadLayer", "config": {"name": "custom_pad_layer_492", "trainable": true, "dtype": "float32", "padding": [[0, 0], [0, 0], [0, 1]], "constant_values": 2}, "name": "custom_pad_layer_492", "inbound_nodes": [[["conv2d_2627_insert", 0, 0, {}]]]}, {"class_name": "CustomCropLayer", "config": {"name": "custom_crop_layer_362", "trainable": true, "dtype": "float32", "cropping": [[0, 0], [2, 3], [0, 0]]}, "name": "custom_crop_layer_362", "inbound_nodes": [[["custom_pad_layer_492", 0, 0, {}]]]}, {"class_name": "SeparableConv2D", "config": {"name": "separable_conv2d_107_insert", "trainable": true, "dtype": "float32", "filters": 4, "kernel_size": [3, 3], "strides": [1, 1], "padding": "same", "data_format": "channels_last", "dilation_rate": [1, 1], "groups": 1, "activation": "linear", "use_bias": false, "kernel_initializer": {"class_name": "GlorotUniform", "config": {"seed": null}}, "bias_initializer": {"class_name": "Zeros", "config": {}, "shared_object_id": 91}, "kernel_regularizer": null, "bias_regularizer": null, "activity_regularizer": null, "kernel_constraint": null, "bias_constraint": null, "depth_multiplier": 1, "depthwise_initializer": {"class_name": "VarianceScaling", "config": {"scale": 1.0, "mode": "fan_avg", "distribution": "uniform", "seed": null}}, "pointwise_initializer": {"class_name": "VarianceScaling", "config": {"scale": 1.0, "mode": "fan_avg", "distribution": "uniform", "seed": null}}, "depthwise_regularizer": null, "pointwise_regularizer": null, "depthwise_constraint": null, "pointwise_constraint": null}, "name": "separable_conv2d_107_insert", "inbound_nodes": [[["custom_crop_layer_362", 0, 0, {}]]]}, {"class_name": "MaxPooling2D", "config": {"name": "max_pooling2d_893_insert_2", "trainable": true, "dtype": "float32", "pool_size": [3, 3], "padding": "same", "strides": [2, 2], "data_format": "channels_last"}, "name": "max_pooling2d_893_insert_2", "inbound_nodes": [[["batch_normalization_1141_insert", 0, 0, {}]]]}, {"class_name": "BatchNormalization", "config": {"name": "batch_normalization_1139_insert_2", "trainable": true, "dtype": "float32", "axis": [3], "momentum": 0.99, "epsilon": 0.001, "center": true, "scale": true, "beta_initializer": {"class_name": "Zeros", "config": {}}, "gamma_initializer": {"class_name": "Ones", "config": {}}, "moving_mean_initializer": {"class_name": "Zeros", "config": {}}, "moving_variance_initializer": {"class_name": "Ones", "config": {}}, "beta_regularizer": null, "gamma_regularizer": null, "beta_constraint": null, "gamma_constraint": null}, "name": "batch_normalization_1139_insert_2", "inbound_nodes": [[["separable_conv2d_105_insert", 0, 0, {}]]]}], "input_layers": [["input_504", 0, 0]], "output_layers": [["separable_conv2d_107_insert", 0, 0], ["max_pooling2d_893_insert_2", 0, 0], ["batch_normalization_1139_insert_2", 0, 0]]}, "keras_version": "2.7.0", "backend": "tensorflow"}