{"class_name": "Functional", "config": {"name": "model_5319", "layers": [{"class_name": "InputLayer", "config": {"batch_input_shape": [null, 224, 224, 3], "dtype": "float32", "sparse": false, "ragged": false, "name": "input_672"}, "name": "input_672", "inbound_nodes": []}, {"class_name": "ZeroPadding2D", "config": {"name": "zero_padding2d_1", "trainable": true, "dtype": "float32", "padding": [[3, 3], [3, 3]], "data_format": "channels_last"}, "name": "zero_padding2d_1", "inbound_nodes": [[["input_672", 0, 0, {}]]]}, {"class_name": "BatchNormalization", "config": {"name": "batch_normalization_1545_insert_1_1", "trainable": true, "dtype": "float32", "axis": [3], "momentum": 0.99, "epsilon": 1.001e-05, "center": true, "scale": true, "beta_initializer": {"class_name": "Zeros", "config": {}}, "gamma_initializer": {"class_name": "Ones", "config": {}}, "moving_mean_initializer": {"class_name": "Zeros", "config": {}}, "moving_variance_initializer": {"class_name": "Ones", "config": {}}, "beta_regularizer": null, "gamma_regularizer": null, "beta_constraint": null, "gamma_constraint": null}, "name": "batch_normalization_1545_insert_1_1", "inbound_nodes": [[["zero_padding2d_1", 0, 0, {}]]]}, {"class_name": "MaxPooling2D", "config": {"name": "max_pooling2d_1227_insert_1", "trainable": true, "dtype": "float32", "pool_size": [3, 3], "padding": "valid", "strides": [2, 2], "data_format": "channels_last"}, "name": "max_pooling2d_1227_insert_1", "inbound_nodes": [[["batch_normalization_1545_insert_1_1", 0, 0, {}]]]}, {"class_name": "ZeroPadding2D", "config": {"name": "zero_padding2d_309_insert", "trainable": true, "dtype": "float32", "padding": [[1, 1], [1, 1]], "data_format": "channels_last"}, "name": "zero_padding2d_309_insert", "inbound_nodes": [[["max_pooling2d_1227_insert_1", 0, 0, {}]]]}, {"class_name": "Conv2D", "config": {"name": "conv2d_3509_insert", "trainable": true, "dtype": "float32", "filters": 6, "kernel_size": [1, 1], "strides": [1, 1], "padding": "valid", "data_format": "channels_last", "dilation_rate": [1, 1], "groups": 1, "activation": "linear", "use_bias": false, "kernel_initializer": {"class_name": "VarianceScaling", "config": {"scale": 1.0, "mode": "fan_avg", "distribution": "uniform", "seed": null}}, "bias_initializer": {"class_name": "Zeros", "config": {}}, "kernel_regularizer": null, "bias_regularizer": null, "activity_regularizer": null, "kernel_constraint": null, "bias_constraint": null}, "name": "conv2d_3509_insert", "inbound_nodes": [[["zero_padding2d_309_insert", 0, 0, {}]]]}, {"class_name": "Conv2D", "config": {"name": "conv2d_3511_insert", "trainable": true, "dtype": "float32", "filters": 6, "kernel_size": [7, 7], "strides": [2, 2], "padding": "valid", "data_format": "channels_last", "dilation_rate": [1, 1], "groups": 1, "activation": "linear", "use_bias": false, "kernel_initializer": {"class_name": "VarianceScaling", "config": {"scale": 1.0, "mode": "fan_avg", "distribution": "uniform", "seed": null}}, "bias_initializer": {"class_name": "Zeros", "config": {}}, "kernel_regularizer": null, "bias_regularizer": null, "activity_regularizer": null, "kernel_constraint": null, "bias_constraint": null}, "name": "conv2d_3511_insert", "inbound_nodes": [[["conv2d_3509_insert", 0, 0, {}]]]}, {"class_name": "AveragePooling2D", "config": {"name": "average_pooling2d_869_insert", "trainable": true, "dtype": "float32", "pool_size": [2, 2], "padding": "valid", "strides": [2, 2], "data_format": "channels_last"}, "name": "average_pooling2d_869_insert", "inbound_nodes": [[["conv2d_3511_insert", 0, 0, {}]]]}, {"class_name": "Conv2D", "config": {"name": "conv2d_3513_insert", "trainable": true, "dtype": "float32", "filters": 3, "kernel_size": [3, 3], "strides": [1, 1], "padding": "same", "data_format": "channels_last", "dilation_rate": [1, 1], "groups": 1, "activation": "linear", "use_bias": false, "kernel_initializer": {"class_name": "VarianceScaling", "config": {"scale": 1.0, "mode": "fan_avg", "distribution": "uniform", "seed": null}}, "bias_initializer": {"class_name": "Zeros", "config": {}}, "kernel_regularizer": null, "bias_regularizer": null, "activity_regularizer": null, "kernel_constraint": null, "bias_constraint": null}, "name": "conv2d_3513_insert", "inbound_nodes": [[["average_pooling2d_869_insert", 0, 0, {}]]]}, {"class_name": "GlobalAveragePooling2D", "config": {"name": "global_average_pooling2d_1109_insert", "trainable": true, "dtype": "float32", "data_format": "channels_last", "keepdims": false}, "name": "global_average_pooling2d_1109_insert", "inbound_nodes": [[["conv2d_3513_insert", 0, 0, {}]]]}, {"class_name": "CustomExpandLayer", "config": {"name": "custom_expand_layer_1161", "trainable": true, "dtype": "float32", "axis": 1}, "name": "custom_expand_layer_1161", "inbound_nodes": [[["global_average_pooling2d_1109_insert", 0, 0, {}]]]}, {"class_name": "CustomExpandLayer", "config": {"name": "custom_expand_layer_1162", "trainable": true, "dtype": "float32", "axis": 1}, "name": "custom_expand_layer_1162", "inbound_nodes": [[["custom_expand_layer_1161", 0, 0, {}]]]}, {"class_name": "CustomPadLayer", "config": {"name": "custom_pad_layer_692", "trainable": true, "dtype": "float32", "padding": [[3, 3], [3, 4], [1, 2]], "constant_values": 2}, "name": "custom_pad_layer_692", "inbound_nodes": [[["custom_expand_layer_1162", 0, 0, {}]]]}, {"class_name": "AveragePooling2D", "config": {"name": "average_pooling2d_871_insert", "trainable": true, "dtype": "float32", "pool_size": [2, 2], "padding": "valid", "strides": [2, 2], "data_format": "channels_last"}, "name": "average_pooling2d_871_insert", "inbound_nodes": [[["custom_pad_layer_692", 0, 0, {}]]]}, {"class_name": "CustomPadLayer", "config": {"name": "custom_pad_layer_693", "trainable": true, "dtype": "float32", "padding": [[4, 5], [1, 2], [1, 1]], "constant_values": 2}, "name": "custom_pad_layer_693", "inbound_nodes": [[["average_pooling2d_871_insert", 0, 0, {}]]]}, {"class_name": "AveragePooling2D", "config": {"name": "average_pooling2d_873_insert", "trainable": true, "dtype": "float32", "pool_size": [2, 2], "padding": "valid", "strides": [2, 2], "data_format": "channels_last"}, "name": "average_pooling2d_873_insert", "inbound_nodes": [[["custom_pad_layer_693", 0, 0, {}]]]}, {"class_name": "CustomPadLayer", "config": {"name": "custom_pad_layer_694", "trainable": true, "dtype": "float32", "padding": [[0, 1], [2, 3], [4, 4]], "constant_values": 2}, "name": "custom_pad_layer_694", "inbound_nodes": [[["average_pooling2d_873_insert", 0, 0, {}]]]}, {"class_name": "BatchNormalization", "config": {"name": "batch_normalization_1547_insert", "trainable": true, "dtype": "float32", "axis": [3], "momentum": 0.99, "epsilon": 1.001e-05, "center": true, "scale": true, "beta_initializer": {"class_name": "Zeros", "config": {}}, "gamma_initializer": {"class_name": "Ones", "config": {}}, "moving_mean_initializer": {"class_name": "Zeros", "config": {}}, "moving_variance_initializer": {"class_name": "Ones", "config": {}}, "beta_regularizer": null, "gamma_regularizer": null, "beta_constraint": null, "gamma_constraint": null}, "name": "batch_normalization_1547_insert", "inbound_nodes": [[["custom_pad_layer_694", 0, 0, {}]]]}, {"class_name": "CustomPadLayer", "config": {"name": "custom_pad_layer_695", "trainable": true, "dtype": "float32", "padding": [[3, 3], [3, 4], [0, 0]], "constant_values": 2}, "name": "custom_pad_layer_695", "inbound_nodes": [[["batch_normalization_1547_insert", 0, 0, {}]]]}, {"class_name": "CustomCropLayer", "config": {"name": "custom_crop_layer_518", "trainable": true, "dtype": "float32", "cropping": [[0, 0], [0, 0], [3, 3]]}, "name": "custom_crop_layer_518", "inbound_nodes": [[["custom_pad_layer_695", 0, 0, {}]]]}, {"class_name": "BatchNormalization", "config": {"name": "batch_normalization_1549_insert", "trainable": true, "dtype": "float32", "axis": [3], "momentum": 0.99, "epsilon": 1.001e-05, "center": true, "scale": true, "beta_initializer": {"class_name": "Zeros", "config": {}}, "gamma_initializer": {"class_name": "Ones", "config": {}}, "moving_mean_initializer": {"class_name": "Zeros", "config": {}}, "moving_variance_initializer": {"class_name": "Ones", "config": {}}, "beta_regularizer": null, "gamma_regularizer": null, "beta_constraint": null, "gamma_constraint": null}, "name": "batch_normalization_1549_insert", "inbound_nodes": [[["custom_crop_layer_518", 0, 0, {}]]]}, {"class_name": "CustomPadLayer", "config": {"name": "custom_pad_layer_696", "trainable": true, "dtype": "float32", "padding": [[3, 3], [0, 0], [0, 0]], "constant_values": 2}, "name": "custom_pad_layer_696", "inbound_nodes": [[["batch_normalization_1549_insert", 0, 0, {}]]]}, {"class_name": "CustomCropLayer", "config": {"name": "custom_crop_layer_519", "trainable": true, "dtype": "float32", "cropping": [[0, 0], [2, 3], [1, 1]]}, "name": "custom_crop_layer_519", "inbound_nodes": [[["custom_pad_layer_696", 0, 0, {}]]]}, {"class_name": "Conv2D", "config": {"name": "conv2d_3515_insert", "trainable": true, "dtype": "float32", "filters": 1, "kernel_size": [3, 3], "strides": [1, 1], "padding": "same", "data_format": "channels_last", "dilation_rate": [1, 1], "groups": 1, "activation": "linear", "use_bias": false, "kernel_initializer": {"class_name": "VarianceScaling", "config": {"scale": 1.0, "mode": "fan_avg", "distribution": "uniform", "seed": null}}, "bias_initializer": {"class_name": "Zeros", "config": {}}, "kernel_regularizer": null, "bias_regularizer": null, "activity_regularizer": null, "kernel_constraint": null, "bias_constraint": null}, "name": "conv2d_3515_insert", "inbound_nodes": [[["custom_crop_layer_519", 0, 0, {}]]]}, {"class_name": "CustomPadLayer", "config": {"name": "custom_pad_layer_697", "trainable": true, "dtype": "float32", "padding": [[0, 0], [2, 3], [9, 9]], "constant_values": 2}, "name": "custom_pad_layer_697", "inbound_nodes": [[["conv2d_3515_insert", 0, 0, {}]]]}, {"class_name": "BatchNormalization", "config": {"name": "batch_normalization_1551_insert_1", "trainable": true, "dtype": "float32", "axis": [3], "momentum": 0.99, "epsilon": 1.001e-05, "center": true, "scale": true, "beta_initializer": {"class_name": "Zeros", "config": {}}, "gamma_initializer": {"class_name": "Ones", "config": {}}, "moving_mean_initializer": {"class_name": "Zeros", "config": {}}, "moving_variance_initializer": {"class_name": "Ones", "config": {}}, "beta_regularizer": null, "gamma_regularizer": null, "beta_constraint": null, "gamma_constraint": null}, "name": "batch_normalization_1551_insert_1", "inbound_nodes": [[["custom_pad_layer_697", 0, 0, {}]]]}, {"class_name": "CustomCropLayer", "config": {"name": "custom_crop_layer_520", "trainable": true, "dtype": "float32", "cropping": [[3, 3], [1, 2], [2, 2]]}, "name": "custom_crop_layer_520", "inbound_nodes": [[["batch_normalization_1551_insert_1", 0, 0, {}]]]}, {"class_name": "BatchNormalization", "config": {"name": "batch_normalization_1553_insert", "trainable": true, "dtype": "float32", "axis": [3], "momentum": 0.99, "epsilon": 1.001e-05, "center": true, "scale": true, "beta_initializer": {"class_name": "Zeros", "config": {}}, "gamma_initializer": {"class_name": "Ones", "config": {}}, "moving_mean_initializer": {"class_name": "Zeros", "config": {}}, "moving_variance_initializer": {"class_name": "Ones", "config": {}}, "beta_regularizer": null, "gamma_regularizer": null, "beta_constraint": null, "gamma_constraint": null}, "name": "batch_normalization_1553_insert", "inbound_nodes": [[["custom_crop_layer_520", 0, 0, {}]]]}, {"class_name": "CustomPadLayer", "config": {"name": "custom_pad_layer_698", "trainable": true, "dtype": "float32", "padding": [[0, 1], [2, 2], [0, 0]], "constant_values": 2}, "name": "custom_pad_layer_698", "inbound_nodes": [[["batch_normalization_1553_insert", 0, 0, {}]]]}, {"class_name": "BatchNormalization", "config": {"name": "batch_normalization_1545_insert_1_2_merge1", "trainable": true, "dtype": "float32", "axis": [3], "momentum": 0.99, "epsilon": 1.001e-05, "center": true, "scale": true, "beta_initializer": {"class_name": "Zeros", "config": {}}, "gamma_initializer": {"class_name": "Ones", "config": {}}, "moving_mean_initializer": {"class_name": "Zeros", "config": {}}, "moving_variance_initializer": {"class_name": "Ones", "config": {}}, "beta_regularizer": null, "gamma_regularizer": null, "beta_constraint": null, "gamma_constraint": null}, "name": "batch_normalization_1545_insert_1_2_merge1", "inbound_nodes": [[["conv2d_3509_insert", 0, 0, {}]]]}, {"class_name": "CustomCropLayer", "config": {"name": "custom_crop_layer_521", "trainable": true, "dtype": "float32", "cropping": [[0, 0], [0, 0], [5, 5]]}, "name": "custom_crop_layer_521", "inbound_nodes": [[["custom_pad_layer_698", 0, 0, {}]]]}, {"class_name": "MaxPooling2D", "config": {"name": "max_pooling2d_1227_insert_2", "trainable": true, "dtype": "float32", "pool_size": [3, 3], "padding": "valid", "strides": [2, 2], "data_format": "channels_last"}, "name": "max_pooling2d_1227_insert_2", "inbound_nodes": [[["zero_padding2d_1", 0, 0, {}]]]}, {"class_name": "Concatenate", "config": {"name": "concatenate_36_copy_ML", "trainable": true, "dtype": "float32", "axis": 3}, "name": "concatenate_36_copy_ML", "inbound_nodes": [[["batch_normalization_1545_insert_1_2_merge1", 0, 0, {}], ["conv2d_3509_insert", 0, 0, {}]]]}, {"class_name": "BatchNormalization", "config": {"name": "batch_normalization_1551_insert_2", "trainable": true, "dtype": "float32", "axis": [3], "momentum": 0.99, "epsilon": 1.001e-05, "center": true, "scale": true, "beta_initializer": {"class_name": "Zeros", "config": {}}, "gamma_initializer": {"class_name": "Ones", "config": {}}, "moving_mean_initializer": {"class_name": "Zeros", "config": {}}, "moving_variance_initializer": {"class_name": "Ones", "config": {}}, "beta_regularizer": null, "gamma_regularizer": null, "beta_constraint": null, "gamma_constraint": null}, "name": "batch_normalization_1551_insert_2", "inbound_nodes": [[["max_pooling2d_1227_insert_1", 0, 0, {}]]]}, {"class_name": "Conv2D", "config": {"name": "conv2d_3517_insert", "trainable": true, "dtype": "float32", "filters": 5, "kernel_size": [3, 3], "strides": [1, 1], "padding": "same", "data_format": "channels_last", "dilation_rate": [1, 1], "groups": 1, "activation": "linear", "use_bias": false, "kernel_initializer": {"class_name": "VarianceScaling", "config": {"scale": 1.0, "mode": "fan_avg", "distribution": "uniform", "seed": null}}, "bias_initializer": {"class_name": "Zeros", "config": {}}, "kernel_regularizer": null, "bias_regularizer": null, "activity_regularizer": null, "kernel_constraint": null, "bias_constraint": null}, "name": "conv2d_3517_insert", "inbound_nodes": [[["custom_crop_layer_521", 0, 0, {}]]]}, {"class_name": "BatchNormalization", "config": {"name": "batch_normalization_1545_insert_2", "trainable": true, "dtype": "float32", "axis": [3], "momentum": 0.99, "epsilon": 1.001e-05, "center": true, "scale": true, "beta_initializer": {"class_name": "Zeros", "config": {}}, "gamma_initializer": {"class_name": "Ones", "config": {}}, "moving_mean_initializer": {"class_name": "Zeros", "config": {}}, "moving_variance_initializer": {"class_name": "Ones", "config": {}}, "beta_regularizer": null, "gamma_regularizer": null, "beta_constraint": null, "gamma_constraint": null}, "name": "batch_normalization_1545_insert_2", "inbound_nodes": [[["average_pooling2d_871_insert", 0, 0, {}]]]}, {"class_name": "Cropping2D", "config": {"name": "cropping2d_68", "trainable": true, "dtype": "float32", "cropping": [[52, 52], [52, 52]], "data_format": "channels_last"}, "name": "cropping2d_68", "inbound_nodes": [[["max_pooling2d_1227_insert_2", 0, 0, {}]]]}, {"class_name": "Cropping2D", "config": {"name": "cropping2d_69", "trainable": true, "dtype": "float32", "cropping": [[53, 53], [53, 53]], "data_format": "channels_last"}, "name": "cropping2d_69", "inbound_nodes": [[["concatenate_36_copy_ML", 0, 0, {}]]]}, {"class_name": "Cropping2D", "config": {"name": "cropping2d_70", "trainable": true, "dtype": "float32", "cropping": [[52, 52], [52, 52]], "data_format": "channels_last"}, "name": "cropping2d_70", "inbound_nodes": [[["batch_normalization_1551_insert_2", 0, 0, {}]]]}], "input_layers": [["input_672", 0, 0]], "output_layers": [["conv2d_3517_insert", 0, 0], ["batch_normalization_1545_insert_2", 0, 0], ["cropping2d_68", 0, 0], ["cropping2d_69", 0, 0], ["cropping2d_70", 0, 0]]}, "keras_version": "2.7.0", "backend": "tensorflow"}