{"class_name": "Functional", "config": {"name": "model_5552", "layers": [{"class_name": "InputLayer", "config": {"batch_input_shape": [null, 299, 299, 3], "dtype": "float32", "sparse": false, "ragged": false, "name": "input_705"}, "name": "input_705", "inbound_nodes": []}, {"class_name": "Conv2D", "config": {"name": "conv2d_1", "trainable": true, "dtype": "float32", "filters": 32, "kernel_size": [3, 3], "strides": [2, 2], "padding": "valid", "data_format": "channels_last", "dilation_rate": [1, 1], "groups": 1, "activation": "linear", "use_bias": false, "kernel_initializer": {"class_name": "VarianceScaling", "config": {"scale": 1.0, "mode": "fan_avg", "distribution": "uniform", "seed": null}}, "bias_initializer": {"class_name": "Zeros", "config": {}}, "kernel_regularizer": null, "bias_regularizer": null, "activity_regularizer": null, "kernel_constraint": null, "bias_constraint": null}, "name": "conv2d_1", "inbound_nodes": [[["input_705", 0, 0, {}]]]}, {"class_name": "BatchNormalization", "config": {"name": "batch_normalization_1605_insert_merge1", "trainable": true, "dtype": "float32", "axis": [3], "momentum": 0.99, "epsilon": 0.001, "center": true, "scale": false, "beta_initializer": {"class_name": "Zeros", "config": {}}, "gamma_initializer": {"class_name": "Ones", "config": {}}, "moving_mean_initializer": {"class_name": "Zeros", "config": {}}, "moving_variance_initializer": {"class_name": "Ones", "config": {}}, "beta_regularizer": null, "gamma_regularizer": null, "beta_constraint": null, "gamma_constraint": null}, "name": "batch_normalization_1605_insert_merge1", "inbound_nodes": [[["conv2d_1", 0, 0, {}]]]}, {"class_name": "Concatenate", "config": {"name": "concatenate_37_copy_ML", "trainable": true, "dtype": "float32", "axis": 3}, "name": "concatenate_37_copy_ML", "inbound_nodes": [[["batch_normalization_1605_insert_merge1", 0, 0, {}], ["conv2d_1", 0, 0, {}]]]}, {"class_name": "MaxPooling2D", "config": {"name": "max_pooling2d_1283_insert", "trainable": true, "dtype": "float32", "pool_size": [3, 3], "padding": "valid", "strides": [2, 2], "data_format": "channels_last"}, "name": "max_pooling2d_1283_insert", "inbound_nodes": [[["concatenate_37_copy_ML", 0, 0, {}]]]}, {"class_name": "Conv2D", "config": {"name": "conv2d_3725_insert", "trainable": true, "dtype": "float32", "filters": 1, "kernel_size": [3, 3], "strides": [1, 1], "padding": "valid", "data_format": "channels_last", "dilation_rate": [1, 1], "groups": 1, "activation": "linear", "use_bias": false, "kernel_initializer": {"class_name": "VarianceScaling", "config": {"scale": 1.0, "mode": "fan_avg", "distribution": "uniform", "seed": null}}, "bias_initializer": {"class_name": "Zeros", "config": {}}, "kernel_regularizer": null, "bias_regularizer": null, "activity_regularizer": null, "kernel_constraint": null, "bias_constraint": null}, "name": "conv2d_3725_insert", "inbound_nodes": [[["max_pooling2d_1283_insert", 0, 0, {}]]]}, {"class_name": "GlobalAveragePooling2D", "config": {"name": "global_average_pooling2d_1175_insert", "trainable": true, "dtype": "float32", "data_format": "channels_last", "keepdims": false}, "name": "global_average_pooling2d_1175_insert", "inbound_nodes": [[["conv2d_3725_insert", 0, 0, {}]]]}, {"class_name": "CustomExpandLayer", "config": {"name": "custom_expand_layer_1215_insert", "trainable": true, "dtype": "float32", "axis": 1}, "name": "custom_expand_layer_1215_insert", "inbound_nodes": [[["global_average_pooling2d_1175_insert", 0, 0, {}]]]}, {"class_name": "CustomExpandLayer", "config": {"name": "custom_expand_layer_1216_insert", "trainable": true, "dtype": "float32", "axis": 1}, "name": "custom_expand_layer_1216_insert", "inbound_nodes": [[["custom_expand_layer_1215_insert", 0, 0, {}]]]}, {"class_name": "AveragePooling2D", "config": {"name": "average_pooling2d_919_insert_1", "trainable": true, "dtype": "float32", "pool_size": [3, 3], "padding": "same", "strides": [1, 1], "data_format": "channels_last"}, "name": "average_pooling2d_919_insert_1", "inbound_nodes": [[["custom_expand_layer_1216_insert", 0, 0, {}]]]}, {"class_name": "Conv2D", "config": {"name": "conv2d_3727_insert", "trainable": true, "dtype": "float32", "filters": 7, "kernel_size": [7, 1], "strides": [1, 1], "padding": "same", "data_format": "channels_last", "dilation_rate": [1, 1], "groups": 1, "activation": "linear", "use_bias": false, "kernel_initializer": {"class_name": "VarianceScaling", "config": {"scale": 1.0, "mode": "fan_avg", "distribution": "uniform", "seed": null}}, "bias_initializer": {"class_name": "Zeros", "config": {}}, "kernel_regularizer": null, "bias_regularizer": null, "activity_regularizer": null, "kernel_constraint": null, "bias_constraint": null}, "name": "conv2d_3727_insert", "inbound_nodes": [[["average_pooling2d_919_insert_1", 0, 0, {}]]]}, {"class_name": "Conv2D", "config": {"name": "conv2d_3729_insert", "trainable": true, "dtype": "float32", "filters": 8, "kernel_size": [1, 1], "strides": [1, 1], "padding": "same", "data_format": "channels_last", "dilation_rate": [1, 1], "groups": 1, "activation": "linear", "use_bias": false, "kernel_initializer": {"class_name": "VarianceScaling", "config": {"scale": 1.0, "mode": "fan_avg", "distribution": "uniform", "seed": null}}, "bias_initializer": {"class_name": "Zeros", "config": {}}, "kernel_regularizer": null, "bias_regularizer": null, "activity_regularizer": null, "kernel_constraint": null, "bias_constraint": null}, "name": "conv2d_3729_insert", "inbound_nodes": [[["conv2d_3727_insert", 0, 0, {}]]]}, {"class_name": "Conv2D", "config": {"name": "conv2d_3731_insert", "trainable": true, "dtype": "float32", "filters": 7, "kernel_size": [3, 3], "strides": [1, 1], "padding": "same", "data_format": "channels_last", "dilation_rate": [1, 1], "groups": 1, "activation": "linear", "use_bias": false, "kernel_initializer": {"class_name": "VarianceScaling", "config": {"scale": 1.0, "mode": "fan_avg", "distribution": "uniform", "seed": null}}, "bias_initializer": {"class_name": "Zeros", "config": {}}, "kernel_regularizer": null, "bias_regularizer": null, "activity_regularizer": null, "kernel_constraint": null, "bias_constraint": null}, "name": "conv2d_3731_insert", "inbound_nodes": [[["conv2d_3729_insert", 0, 0, {}]]]}, {"class_name": "Conv2D", "config": {"name": "conv2d_3733_insert", "trainable": true, "dtype": "float32", "filters": 7, "kernel_size": [1, 1], "strides": [1, 1], "padding": "valid", "data_format": "channels_last", "dilation_rate": [1, 1], "groups": 1, "activation": "linear", "use_bias": false, "kernel_initializer": {"class_name": "VarianceScaling", "config": {"scale": 1.0, "mode": "fan_avg", "distribution": "uniform", "seed": null}}, "bias_initializer": {"class_name": "Zeros", "config": {}}, "kernel_regularizer": null, "bias_regularizer": null, "activity_regularizer": null, "kernel_constraint": null, "bias_constraint": null}, "name": "conv2d_3733_insert", "inbound_nodes": [[["conv2d_3731_insert", 0, 0, {}]]]}, {"class_name": "Conv2D", "config": {"name": "conv2d_3735_insert", "trainable": true, "dtype": "float32", "filters": 5, "kernel_size": [5, 5], "strides": [1, 1], "padding": "same", "data_format": "channels_last", "dilation_rate": [1, 1], "groups": 1, "activation": "linear", "use_bias": false, "kernel_initializer": {"class_name": "VarianceScaling", "config": {"scale": 1.0, "mode": "fan_avg", "distribution": "uniform", "seed": null}}, "bias_initializer": {"class_name": "Zeros", "config": {}}, "kernel_regularizer": null, "bias_regularizer": null, "activity_regularizer": null, "kernel_constraint": null, "bias_constraint": null}, "name": "conv2d_3735_insert", "inbound_nodes": [[["conv2d_3733_insert", 0, 0, {}]]]}, {"class_name": "Conv2D", "config": {"name": "conv2d_3737_insert", "trainable": true, "dtype": "float32", "filters": 7, "kernel_size": [3, 1], "strides": [1, 1], "padding": "same", "data_format": "channels_last", "dilation_rate": [1, 1], "groups": 1, "activation": "linear", "use_bias": false, "kernel_initializer": {"class_name": "VarianceScaling", "config": {"scale": 1.0, "mode": "fan_avg", "distribution": "uniform", "seed": null}}, "bias_initializer": {"class_name": "Zeros", "config": {}}, "kernel_regularizer": null, "bias_regularizer": null, "activity_regularizer": null, "kernel_constraint": null, "bias_constraint": null}, "name": "conv2d_3737_insert", "inbound_nodes": [[["conv2d_3735_insert", 0, 0, {}]]]}, {"class_name": "Conv2D", "config": {"name": "conv2d_3739_insert", "trainable": true, "dtype": "float32", "filters": 1, "kernel_size": [1, 1], "strides": [1, 1], "padding": "same", "data_format": "channels_last", "dilation_rate": [1, 1], "groups": 1, "activation": "linear", "use_bias": true, "kernel_initializer": {"class_name": "VarianceScaling", "config": {"scale": 1.0, "mode": "fan_avg", "distribution": "uniform", "seed": null}}, "bias_initializer": {"class_name": "Zeros", "config": {}}, "kernel_regularizer": null, "bias_regularizer": null, "activity_regularizer": null, "kernel_constraint": null, "bias_constraint": null}, "name": "conv2d_3739_insert", "inbound_nodes": [[["conv2d_3737_insert", 0, 0, {}]]]}, {"class_name": "Conv2D", "config": {"name": "conv2d_3741_insert", "trainable": true, "dtype": "float32", "filters": 9, "kernel_size": [1, 7], "strides": [1, 1], "padding": "same", "data_format": "channels_last", "dilation_rate": [1, 1], "groups": 1, "activation": "linear", "use_bias": false, "kernel_initializer": {"class_name": "VarianceScaling", "config": {"scale": 1.0, "mode": "fan_avg", "distribution": "uniform", "seed": null}}, "bias_initializer": {"class_name": "Zeros", "config": {}}, "kernel_regularizer": null, "bias_regularizer": null, "activity_regularizer": null, "kernel_constraint": null, "bias_constraint": null}, "name": "conv2d_3741_insert", "inbound_nodes": [[["conv2d_3739_insert", 0, 0, {}]]]}, {"class_name": "Conv2D", "config": {"name": "conv2d_3743_insert", "trainable": true, "dtype": "float32", "filters": 3, "kernel_size": [1, 3], "strides": [1, 1], "padding": "same", "data_format": "channels_last", "dilation_rate": [1, 1], "groups": 1, "activation": "linear", "use_bias": false, "kernel_initializer": {"class_name": "VarianceScaling", "config": {"scale": 1.0, "mode": "fan_avg", "distribution": "uniform", "seed": null}}, "bias_initializer": {"class_name": "Zeros", "config": {}}, "kernel_regularizer": null, "bias_regularizer": null, "activity_regularizer": null, "kernel_constraint": null, "bias_constraint": null}, "name": "conv2d_3743_insert", "inbound_nodes": [[["conv2d_3741_insert", 0, 0, {}]]]}, {"class_name": "CustomPadLayer", "config": {"name": "custom_pad_layer_699", "trainable": true, "dtype": "float32", "padding": [[8, 8], [8, 8], [7, 7]], "constant_values": 2}, "name": "custom_pad_layer_699", "inbound_nodes": [[["conv2d_3743_insert", 0, 0, {}]]]}, {"class_name": "MaxPooling2D", "config": {"name": "max_pooling2d_1285_insert", "trainable": true, "dtype": "float32", "pool_size": [3, 3], "padding": "valid", "strides": [2, 2], "data_format": "channels_last"}, "name": "max_pooling2d_1285_insert", "inbound_nodes": [[["custom_pad_layer_699", 0, 0, {}]]]}, {"class_name": "CustomPadLayer", "config": {"name": "custom_pad_layer_700", "trainable": true, "dtype": "float32", "padding": [[0, 1], [0, 0], [0, 0]], "constant_values": 2}, "name": "custom_pad_layer_700", "inbound_nodes": [[["max_pooling2d_1285_insert", 0, 0, {}]]]}, {"class_name": "CustomCropLayer", "config": {"name": "custom_crop_layer_522", "trainable": true, "dtype": "float32", "cropping": [[0, 0], [0, 0], [3, 3]]}, "name": "custom_crop_layer_522", "inbound_nodes": [[["custom_pad_layer_700", 0, 0, {}]]]}, {"class_name": "BatchNormalization", "config": {"name": "batch_normalization_1607_insert", "trainable": true, "dtype": "float32", "axis": [3], "momentum": 0.99, "epsilon": 0.001, "center": true, "scale": false, "beta_initializer": {"class_name": "Zeros", "config": {}}, "gamma_initializer": {"class_name": "Ones", "config": {}}, "moving_mean_initializer": {"class_name": "Zeros", "config": {}}, "moving_variance_initializer": {"class_name": "Ones", "config": {}}, "beta_regularizer": null, "gamma_regularizer": null, "beta_constraint": null, "gamma_constraint": null}, "name": "batch_normalization_1607_insert", "inbound_nodes": [[["custom_crop_layer_522", 0, 0, {}]]]}, {"class_name": "CustomPadLayer", "config": {"name": "custom_pad_layer_701", "trainable": true, "dtype": "float32", "padding": [[0, 0], [0, 0], [2, 2]], "constant_values": 2}, "name": "custom_pad_layer_701", "inbound_nodes": [[["batch_normalization_1607_insert", 0, 0, {}]]]}, {"class_name": "CustomCropLayer", "config": {"name": "custom_crop_layer_523", "trainable": true, "dtype": "float32", "cropping": [[1, 1], [1, 1], [0, 0]]}, "name": "custom_crop_layer_523", "inbound_nodes": [[["custom_pad_layer_701", 0, 0, {}]]]}, {"class_name": "MaxPooling2D", "config": {"name": "max_pooling2d_1287_insert", "trainable": true, "dtype": "float32", "pool_size": [3, 3], "padding": "valid", "strides": [2, 2], "data_format": "channels_last"}, "name": "max_pooling2d_1287_insert", "inbound_nodes": [[["custom_crop_layer_523", 0, 0, {}]]]}, {"class_name": "CustomPadLayer", "config": {"name": "custom_pad_layer_702", "trainable": true, "dtype": "float32", "padding": [[4, 5], [2, 3], [0, 0]], "constant_values": 2}, "name": "custom_pad_layer_702", "inbound_nodes": [[["max_pooling2d_1287_insert", 0, 0, {}]]]}, {"class_name": "CustomCropLayer", "config": {"name": "custom_crop_layer_524", "trainable": true, "dtype": "float32", "cropping": [[0, 0], [0, 0], [4, 5]]}, "name": "custom_crop_layer_524", "inbound_nodes": [[["custom_pad_layer_702", 0, 0, {}]]]}, {"class_name": "MaxPooling2D", "config": {"name": "max_pooling2d_1289_insert", "trainable": true, "dtype": "float32", "pool_size": [3, 3], "padding": "valid", "strides": [2, 2], "data_format": "channels_last"}, "name": "max_pooling2d_1289_insert", "inbound_nodes": [[["custom_crop_layer_524", 0, 0, {}]]]}, {"class_name": "CustomPadLayer", "config": {"name": "custom_pad_layer_703", "trainable": true, "dtype": "float32", "padding": [[5, 5], [5, 6], [3, 4]], "constant_values": 2}, "name": "custom_pad_layer_703", "inbound_nodes": [[["max_pooling2d_1289_insert", 0, 0, {}]]]}, {"class_name": "BatchNormalization", "config": {"name": "batch_normalization_1609_insert", "trainable": true, "dtype": "float32", "axis": [3], "momentum": 0.99, "epsilon": 0.001, "center": true, "scale": false, "beta_initializer": {"class_name": "Zeros", "config": {}}, "gamma_initializer": {"class_name": "Ones", "config": {}}, "moving_mean_initializer": {"class_name": "Zeros", "config": {}}, "moving_variance_initializer": {"class_name": "Ones", "config": {}}, "beta_regularizer": null, "gamma_regularizer": null, "beta_constraint": null, "gamma_constraint": null}, "name": "batch_normalization_1609_insert", "inbound_nodes": [[["custom_pad_layer_703", 0, 0, {}]]]}, {"class_name": "CustomCropLayer", "config": {"name": "custom_crop_layer_525", "trainable": true, "dtype": "float32", "cropping": [[3, 4], [0, 1], [2, 3]]}, "name": "custom_crop_layer_525", "inbound_nodes": [[["batch_normalization_1609_insert", 0, 0, {}]]]}, {"class_name": "BatchNormalization", "config": {"name": "batch_normalization_1611_insert", "trainable": true, "dtype": "float32", "axis": [3], "momentum": 0.99, "epsilon": 0.001, "center": true, "scale": false, "beta_initializer": {"class_name": "Zeros", "config": {}}, "gamma_initializer": {"class_name": "Ones", "config": {}}, "moving_mean_initializer": {"class_name": "Zeros", "config": {}}, "moving_variance_initializer": {"class_name": "Ones", "config": {}}, "beta_regularizer": null, "gamma_regularizer": null, "beta_constraint": null, "gamma_constraint": null}, "name": "batch_normalization_1611_insert", "inbound_nodes": [[["custom_crop_layer_525", 0, 0, {}]]]}, {"class_name": "CustomPadLayer", "config": {"name": "custom_pad_layer_704", "trainable": true, "dtype": "float32", "padding": [[0, 0], [0, 0], [4, 5]], "constant_values": 2}, "name": "custom_pad_layer_704", "inbound_nodes": [[["batch_normalization_1611_insert", 0, 0, {}]]]}, {"class_name": "CustomCropLayer", "config": {"name": "custom_crop_layer_526", "trainable": true, "dtype": "float32", "cropping": [[1, 2], [3, 4], [0, 0]]}, "name": "custom_crop_layer_526", "inbound_nodes": [[["custom_pad_layer_704", 0, 0, {}]]]}, {"class_name": "AveragePooling2D", "config": {"name": "average_pooling2d_919_insert_2", "trainable": true, "dtype": "float32", "pool_size": [3, 3], "padding": "same", "strides": [1, 1], "data_format": "channels_last"}, "name": "average_pooling2d_919_insert_2", "inbound_nodes": [[["max_pooling2d_1283_insert", 0, 0, {}]]]}, {"class_name": "BatchNormalization", "config": {"name": "batch_normalization_1613_insert", "trainable": true, "dtype": "float32", "axis": [3], "momentum": 0.99, "epsilon": 0.001, "center": true, "scale": false, "beta_initializer": {"class_name": "Zeros", "config": {}}, "gamma_initializer": {"class_name": "Ones", "config": {}}, "moving_mean_initializer": {"class_name": "Zeros", "config": {}}, "moving_variance_initializer": {"class_name": "Ones", "config": {}}, "beta_regularizer": null, "gamma_regularizer": null, "beta_constraint": null, "gamma_constraint": null}, "name": "batch_normalization_1613_insert", "inbound_nodes": [[["custom_crop_layer_526", 0, 0, {}]]]}, {"class_name": "Cropping2D", "config": {"name": "cropping2d_71", "trainable": true, "dtype": "float32", "cropping": [[32, 32], [32, 32]], "data_format": "channels_last"}, "name": "cropping2d_71", "inbound_nodes": [[["average_pooling2d_919_insert_2", 0, 0, {}]]]}], "input_layers": [["input_705", 0, 0]], "output_layers": [["batch_normalization_1613_insert", 0, 0], ["cropping2d_71", 0, 0]]}, "keras_version": "2.7.0", "backend": "tensorflow"}