{"class_name": "Functional", "config": {"name": "model_5914", "layers": [{"class_name": "InputLayer", "config": {"batch_input_shape": [null, 299, 299, 3], "dtype": "float32", "sparse": false, "ragged": false, "name": "input_756"}, "name": "input_756", "inbound_nodes": []}, {"class_name": "Conv2D", "config": {"name": "conv2d_1", "trainable": true, "dtype": "float32", "filters": 32, "kernel_size": [3, 3], "strides": [2, 2], "padding": "valid", "data_format": "channels_last", "dilation_rate": [1, 1], "groups": 1, "activation": "linear", "use_bias": false, "kernel_initializer": {"class_name": "VarianceScaling", "config": {"scale": 1.0, "mode": "fan_avg", "distribution": "uniform", "seed": null}}, "bias_initializer": {"class_name": "Zeros", "config": {}}, "kernel_regularizer": null, "bias_regularizer": null, "activity_regularizer": null, "kernel_constraint": null, "bias_constraint": null}, "name": "conv2d_1", "inbound_nodes": [[["input_756", 0, 0, {}]]]}, {"class_name": "MaxPooling2D", "config": {"name": "max_pooling2d_1373_insert", "trainable": true, "dtype": "float32", "pool_size": [3, 3], "padding": "valid", "strides": [2, 2], "data_format": "channels_last"}, "name": "max_pooling2d_1373_insert", "inbound_nodes": [[["conv2d_1", 0, 0, {}]]]}, {"class_name": "Conv2D", "config": {"name": "conv2d_4079_insert", "trainable": true, "dtype": "float32", "filters": 7, "kernel_size": [3, 3], "strides": [1, 1], "padding": "valid", "data_format": "channels_last", "dilation_rate": [1, 1], "groups": 1, "activation": "linear", "use_bias": false, "kernel_initializer": {"class_name": "VarianceScaling", "config": {"scale": 1.0, "mode": "fan_avg", "distribution": "uniform", "seed": null}}, "bias_initializer": {"class_name": "Zeros", "config": {}}, "kernel_regularizer": null, "bias_regularizer": null, "activity_regularizer": null, "kernel_constraint": null, "bias_constraint": null}, "name": "conv2d_4079_insert", "inbound_nodes": [[["max_pooling2d_1373_insert", 0, 0, {}]]]}, {"class_name": "Conv2D", "config": {"name": "conv2d_4081_insert", "trainable": true, "dtype": "float32", "filters": 9, "kernel_size": [7, 1], "strides": [1, 1], "padding": "same", "data_format": "channels_last", "dilation_rate": [1, 1], "groups": 1, "activation": "linear", "use_bias": false, "kernel_initializer": {"class_name": "VarianceScaling", "config": {"scale": 1.0, "mode": "fan_avg", "distribution": "uniform", "seed": null}}, "bias_initializer": {"class_name": "Zeros", "config": {}}, "kernel_regularizer": null, "bias_regularizer": null, "activity_regularizer": null, "kernel_constraint": null, "bias_constraint": null}, "name": "conv2d_4081_insert", "inbound_nodes": [[["conv2d_4079_insert", 0, 0, {}]]]}, {"class_name": "BatchNormalization", "config": {"name": "batch_normalization_1699_insert", "trainable": true, "dtype": "float32", "axis": [3], "momentum": 0.99, "epsilon": 0.001, "center": true, "scale": false, "beta_initializer": {"class_name": "Zeros", "config": {}}, "gamma_initializer": {"class_name": "Ones", "config": {}}, "moving_mean_initializer": {"class_name": "Zeros", "config": {}}, "moving_variance_initializer": {"class_name": "Ones", "config": {}}, "beta_regularizer": null, "gamma_regularizer": null, "beta_constraint": null, "gamma_constraint": null}, "name": "batch_normalization_1699_insert", "inbound_nodes": [[["conv2d_4081_insert", 0, 0, {}]]]}, {"class_name": "Conv2D", "config": {"name": "conv2d_4083_insert", "trainable": true, "dtype": "float32", "filters": 9, "kernel_size": [1, 1], "strides": [1, 1], "padding": "valid", "data_format": "channels_last", "dilation_rate": [1, 1], "groups": 1, "activation": "linear", "use_bias": false, "kernel_initializer": {"class_name": "VarianceScaling", "config": {"scale": 1.0, "mode": "fan_avg", "distribution": "uniform", "seed": null}}, "bias_initializer": {"class_name": "Zeros", "config": {}}, "kernel_regularizer": null, "bias_regularizer": null, "activity_regularizer": null, "kernel_constraint": null, "bias_constraint": null}, "name": "conv2d_4083_insert", "inbound_nodes": [[["batch_normalization_1699_insert", 0, 0, {}]]]}, {"class_name": "GlobalAveragePooling2D", "config": {"name": "global_average_pooling2d_1277_insert", "trainable": true, "dtype": "float32", "data_format": "channels_last", "keepdims": false}, "name": "global_average_pooling2d_1277_insert", "inbound_nodes": [[["conv2d_4083_insert", 0, 0, {}]]]}, {"class_name": "CustomExpandLayer", "config": {"name": "custom_expand_layer_1297_insert", "trainable": true, "dtype": "float32", "axis": 1}, "name": "custom_expand_layer_1297_insert", "inbound_nodes": [[["global_average_pooling2d_1277_insert", 0, 0, {}]]]}, {"class_name": "CustomExpandLayer", "config": {"name": "custom_expand_layer_1298_insert", "trainable": true, "dtype": "float32", "axis": 1}, "name": "custom_expand_layer_1298_insert", "inbound_nodes": [[["custom_expand_layer_1297_insert", 0, 0, {}]]]}, {"class_name": "Conv2D", "config": {"name": "conv2d_4085_insert", "trainable": true, "dtype": "float32", "filters": 5, "kernel_size": [1, 1], "strides": [1, 1], "padding": "same", "data_format": "channels_last", "dilation_rate": [1, 1], "groups": 1, "activation": "linear", "use_bias": false, "kernel_initializer": {"class_name": "VarianceScaling", "config": {"scale": 1.0, "mode": "fan_avg", "distribution": "uniform", "seed": null}}, "bias_initializer": {"class_name": "Zeros", "config": {}}, "kernel_regularizer": null, "bias_regularizer": null, "activity_regularizer": null, "kernel_constraint": null, "bias_constraint": null}, "name": "conv2d_4085_insert", "inbound_nodes": [[["custom_expand_layer_1298_insert", 0, 0, {}]]]}, {"class_name": "AveragePooling2D", "config": {"name": "average_pooling2d_991_insert", "trainable": true, "dtype": "float32", "pool_size": [3, 3], "padding": "same", "strides": [1, 1], "data_format": "channels_last"}, "name": "average_pooling2d_991_insert", "inbound_nodes": [[["conv2d_4085_insert", 0, 0, {}]]]}, {"class_name": "Conv2D", "config": {"name": "conv2d_4087_insert", "trainable": true, "dtype": "float32", "filters": 2, "kernel_size": [3, 1], "strides": [1, 1], "padding": "same", "data_format": "channels_last", "dilation_rate": [1, 1], "groups": 1, "activation": "linear", "use_bias": false, "kernel_initializer": {"class_name": "VarianceScaling", "config": {"scale": 1.0, "mode": "fan_avg", "distribution": "uniform", "seed": null}}, "bias_initializer": {"class_name": "Zeros", "config": {}}, "kernel_regularizer": null, "bias_regularizer": null, "activity_regularizer": null, "kernel_constraint": null, "bias_constraint": null}, "name": "conv2d_4087_insert", "inbound_nodes": [[["average_pooling2d_991_insert", 0, 0, {}]]]}, {"class_name": "Conv2D", "config": {"name": "conv2d_4089_insert_merge1", "trainable": true, "dtype": "float32", "filters": 9, "kernel_size": [5, 5], "strides": [1, 1], "padding": "same", "data_format": "channels_last", "dilation_rate": [1, 1], "groups": 1, "activation": "linear", "use_bias": false, "kernel_initializer": {"class_name": "VarianceScaling", "config": {"scale": 1.0, "mode": "fan_avg", "distribution": "uniform", "seed": null}}, "bias_initializer": {"class_name": "Zeros", "config": {}}, "kernel_regularizer": null, "bias_regularizer": null, "activity_regularizer": null, "kernel_constraint": null, "bias_constraint": null}, "name": "conv2d_4089_insert_merge1", "inbound_nodes": [[["conv2d_4087_insert", 0, 0, {}]]]}, {"class_name": "Concatenate", "config": {"name": "concatenate_38_copy_ML", "trainable": true, "dtype": "float32", "axis": 3}, "name": "concatenate_38_copy_ML", "inbound_nodes": [[["conv2d_4089_insert_merge1", 0, 0, {}], ["custom_expand_layer_1298_insert", 0, 0, {}]]]}, {"class_name": "Conv2D", "config": {"name": "conv2d_4091_insert", "trainable": true, "dtype": "float32", "filters": 4, "kernel_size": [1, 7], "strides": [1, 1], "padding": "same", "data_format": "channels_last", "dilation_rate": [1, 1], "groups": 1, "activation": "linear", "use_bias": false, "kernel_initializer": {"class_name": "VarianceScaling", "config": {"scale": 1.0, "mode": "fan_avg", "distribution": "uniform", "seed": null}}, "bias_initializer": {"class_name": "Zeros", "config": {}}, "kernel_regularizer": null, "bias_regularizer": null, "activity_regularizer": null, "kernel_constraint": null, "bias_constraint": null}, "name": "conv2d_4091_insert", "inbound_nodes": [[["concatenate_38_copy_ML", 0, 0, {}]]]}, {"class_name": "Conv2D", "config": {"name": "conv2d_4093_insert", "trainable": true, "dtype": "float32", "filters": 1, "kernel_size": [1, 3], "strides": [1, 1], "padding": "same", "data_format": "channels_last", "dilation_rate": [1, 1], "groups": 1, "activation": "linear", "use_bias": false, "kernel_initializer": {"class_name": "VarianceScaling", "config": {"scale": 1.0, "mode": "fan_avg", "distribution": "uniform", "seed": null}}, "bias_initializer": {"class_name": "Zeros", "config": {}}, "kernel_regularizer": null, "bias_regularizer": null, "activity_regularizer": null, "kernel_constraint": null, "bias_constraint": null}, "name": "conv2d_4093_insert", "inbound_nodes": [[["conv2d_4091_insert", 0, 0, {}]]]}, {"class_name": "Conv2D", "config": {"name": "conv2d_4095_insert", "trainable": true, "dtype": "float32", "filters": 6, "kernel_size": [3, 3], "strides": [1, 1], "padding": "same", "data_format": "channels_last", "dilation_rate": [1, 1], "groups": 1, "activation": "linear", "use_bias": false, "kernel_initializer": {"class_name": "VarianceScaling", "config": {"scale": 1.0, "mode": "fan_avg", "distribution": "uniform", "seed": null}}, "bias_initializer": {"class_name": "Zeros", "config": {}}, "kernel_regularizer": null, "bias_regularizer": null, "activity_regularizer": null, "kernel_constraint": null, "bias_constraint": null}, "name": "conv2d_4095_insert", "inbound_nodes": [[["conv2d_4093_insert", 0, 0, {}]]]}, {"class_name": "CustomPadLayer", "config": {"name": "custom_pad_layer_705", "trainable": true, "dtype": "float32", "padding": [[6, 7], [2, 2], [5, 5]], "constant_values": 2}, "name": "custom_pad_layer_705", "inbound_nodes": [[["conv2d_4095_insert", 0, 0, {}]]]}, {"class_name": "BatchNormalization", "config": {"name": "batch_normalization_1701_insert", "trainable": true, "dtype": "float32", "axis": [3], "momentum": 0.99, "epsilon": 0.001, "center": true, "scale": false, "beta_initializer": {"class_name": "Zeros", "config": {}}, "gamma_initializer": {"class_name": "Ones", "config": {}}, "moving_mean_initializer": {"class_name": "Zeros", "config": {}}, "moving_variance_initializer": {"class_name": "Ones", "config": {}}, "beta_regularizer": null, "gamma_regularizer": null, "beta_constraint": null, "gamma_constraint": null}, "name": "batch_normalization_1701_insert", "inbound_nodes": [[["custom_pad_layer_705", 0, 0, {}]]]}, {"class_name": "CustomPadLayer", "config": {"name": "custom_pad_layer_706", "trainable": true, "dtype": "float32", "padding": [[0, 0], [2, 3], [0, 0]], "constant_values": 2}, "name": "custom_pad_layer_706", "inbound_nodes": [[["batch_normalization_1701_insert", 0, 0, {}]]]}, {"class_name": "CustomCropLayer", "config": {"name": "custom_crop_layer_527", "trainable": true, "dtype": "float32", "cropping": [[1, 2], [0, 0], [0, 1]]}, "name": "custom_crop_layer_527", "inbound_nodes": [[["custom_pad_layer_706", 0, 0, {}]]]}, {"class_name": "MaxPooling2D", "config": {"name": "max_pooling2d_1375_insert", "trainable": true, "dtype": "float32", "pool_size": [3, 3], "padding": "valid", "strides": [2, 2], "data_format": "channels_last"}, "name": "max_pooling2d_1375_insert", "inbound_nodes": [[["custom_crop_layer_527", 0, 0, {}]]]}, {"class_name": "CustomPadLayer", "config": {"name": "custom_pad_layer_707", "trainable": true, "dtype": "float32", "padding": [[6, 6], [4, 4], [1, 2]], "constant_values": 2}, "name": "custom_pad_layer_707", "inbound_nodes": [[["max_pooling2d_1375_insert", 0, 0, {}]]]}, {"class_name": "BatchNormalization", "config": {"name": "batch_normalization_1703_insert", "trainable": true, "dtype": "float32", "axis": [3], "momentum": 0.99, "epsilon": 0.001, "center": true, "scale": false, "beta_initializer": {"class_name": "Zeros", "config": {}}, "gamma_initializer": {"class_name": "Ones", "config": {}}, "moving_mean_initializer": {"class_name": "Zeros", "config": {}}, "moving_variance_initializer": {"class_name": "Ones", "config": {}}, "beta_regularizer": null, "gamma_regularizer": null, "beta_constraint": null, "gamma_constraint": null}, "name": "batch_normalization_1703_insert", "inbound_nodes": [[["custom_pad_layer_707", 0, 0, {}]]]}, {"class_name": "CustomPadLayer", "config": {"name": "custom_pad_layer_708", "trainable": true, "dtype": "float32", "padding": [[0, 0], [1, 2], [0, 0]], "constant_values": 2}, "name": "custom_pad_layer_708", "inbound_nodes": [[["batch_normalization_1703_insert", 0, 0, {}]]]}, {"class_name": "CustomCropLayer", "config": {"name": "custom_crop_layer_528", "trainable": true, "dtype": "float32", "cropping": [[0, 0], [0, 0], [5, 6]]}, "name": "custom_crop_layer_528", "inbound_nodes": [[["custom_pad_layer_708", 0, 0, {}]]]}, {"class_name": "BatchNormalization", "config": {"name": "batch_normalization_1705_insert", "trainable": true, "dtype": "float32", "axis": [3], "momentum": 0.99, "epsilon": 0.001, "center": true, "scale": false, "beta_initializer": {"class_name": "Zeros", "config": {}}, "gamma_initializer": {"class_name": "Ones", "config": {}}, "moving_mean_initializer": {"class_name": "Zeros", "config": {}}, "moving_variance_initializer": {"class_name": "Ones", "config": {}}, "beta_regularizer": null, "gamma_regularizer": null, "beta_constraint": null, "gamma_constraint": null}, "name": "batch_normalization_1705_insert", "inbound_nodes": [[["custom_crop_layer_528", 0, 0, {}]]]}, {"class_name": "CustomPadLayer", "config": {"name": "custom_pad_layer_709", "trainable": true, "dtype": "float32", "padding": [[0, 0], [0, 1], [3, 3]], "constant_values": 2}, "name": "custom_pad_layer_709", "inbound_nodes": [[["batch_normalization_1705_insert", 0, 0, {}]]]}, {"class_name": "CustomCropLayer", "config": {"name": "custom_crop_layer_529", "trainable": true, "dtype": "float32", "cropping": [[1, 2], [0, 0], [0, 0]]}, "name": "custom_crop_layer_529", "inbound_nodes": [[["custom_pad_layer_709", 0, 0, {}]]]}, {"class_name": "BatchNormalization", "config": {"name": "batch_normalization_1707_insert", "trainable": true, "dtype": "float32", "axis": [3], "momentum": 0.99, "epsilon": 0.001, "center": true, "scale": false, "beta_initializer": {"class_name": "Zeros", "config": {}}, "gamma_initializer": {"class_name": "Ones", "config": {}}, "moving_mean_initializer": {"class_name": "Zeros", "config": {}}, "moving_variance_initializer": {"class_name": "Ones", "config": {}}, "beta_regularizer": null, "gamma_regularizer": null, "beta_constraint": null, "gamma_constraint": null}, "name": "batch_normalization_1707_insert", "inbound_nodes": [[["custom_crop_layer_529", 0, 0, {}]]]}, {"class_name": "CustomPadLayer", "config": {"name": "custom_pad_layer_710", "trainable": true, "dtype": "float32", "padding": [[0, 0], [0, 0], [1, 2]], "constant_values": 2}, "name": "custom_pad_layer_710", "inbound_nodes": [[["batch_normalization_1707_insert", 0, 0, {}]]]}, {"class_name": "CustomCropLayer", "config": {"name": "custom_crop_layer_530", "trainable": true, "dtype": "float32", "cropping": [[1, 1], [3, 3], [0, 0]]}, "name": "custom_crop_layer_530", "inbound_nodes": [[["custom_pad_layer_710", 0, 0, {}]]]}, {"class_name": "MaxPooling2D", "config": {"name": "max_pooling2d_1377_insert", "trainable": true, "dtype": "float32", "pool_size": [3, 3], "padding": "valid", "strides": [2, 2], "data_format": "channels_last"}, "name": "max_pooling2d_1377_insert", "inbound_nodes": [[["custom_crop_layer_530", 0, 0, {}]]]}, {"class_name": "CustomPadLayer", "config": {"name": "custom_pad_layer_711", "trainable": true, "dtype": "float32", "padding": [[0, 1], [5, 6], [0, 0]], "constant_values": 2}, "name": "custom_pad_layer_711", "inbound_nodes": [[["max_pooling2d_1377_insert", 0, 0, {}]]]}, {"class_name": "CustomCropLayer", "config": {"name": "custom_crop_layer_531", "trainable": true, "dtype": "float32", "cropping": [[0, 0], [0, 0], [1, 1]]}, "name": "custom_crop_layer_531", "inbound_nodes": [[["custom_pad_layer_711", 0, 0, {}]]]}, {"class_name": "MaxPooling2D", "config": {"name": "max_pooling2d_1379_insert", "trainable": true, "dtype": "float32", "pool_size": [3, 3], "padding": "valid", "strides": [2, 2], "data_format": "channels_last"}, "name": "max_pooling2d_1379_insert", "inbound_nodes": [[["custom_crop_layer_531", 0, 0, {}]]]}, {"class_name": "CustomPadLayer", "config": {"name": "custom_pad_layer_712", "trainable": true, "dtype": "float32", "padding": [[3, 4], [2, 3], [0, 1]], "constant_values": 2}, "name": "custom_pad_layer_712", "inbound_nodes": [[["max_pooling2d_1379_insert", 0, 0, {}]]]}, {"class_name": "AveragePooling2D", "config": {"name": "average_pooling2d_993_insert", "trainable": true, "dtype": "float32", "pool_size": [3, 3], "padding": "same", "strides": [1, 1], "data_format": "channels_last"}, "name": "average_pooling2d_993_insert", "inbound_nodes": [[["custom_pad_layer_712", 0, 0, {}]]]}, {"class_name": "CustomPadLayer", "config": {"name": "custom_pad_layer_713", "trainable": true, "dtype": "float32", "padding": [[0, 0], [0, 0], [1, 2]], "constant_values": 2}, "name": "custom_pad_layer_713", "inbound_nodes": [[["average_pooling2d_993_insert", 0, 0, {}]]]}, {"class_name": "CustomCropLayer", "config": {"name": "custom_crop_layer_532", "trainable": true, "dtype": "float32", "cropping": [[1, 1], [3, 3], [0, 0]]}, "name": "custom_crop_layer_532", "inbound_nodes": [[["custom_pad_layer_713", 0, 0, {}]]]}, {"class_name": "AveragePooling2D", "config": {"name": "average_pooling2d_995_insert_1", "trainable": true, "dtype": "float32", "pool_size": [3, 3], "padding": "same", "strides": [1, 1], "data_format": "channels_last"}, "name": "average_pooling2d_995_insert_1", "inbound_nodes": [[["custom_crop_layer_532", 0, 0, {}]]]}, {"class_name": "CustomPadLayer", "config": {"name": "custom_pad_layer_714", "trainable": true, "dtype": "float32", "padding": [[4, 5], [3, 3], [0, 0]], "constant_values": 2}, "name": "custom_pad_layer_714", "inbound_nodes": [[["average_pooling2d_995_insert_1", 0, 0, {}]]]}, {"class_name": "CustomCropLayer", "config": {"name": "custom_crop_layer_533", "trainable": true, "dtype": "float32", "cropping": [[0, 0], [0, 0], [2, 3]]}, "name": "custom_crop_layer_533", "inbound_nodes": [[["custom_pad_layer_714", 0, 0, {}]]]}, {"class_name": "AveragePooling2D", "config": {"name": "average_pooling2d_997_insert", "trainable": true, "dtype": "float32", "pool_size": [3, 3], "padding": "same", "strides": [1, 1], "data_format": "channels_last"}, "name": "average_pooling2d_997_insert", "inbound_nodes": [[["custom_crop_layer_533", 0, 0, {}]]]}, {"class_name": "CustomPadLayer", "config": {"name": "custom_pad_layer_715", "trainable": true, "dtype": "float32", "padding": [[1, 1], [0, 0], [2, 3]], "constant_values": 2}, "name": "custom_pad_layer_715", "inbound_nodes": [[["average_pooling2d_997_insert", 0, 0, {}]]]}, {"class_name": "CustomCropLayer", "config": {"name": "custom_crop_layer_534", "trainable": true, "dtype": "float32", "cropping": [[0, 0], [0, 1], [0, 0]]}, "name": "custom_crop_layer_534", "inbound_nodes": [[["custom_pad_layer_715", 0, 0, {}]]]}, {"class_name": "AveragePooling2D", "config": {"name": "average_pooling2d_995_insert_2", "trainable": true, "dtype": "float32", "pool_size": [3, 3], "padding": "same", "strides": [1, 1], "data_format": "channels_last"}, "name": "average_pooling2d_995_insert_2", "inbound_nodes": [[["max_pooling2d_1373_insert", 0, 0, {}]]]}, {"class_name": "AveragePooling2D", "config": {"name": "average_pooling2d_999_insert", "trainable": true, "dtype": "float32", "pool_size": [3, 3], "padding": "same", "strides": [1, 1], "data_format": "channels_last"}, "name": "average_pooling2d_999_insert", "inbound_nodes": [[["custom_crop_layer_534", 0, 0, {}]]]}, {"class_name": "Cropping2D", "config": {"name": "cropping2d_72", "trainable": true, "dtype": "float32", "cropping": [[32, 32], [32, 32]], "data_format": "channels_last"}, "name": "cropping2d_72", "inbound_nodes": [[["average_pooling2d_995_insert_2", 0, 0, {}]]]}], "input_layers": [["input_756", 0, 0]], "output_layers": [["average_pooling2d_999_insert", 0, 0], ["cropping2d_72", 0, 0]]}, "keras_version": "2.7.0", "backend": "tensorflow"}