{"class_name": "Functional", "config": {"name": "model_6004", "layers": [{"class_name": "InputLayer", "config": {"batch_input_shape": [null, 224, 224, 3], "dtype": "float32", "sparse": false, "ragged": false, "name": "input_771"}, "name": "input_771", "inbound_nodes": []}, {"class_name": "ZeroPadding2D", "config": {"name": "conv1_pad", "trainable": true, "dtype": "float32", "padding": [[3, 3], [3, 3]], "data_format": "channels_last"}, "name": "conv1_pad", "inbound_nodes": [[["input_771", 0, 0, {}]]]}, {"class_name": "MaxPooling2D", "config": {"name": "max_pooling2d_1405_insert", "trainable": true, "dtype": "float32", "pool_size": [3, 3], "padding": "valid", "strides": [2, 2], "data_format": "channels_last"}, "name": "max_pooling2d_1405_insert", "inbound_nodes": [[["conv1_pad", 0, 0, {}]]]}, {"class_name": "Conv2D", "config": {"name": "conv2d_4147_insert", "trainable": true, "dtype": "float32", "filters": 3, "kernel_size": [1, 1], "strides": [1, 1], "padding": "valid", "data_format": "channels_last", "dilation_rate": [1, 1], "groups": 1, "activation": "linear", "use_bias": true, "kernel_initializer": {"class_name": "VarianceScaling", "config": {"scale": 1.0, "mode": "fan_avg", "distribution": "uniform", "seed": null}}, "bias_initializer": {"class_name": "Zeros", "config": {}}, "kernel_regularizer": null, "bias_regularizer": null, "activity_regularizer": null, "kernel_constraint": null, "bias_constraint": null}, "name": "conv2d_4147_insert", "inbound_nodes": [[["max_pooling2d_1405_insert", 0, 0, {}]]]}, {"class_name": "Conv2D", "config": {"name": "conv2d_4149_insert", "trainable": true, "dtype": "float32", "filters": 6, "kernel_size": [7, 7], "strides": [2, 2], "padding": "valid", "data_format": "channels_last", "dilation_rate": [1, 1], "groups": 1, "activation": "linear", "use_bias": true, "kernel_initializer": {"class_name": "VarianceScaling", "config": {"scale": 1.0, "mode": "fan_avg", "distribution": "uniform", "seed": null}}, "bias_initializer": {"class_name": "Zeros", "config": {}}, "kernel_regularizer": null, "bias_regularizer": null, "activity_regularizer": null, "kernel_constraint": null, "bias_constraint": null}, "name": "conv2d_4149_insert", "inbound_nodes": [[["conv2d_4147_insert", 0, 0, {}]]]}, {"class_name": "Conv2D", "config": {"name": "conv2d_4151_insert", "trainable": true, "dtype": "float32", "filters": 5, "kernel_size": [1, 1], "strides": [2, 2], "padding": "valid", "data_format": "channels_last", "dilation_rate": [1, 1], "groups": 1, "activation": "linear", "use_bias": true, "kernel_initializer": {"class_name": "VarianceScaling", "config": {"scale": 1.0, "mode": "fan_avg", "distribution": "uniform", "seed": null}}, "bias_initializer": {"class_name": "Zeros", "config": {}}, "kernel_regularizer": null, "bias_regularizer": null, "activity_regularizer": null, "kernel_constraint": null, "bias_constraint": null}, "name": "conv2d_4151_insert", "inbound_nodes": [[["conv2d_4149_insert", 0, 0, {}]]]}, {"class_name": "ZeroPadding2D", "config": {"name": "zero_padding2d_331_insert", "trainable": true, "dtype": "float32", "padding": [[1, 1], [1, 1]], "data_format": "channels_last"}, "name": "zero_padding2d_331_insert", "inbound_nodes": [[["conv2d_4151_insert", 0, 0, {}]]]}, {"class_name": "Conv2D", "config": {"name": "conv2d_4153_insert", "trainable": true, "dtype": "float32", "filters": 5, "kernel_size": [3, 3], "strides": [1, 1], "padding": "same", "data_format": "channels_last", "dilation_rate": [1, 1], "groups": 1, "activation": "linear", "use_bias": true, "kernel_initializer": {"class_name": "VarianceScaling", "config": {"scale": 1.0, "mode": "fan_avg", "distribution": "uniform", "seed": null}}, "bias_initializer": {"class_name": "Zeros", "config": {}}, "kernel_regularizer": null, "bias_regularizer": null, "activity_regularizer": null, "kernel_constraint": null, "bias_constraint": null}, "name": "conv2d_4153_insert", "inbound_nodes": [[["zero_padding2d_331_insert", 0, 0, {}]]]}, {"class_name": "BatchNormalization", "config": {"name": "batch_normalization_1733_insert", "trainable": true, "dtype": "float32", "axis": [3], "momentum": 0.99, "epsilon": 1.001e-05, "center": true, "scale": true, "beta_initializer": {"class_name": "Zeros", "config": {}}, "gamma_initializer": {"class_name": "Ones", "config": {}}, "moving_mean_initializer": {"class_name": "Zeros", "config": {}}, "moving_variance_initializer": {"class_name": "Ones", "config": {}}, "beta_regularizer": null, "gamma_regularizer": null, "beta_constraint": null, "gamma_constraint": null}, "name": "batch_normalization_1733_insert", "inbound_nodes": [[["conv2d_4153_insert", 0, 0, {}]]]}, {"class_name": "GlobalAveragePooling2D", "config": {"name": "global_average_pooling2d_1307_insert", "trainable": true, "dtype": "float32", "data_format": "channels_last", "keepdims": false}, "name": "global_average_pooling2d_1307_insert", "inbound_nodes": [[["batch_normalization_1733_insert", 0, 0, {}]]]}, {"class_name": "CustomExpandLayer", "config": {"name": "custom_expand_layer_1323", "trainable": true, "dtype": "float32", "axis": 1}, "name": "custom_expand_layer_1323", "inbound_nodes": [[["global_average_pooling2d_1307_insert", 0, 0, {}]]]}, {"class_name": "CustomExpandLayer", "config": {"name": "custom_expand_layer_1324", "trainable": true, "dtype": "float32", "axis": 1}, "name": "custom_expand_layer_1324", "inbound_nodes": [[["custom_expand_layer_1323", 0, 0, {}]]]}, {"class_name": "CustomPadLayer", "config": {"name": "custom_pad_layer_716", "trainable": true, "dtype": "float32", "padding": [[4, 5], [4, 5], [0, 1]], "constant_values": 2}, "name": "custom_pad_layer_716", "inbound_nodes": [[["custom_expand_layer_1324", 0, 0, {}]]]}, {"class_name": "BatchNormalization", "config": {"name": "batch_normalization_1735_insert", "trainable": true, "dtype": "float32", "axis": [3], "momentum": 0.99, "epsilon": 1.001e-05, "center": true, "scale": true, "beta_initializer": {"class_name": "Zeros", "config": {}}, "gamma_initializer": {"class_name": "Ones", "config": {}}, "moving_mean_initializer": {"class_name": "Zeros", "config": {}}, "moving_variance_initializer": {"class_name": "Ones", "config": {}}, "beta_regularizer": null, "gamma_regularizer": null, "beta_constraint": null, "gamma_constraint": null}, "name": "batch_normalization_1735_insert", "inbound_nodes": [[["custom_pad_layer_716", 0, 0, {}]]]}, {"class_name": "CustomPadLayer", "config": {"name": "custom_pad_layer_717", "trainable": true, "dtype": "float32", "padding": [[4, 4], [2, 2], [1, 1]], "constant_values": 2}, "name": "custom_pad_layer_717", "inbound_nodes": [[["batch_normalization_1735_insert", 0, 0, {}]]]}, {"class_name": "BatchNormalization", "config": {"name": "batch_normalization_1737_insert", "trainable": true, "dtype": "float32", "axis": [3], "momentum": 0.99, "epsilon": 1.001e-05, "center": true, "scale": true, "beta_initializer": {"class_name": "Zeros", "config": {}}, "gamma_initializer": {"class_name": "Ones", "config": {}}, "moving_mean_initializer": {"class_name": "Zeros", "config": {}}, "moving_variance_initializer": {"class_name": "Ones", "config": {}}, "beta_regularizer": null, "gamma_regularizer": null, "beta_constraint": null, "gamma_constraint": null}, "name": "batch_normalization_1737_insert", "inbound_nodes": [[["custom_pad_layer_717", 0, 0, {}]]]}, {"class_name": "CustomPadLayer", "config": {"name": "custom_pad_layer_718", "trainable": true, "dtype": "float32", "padding": [[0, 0], [2, 3], [4, 5]], "constant_values": 2}, "name": "custom_pad_layer_718", "inbound_nodes": [[["batch_normalization_1737_insert", 0, 0, {}]]]}, {"class_name": "CustomCropLayer", "config": {"name": "custom_crop_layer_535", "trainable": true, "dtype": "float32", "cropping": [[5, 6], [0, 0], [0, 0]]}, "name": "custom_crop_layer_535", "inbound_nodes": [[["custom_pad_layer_718", 0, 0, {}]]]}, {"class_name": "BatchNormalization", "config": {"name": "batch_normalization_1739_insert", "trainable": true, "dtype": "float32", "axis": [3], "momentum": 0.99, "epsilon": 1.001e-05, "center": true, "scale": true, "beta_initializer": {"class_name": "Zeros", "config": {}}, "gamma_initializer": {"class_name": "Ones", "config": {}}, "moving_mean_initializer": {"class_name": "Zeros", "config": {}}, "moving_variance_initializer": {"class_name": "Ones", "config": {}}, "beta_regularizer": null, "gamma_regularizer": null, "beta_constraint": null, "gamma_constraint": null}, "name": "batch_normalization_1739_insert", "inbound_nodes": [[["custom_crop_layer_535", 0, 0, {}]]]}, {"class_name": "CustomCropLayer", "config": {"name": "custom_crop_layer_536", "trainable": true, "dtype": "float32", "cropping": [[1, 1], [4, 5], [0, 1]]}, "name": "custom_crop_layer_536", "inbound_nodes": [[["batch_normalization_1739_insert", 0, 0, {}]]]}, {"class_name": "Conv2D", "config": {"name": "conv2d_4155_insert", "trainable": true, "dtype": "float32", "filters": 3, "kernel_size": [1, 1], "strides": [2, 2], "padding": "valid", "data_format": "channels_last", "dilation_rate": [1, 1], "groups": 1, "activation": "linear", "use_bias": true, "kernel_initializer": {"class_name": "VarianceScaling", "config": {"scale": 1.0, "mode": "fan_avg", "distribution": "uniform", "seed": null}}, "bias_initializer": {"class_name": "Zeros", "config": {}}, "kernel_regularizer": null, "bias_regularizer": null, "activity_regularizer": null, "kernel_constraint": null, "bias_constraint": null}, "name": "conv2d_4155_insert", "inbound_nodes": [[["custom_crop_layer_536", 0, 0, {}]]]}, {"class_name": "CustomPadLayer", "config": {"name": "custom_pad_layer_719", "trainable": true, "dtype": "float32", "padding": [[7, 7], [3, 4], [2, 2]], "constant_values": 2}, "name": "custom_pad_layer_719", "inbound_nodes": [[["conv2d_4155_insert", 0, 0, {}]]]}, {"class_name": "BatchNormalization", "config": {"name": "batch_normalization_1741_insert_merge1", "trainable": true, "dtype": "float32", "axis": [3], "momentum": 0.99, "epsilon": 1.001e-05, "center": true, "scale": true, "beta_initializer": {"class_name": "Zeros", "config": {}}, "gamma_initializer": {"class_name": "Ones", "config": {}}, "moving_mean_initializer": {"class_name": "Zeros", "config": {}}, "moving_variance_initializer": {"class_name": "Ones", "config": {}}, "beta_regularizer": null, "gamma_regularizer": null, "beta_constraint": null, "gamma_constraint": null}, "name": "batch_normalization_1741_insert_merge1", "inbound_nodes": [[["custom_pad_layer_719", 0, 0, {}]]]}, {"class_name": "Add", "config": {"name": "add_40_copy_ML", "trainable": true, "dtype": "float32"}, "name": "add_40_copy_ML", "inbound_nodes": [[["batch_normalization_1741_insert_merge1", 0, 0, {}], ["custom_pad_layer_719", 0, 0, {}]]]}, {"class_name": "CustomPadLayer", "config": {"name": "custom_pad_layer_720", "trainable": true, "dtype": "float32", "padding": [[0, 0], [1, 1], [4, 5]], "constant_values": 2}, "name": "custom_pad_layer_720", "inbound_nodes": [[["add_40_copy_ML", 0, 0, {}]]]}, {"class_name": "CustomCropLayer", "config": {"name": "custom_crop_layer_537", "trainable": true, "dtype": "float32", "cropping": [[5, 5], [0, 0], [0, 0]]}, "name": "custom_crop_layer_537", "inbound_nodes": [[["custom_pad_layer_720", 0, 0, {}]]]}, {"class_name": "Conv2D", "config": {"name": "conv2d_4157_insert", "trainable": true, "dtype": "float32", "filters": 9, "kernel_size": [7, 7], "strides": [2, 2], "padding": "valid", "data_format": "channels_last", "dilation_rate": [1, 1], "groups": 1, "activation": "linear", "use_bias": true, "kernel_initializer": {"class_name": "VarianceScaling", "config": {"scale": 1.0, "mode": "fan_avg", "distribution": "uniform", "seed": null}}, "bias_initializer": {"class_name": "Zeros", "config": {}}, "kernel_regularizer": null, "bias_regularizer": null, "activity_regularizer": null, "kernel_constraint": null, "bias_constraint": null}, "name": "conv2d_4157_insert", "inbound_nodes": [[["custom_crop_layer_537", 0, 0, {}]]]}], "input_layers": [["input_771", 0, 0]], "output_layers": [["conv2d_4157_insert", 0, 0]]}, "keras_version": "2.7.0", "backend": "tensorflow"}