{"class_name": "Functional", "config": {"name": "model_2235", "layers": [{"class_name": "InputLayer", "config": {"batch_input_shape": [null, 32, 32, 3], "dtype": "float32", "sparse": false, "ragged": false, "name": "input_284"}, "name": "input_284", "inbound_nodes": []}, {"class_name": "Conv2D", "config": {"name": "conv2d_1", "trainable": true, "batch_input_shape": [null, 32, 32, 3], "dtype": "float32", "filters": 96, "kernel_size": [3, 3], "strides": [2, 2], "padding": "same", "data_format": "channels_last", "dilation_rate": [1, 1], "groups": 1, "activation": "relu", "use_bias": true, "kernel_initializer": {"class_name": "VarianceScaling", "config": {"scale": 1.0, "mode": "fan_avg", "distribution": "uniform", "seed": null}}, "bias_initializer": {"class_name": "Zeros", "config": {}}, "kernel_regularizer": null, "bias_regularizer": null, "activity_regularizer": null, "kernel_constraint": null, "bias_constraint": null}, "name": "conv2d_1", "inbound_nodes": [[["input_284", 0, 0, {}]]]}, {"class_name": "Dropout", "config": {"name": "dropout_81_insert", "trainable": true, "dtype": "float32", "rate": 0.5, "noise_shape": null, "seed": null}, "name": "dropout_81_insert", "inbound_nodes": [[["conv2d_1", 0, 0, {}]]]}, {"class_name": "BatchNormalization", "config": {"name": "batch_normalization_651_insert", "trainable": true, "dtype": "float32", "axis": [3], "momentum": 0.99, "epsilon": 0.001, "center": true, "scale": true, "beta_initializer": {"class_name": "Zeros", "config": {}}, "gamma_initializer": {"class_name": "Ones", "config": {}}, "moving_mean_initializer": {"class_name": "Zeros", "config": {}}, "moving_variance_initializer": {"class_name": "Ones", "config": {}}, "beta_regularizer": null, "gamma_regularizer": null, "beta_constraint": null, "gamma_constraint": null}, "name": "batch_normalization_651_insert", "inbound_nodes": [[["dropout_81_insert", 0, 0, {}]]]}, {"class_name": "MaxPooling2D", "config": {"name": "max_pooling2d_499_insert_1", "trainable": true, "dtype": "float32", "pool_size": [3, 3], "padding": "valid", "strides": [2, 2], "data_format": "channels_last"}, "name": "max_pooling2d_499_insert_1", "inbound_nodes": [[["batch_normalization_651_insert", 0, 0, {}]]]}, {"class_name": "MaxPooling2D", "config": {"name": "max_pooling2d_501_insert", "trainable": true, "dtype": "float32", "pool_size": [2, 2], "padding": "valid", "strides": [2, 2], "data_format": "channels_last"}, "name": "max_pooling2d_501_insert", "inbound_nodes": [[["max_pooling2d_499_insert_1", 0, 0, {}]]]}, {"class_name": "Flatten", "config": {"name": "flatten_27_insert_1", "trainable": true, "dtype": "float32", "data_format": "channels_last"}, "name": "flatten_27_insert_1", "inbound_nodes": [[["max_pooling2d_501_insert", 0, 0, {}]]]}, {"class_name": "CustomExpandLayer", "config": {"name": "custom_expand_layer_484_insert", "trainable": true, "dtype": "float32", "axis": 1}, "name": "custom_expand_layer_484_insert", "inbound_nodes": [[["flatten_27_insert_1", 0, 0, {}]]]}, {"class_name": "CustomExpandLayer", "config": {"name": "custom_expand_layer_485_insert", "trainable": true, "dtype": "float32", "axis": 1}, "name": "custom_expand_layer_485_insert", "inbound_nodes": [[["custom_expand_layer_484_insert", 0, 0, {}]]]}, {"class_name": "Conv2D", "config": {"name": "conv2d_1511_insert", "trainable": true, "dtype": "float32", "filters": 3, "kernel_size": [3, 3], "strides": [1, 1], "padding": "same", "data_format": "channels_last", "dilation_rate": [1, 1], "groups": 1, "activation": "relu", "use_bias": true, "kernel_initializer": {"class_name": "VarianceScaling", "config": {"scale": 1.0, "mode": "fan_avg", "distribution": "uniform", "seed": null}}, "bias_initializer": {"class_name": "Zeros", "config": {}}, "kernel_regularizer": null, "bias_regularizer": null, "activity_regularizer": null, "kernel_constraint": null, "bias_constraint": null}, "name": "conv2d_1511_insert", "inbound_nodes": [[["custom_expand_layer_485_insert", 0, 0, {}]]]}, {"class_name": "Conv2D", "config": {"name": "conv2d_1513_insert", "trainable": true, "dtype": "float32", "filters": 3, "kernel_size": [5, 5], "strides": [1, 1], "padding": "same", "data_format": "channels_last", "dilation_rate": [1, 1], "groups": 1, "activation": "relu", "use_bias": true, "kernel_initializer": {"class_name": "VarianceScaling", "config": {"scale": 1.0, "mode": "fan_avg", "distribution": "uniform", "seed": null}}, "bias_initializer": {"class_name": "Zeros", "config": {}}, "kernel_regularizer": null, "bias_regularizer": null, "activity_regularizer": null, "kernel_constraint": null, "bias_constraint": null}, "name": "conv2d_1513_insert", "inbound_nodes": [[["conv2d_1511_insert", 0, 0, {}]]]}, {"class_name": "CustomDropDimLayer", "config": {"name": "custom_drop_dim_layer_4", "trainable": true, "dtype": "float32", "axis": 1}, "name": "custom_drop_dim_layer_4", "inbound_nodes": [[["conv2d_1513_insert", 0, 0, {}]]]}, {"class_name": "CustomDropDimLayer", "config": {"name": "custom_drop_dim_layer_5", "trainable": true, "dtype": "float32", "axis": 1}, "name": "custom_drop_dim_layer_5", "inbound_nodes": [[["custom_drop_dim_layer_4", 0, 0, {}]]]}, {"class_name": "Dropout", "config": {"name": "dropout_83_insert", "trainable": true, "dtype": "float32", "rate": 0.5, "noise_shape": null, "seed": null}, "name": "dropout_83_insert", "inbound_nodes": [[["custom_drop_dim_layer_5", 0, 0, {}]]]}, {"class_name": "CustomExpandLayer", "config": {"name": "custom_expand_layer_486", "trainable": true, "dtype": "float32", "axis": 1}, "name": "custom_expand_layer_486", "inbound_nodes": [[["dropout_83_insert", 0, 0, {}]]]}, {"class_name": "CustomExpandLayer", "config": {"name": "custom_expand_layer_487", "trainable": true, "dtype": "float32", "axis": 1}, "name": "custom_expand_layer_487", "inbound_nodes": [[["custom_expand_layer_486", 0, 0, {}]]]}, {"class_name": "CustomPadLayer", "config": {"name": "custom_pad_layer_267", "trainable": true, "dtype": "float32", "padding": [[4, 5], [5, 6], [3, 4]], "constant_values": 2}, "name": "custom_pad_layer_267", "inbound_nodes": [[["custom_expand_layer_487", 0, 0, {}]]]}, {"class_name": "Conv2D", "config": {"name": "conv2d_1515_insert_1", "trainable": true, "dtype": "float32", "filters": 5, "kernel_size": [5, 5], "strides": [1, 1], "padding": "same", "data_format": "channels_last", "dilation_rate": [1, 1], "groups": 1, "activation": "relu", "use_bias": true, "kernel_initializer": {"class_name": "VarianceScaling", "config": {"scale": 1.0, "mode": "fan_avg", "distribution": "uniform", "seed": null}}, "bias_initializer": {"class_name": "Zeros", "config": {}}, "kernel_regularizer": null, "bias_regularizer": null, "activity_regularizer": null, "kernel_constraint": null, "bias_constraint": null}, "name": "conv2d_1515_insert_1", "inbound_nodes": [[["custom_pad_layer_267", 0, 0, {}]]]}, {"class_name": "CustomPadLayer", "config": {"name": "custom_pad_layer_268", "trainable": true, "dtype": "float32", "padding": [[2, 3], [2, 2], [5, 5]], "constant_values": 2}, "name": "custom_pad_layer_268", "inbound_nodes": [[["conv2d_1515_insert_1", 0, 0, {}]]]}, {"class_name": "BatchNormalization", "config": {"name": "batch_normalization_653_insert", "trainable": true, "dtype": "float32", "axis": [3], "momentum": 0.99, "epsilon": 0.001, "center": true, "scale": true, "beta_initializer": {"class_name": "Zeros", "config": {}}, "gamma_initializer": {"class_name": "Ones", "config": {}}, "moving_mean_initializer": {"class_name": "Zeros", "config": {}}, "moving_variance_initializer": {"class_name": "Ones", "config": {}}, "beta_regularizer": null, "gamma_regularizer": null, "beta_constraint": null, "gamma_constraint": null}, "name": "batch_normalization_653_insert", "inbound_nodes": [[["custom_pad_layer_268", 0, 0, {}]]]}, {"class_name": "CustomPadLayer", "config": {"name": "custom_pad_layer_269", "trainable": true, "dtype": "float32", "padding": [[0, 0], [0, 0], [2, 2]], "constant_values": 2}, "name": "custom_pad_layer_269", "inbound_nodes": [[["batch_normalization_653_insert", 0, 0, {}]]]}, {"class_name": "CustomCropLayer", "config": {"name": "custom_crop_layer_195", "trainable": true, "dtype": "float32", "cropping": [[4, 5], [3, 3], [0, 0]]}, "name": "custom_crop_layer_195", "inbound_nodes": [[["custom_pad_layer_269", 0, 0, {}]]]}, {"class_name": "BatchNormalization", "config": {"name": "batch_normalization_655_insert_1", "trainable": true, "dtype": "float32", "axis": [3], "momentum": 0.99, "epsilon": 0.001, "center": true, "scale": true, "beta_initializer": {"class_name": "Zeros", "config": {}}, "gamma_initializer": {"class_name": "Ones", "config": {}}, "moving_mean_initializer": {"class_name": "Zeros", "config": {}}, "moving_variance_initializer": {"class_name": "Ones", "config": {}}, "beta_regularizer": null, "gamma_regularizer": null, "beta_constraint": null, "gamma_constraint": null}, "name": "batch_normalization_655_insert_1", "inbound_nodes": [[["custom_crop_layer_195", 0, 0, {}]]]}, {"class_name": "CustomPadLayer", "config": {"name": "custom_pad_layer_270", "trainable": true, "dtype": "float32", "padding": [[2, 2], [0, 0], [0, 0]], "constant_values": 2}, "name": "custom_pad_layer_270", "inbound_nodes": [[["batch_normalization_655_insert_1", 0, 0, {}]]]}, {"class_name": "CustomCropLayer", "config": {"name": "custom_crop_layer_196", "trainable": true, "dtype": "float32", "cropping": [[0, 0], [2, 3], [2, 3]]}, "name": "custom_crop_layer_196", "inbound_nodes": [[["custom_pad_layer_270", 0, 0, {}]]]}, {"class_name": "Conv2D", "config": {"name": "conv2d_1515_insert_2", "trainable": true, "dtype": "float32", "filters": 5, "kernel_size": [5, 5], "strides": [1, 1], "padding": "same", "data_format": "channels_last", "dilation_rate": [1, 1], "groups": 1, "activation": "relu", "use_bias": true, "kernel_initializer": {"class_name": "VarianceScaling", "config": {"scale": 1.0, "mode": "fan_avg", "distribution": "uniform", "seed": null}}, "bias_initializer": {"class_name": "Zeros", "config": {}}, "kernel_regularizer": null, "bias_regularizer": null, "activity_regularizer": null, "kernel_constraint": null, "bias_constraint": null}, "name": "conv2d_1515_insert_2", "inbound_nodes": [[["batch_normalization_655_insert_1", 0, 0, {}]]]}, {"class_name": "MaxPooling2D", "config": {"name": "max_pooling2d_503_insert", "trainable": true, "dtype": "float32", "pool_size": [2, 2], "padding": "valid", "strides": [2, 2], "data_format": "channels_last"}, "name": "max_pooling2d_503_insert", "inbound_nodes": [[["custom_crop_layer_196", 0, 0, {}]]]}, {"class_name": "Flatten", "config": {"name": "flatten_27_insert_2", "trainable": true, "dtype": "float32", "data_format": "channels_last"}, "name": "flatten_27_insert_2", "inbound_nodes": [[["batch_normalization_653_insert", 0, 0, {}]]]}, {"class_name": "BatchNormalization", "config": {"name": "batch_normalization_655_insert_2", "trainable": true, "dtype": "float32", "axis": [3], "momentum": 0.99, "epsilon": 0.001, "center": true, "scale": true, "beta_initializer": {"class_name": "Zeros", "config": {}}, "gamma_initializer": {"class_name": "Ones", "config": {}}, "moving_mean_initializer": {"class_name": "Zeros", "config": {}}, "moving_variance_initializer": {"class_name": "Ones", "config": {}}, "beta_regularizer": null, "gamma_regularizer": null, "beta_constraint": null, "gamma_constraint": null}, "name": "batch_normalization_655_insert_2", "inbound_nodes": [[["max_pooling2d_499_insert_1", 0, 0, {}]]]}, {"class_name": "MaxPooling2D", "config": {"name": "max_pooling2d_499_insert_2", "trainable": true, "dtype": "float32", "pool_size": [3, 3], "padding": "valid", "strides": [2, 2], "data_format": "channels_last"}, "name": "max_pooling2d_499_insert_2", "inbound_nodes": [[["conv2d_1515_insert_2", 0, 0, {}]]]}], "input_layers": [["input_284", 0, 0]], "output_layers": [["max_pooling2d_503_insert", 0, 0], ["flatten_27_insert_2", 0, 0], ["conv2d_1515_insert_2", 0, 0], ["batch_normalization_655_insert_2", 0, 0], ["max_pooling2d_499_insert_2", 0, 0]]}, "keras_version": "2.7.0", "backend": "tensorflow"}