{"class_name": "Functional", "config": {"name": "model_2452", "layers": [{"class_name": "InputLayer", "config": {"batch_input_shape": [null, 299, 299, 3], "dtype": "float32", "sparse": false, "ragged": false, "name": "input_316"}, "name": "input_316", "inbound_nodes": []}, {"class_name": "Conv2D", "config": {"name": "conv2d_1", "trainable": true, "dtype": "float32", "filters": 32, "kernel_size": [3, 3], "strides": [2, 2], "padding": "valid", "data_format": "channels_last", "dilation_rate": [1, 1], "groups": 1, "activation": "linear", "use_bias": false, "kernel_initializer": {"class_name": "VarianceScaling", "config": {"scale": 1.0, "mode": "fan_avg", "distribution": "uniform", "seed": null}}, "bias_initializer": {"class_name": "Zeros", "config": {}}, "kernel_regularizer": null, "bias_regularizer": null, "activity_regularizer": null, "kernel_constraint": null, "bias_constraint": null}, "name": "conv2d_1", "inbound_nodes": [[["input_316", 0, 0, {}]]]}, {"class_name": "Conv2D", "config": {"name": "conv2d_1655_insert", "trainable": true, "dtype": "float32", "filters": 3, "kernel_size": [3, 3], "strides": [1, 1], "padding": "same", "data_format": "channels_last", "dilation_rate": [1, 1], "groups": 1, "activation": "linear", "use_bias": false, "kernel_initializer": {"class_name": "VarianceScaling", "config": {"scale": 1.0, "mode": "fan_avg", "distribution": "uniform", "seed": null}}, "bias_initializer": {"class_name": "Zeros", "config": {}}, "kernel_regularizer": null, "bias_regularizer": null, "activity_regularizer": null, "kernel_constraint": null, "bias_constraint": null}, "name": "conv2d_1655_insert", "inbound_nodes": [[["conv2d_1", 0, 0, {}]]]}, {"class_name": "MaxPooling2D", "config": {"name": "max_pooling2d_543_insert", "trainable": true, "dtype": "float32", "pool_size": [3, 3], "padding": "valid", "strides": [2, 2], "data_format": "channels_last"}, "name": "max_pooling2d_543_insert", "inbound_nodes": [[["conv2d_1655_insert", 0, 0, {}]]]}, {"class_name": "Conv2D", "config": {"name": "conv2d_1657_insert", "trainable": true, "dtype": "float32", "filters": 1, "kernel_size": [3, 3], "strides": [1, 1], "padding": "valid", "data_format": "channels_last", "dilation_rate": [1, 1], "groups": 1, "activation": "linear", "use_bias": false, "kernel_initializer": {"class_name": "VarianceScaling", "config": {"scale": 1.0, "mode": "fan_avg", "distribution": "uniform", "seed": null}}, "bias_initializer": {"class_name": "Zeros", "config": {}}, "kernel_regularizer": null, "bias_regularizer": null, "activity_regularizer": null, "kernel_constraint": null, "bias_constraint": null}, "name": "conv2d_1657_insert", "inbound_nodes": [[["max_pooling2d_543_insert", 0, 0, {}]]]}, {"class_name": "Conv2D", "config": {"name": "conv2d_1659_insert", "trainable": true, "dtype": "float32", "filters": 8, "kernel_size": [1, 1], "strides": [1, 1], "padding": "same", "data_format": "channels_last", "dilation_rate": [1, 1], "groups": 1, "activation": "linear", "use_bias": false, "kernel_initializer": {"class_name": "VarianceScaling", "config": {"scale": 1.0, "mode": "fan_avg", "distribution": "uniform", "seed": null}}, "bias_initializer": {"class_name": "Zeros", "config": {}}, "kernel_regularizer": null, "bias_regularizer": null, "activity_regularizer": null, "kernel_constraint": null, "bias_constraint": null}, "name": "conv2d_1659_insert", "inbound_nodes": [[["conv2d_1657_insert", 0, 0, {}]]]}, {"class_name": "BatchNormalization", "config": {"name": "batch_normalization_705_insert", "trainable": true, "dtype": "float32", "axis": [3], "momentum": 0.99, "epsilon": 0.001, "center": true, "scale": false, "beta_initializer": {"class_name": "Zeros", "config": {}}, "gamma_initializer": {"class_name": "Ones", "config": {}}, "moving_mean_initializer": {"class_name": "Zeros", "config": {}}, "moving_variance_initializer": {"class_name": "Ones", "config": {}}, "beta_regularizer": null, "gamma_regularizer": null, "beta_constraint": null, "gamma_constraint": null}, "name": "batch_normalization_705_insert", "inbound_nodes": [[["conv2d_1659_insert", 0, 0, {}]]]}, {"class_name": "AveragePooling2D", "config": {"name": "average_pooling2d_395_insert", "trainable": true, "dtype": "float32", "pool_size": [3, 3], "padding": "same", "strides": [1, 1], "data_format": "channels_last"}, "name": "average_pooling2d_395_insert", "inbound_nodes": [[["batch_normalization_705_insert", 0, 0, {}]]]}, {"class_name": "GlobalAveragePooling2D", "config": {"name": "global_average_pooling2d_537_insert", "trainable": true, "dtype": "float32", "data_format": "channels_last", "keepdims": false}, "name": "global_average_pooling2d_537_insert", "inbound_nodes": [[["average_pooling2d_395_insert", 0, 0, {}]]]}, {"class_name": "CustomExpandLayer", "config": {"name": "custom_expand_layer_539_insert", "trainable": true, "dtype": "float32", "axis": 1}, "name": "custom_expand_layer_539_insert", "inbound_nodes": [[["global_average_pooling2d_537_insert", 0, 0, {}]]]}, {"class_name": "CustomExpandLayer", "config": {"name": "custom_expand_layer_540_insert", "trainable": true, "dtype": "float32", "axis": 1}, "name": "custom_expand_layer_540_insert", "inbound_nodes": [[["custom_expand_layer_539_insert", 0, 0, {}]]]}, {"class_name": "Conv2D", "config": {"name": "conv2d_1661_insert", "trainable": true, "dtype": "float32", "filters": 9, "kernel_size": [5, 5], "strides": [1, 1], "padding": "same", "data_format": "channels_last", "dilation_rate": [1, 1], "groups": 1, "activation": "linear", "use_bias": false, "kernel_initializer": {"class_name": "VarianceScaling", "config": {"scale": 1.0, "mode": "fan_avg", "distribution": "uniform", "seed": null}}, "bias_initializer": {"class_name": "Zeros", "config": {}}, "kernel_regularizer": null, "bias_regularizer": null, "activity_regularizer": null, "kernel_constraint": null, "bias_constraint": null}, "name": "conv2d_1661_insert", "inbound_nodes": [[["custom_expand_layer_540_insert", 0, 0, {}]]]}, {"class_name": "Conv2D", "config": {"name": "conv2d_1663_insert_1", "trainable": true, "dtype": "float32", "filters": 8, "kernel_size": [1, 1], "strides": [1, 1], "padding": "valid", "data_format": "channels_last", "dilation_rate": [1, 1], "groups": 1, "activation": "linear", "use_bias": false, "kernel_initializer": {"class_name": "VarianceScaling", "config": {"scale": 1.0, "mode": "fan_avg", "distribution": "uniform", "seed": null}}, "bias_initializer": {"class_name": "Zeros", "config": {}}, "kernel_regularizer": null, "bias_regularizer": null, "activity_regularizer": null, "kernel_constraint": null, "bias_constraint": null}, "name": "conv2d_1663_insert_1", "inbound_nodes": [[["conv2d_1661_insert", 0, 0, {}]]]}, {"class_name": "Conv2D", "config": {"name": "conv2d_1665_insert", "trainable": true, "dtype": "float32", "filters": 3, "kernel_size": [1, 3], "strides": [1, 1], "padding": "same", "data_format": "channels_last", "dilation_rate": [1, 1], "groups": 1, "activation": "linear", "use_bias": false, "kernel_initializer": {"class_name": "VarianceScaling", "config": {"scale": 1.0, "mode": "fan_avg", "distribution": "uniform", "seed": null}}, "bias_initializer": {"class_name": "Zeros", "config": {}}, "kernel_regularizer": null, "bias_regularizer": null, "activity_regularizer": null, "kernel_constraint": null, "bias_constraint": null}, "name": "conv2d_1665_insert", "inbound_nodes": [[["conv2d_1663_insert_1", 0, 0, {}]]]}, {"class_name": "Conv2D", "config": {"name": "conv2d_1667_insert", "trainable": true, "dtype": "float32", "filters": 5, "kernel_size": [7, 1], "strides": [1, 1], "padding": "same", "data_format": "channels_last", "dilation_rate": [1, 1], "groups": 1, "activation": "linear", "use_bias": false, "kernel_initializer": {"class_name": "VarianceScaling", "config": {"scale": 1.0, "mode": "fan_avg", "distribution": "uniform", "seed": null}}, "bias_initializer": {"class_name": "Zeros", "config": {}}, "kernel_regularizer": null, "bias_regularizer": null, "activity_regularizer": null, "kernel_constraint": null, "bias_constraint": null}, "name": "conv2d_1667_insert", "inbound_nodes": [[["conv2d_1665_insert", 0, 0, {}]]]}, {"class_name": "Conv2D", "config": {"name": "conv2d_1669_insert", "trainable": true, "dtype": "float32", "filters": 6, "kernel_size": [1, 7], "strides": [1, 1], "padding": "same", "data_format": "channels_last", "dilation_rate": [1, 1], "groups": 1, "activation": "linear", "use_bias": false, "kernel_initializer": {"class_name": "VarianceScaling", "config": {"scale": 1.0, "mode": "fan_avg", "distribution": "uniform", "seed": null}}, "bias_initializer": {"class_name": "Zeros", "config": {}}, "kernel_regularizer": null, "bias_regularizer": null, "activity_regularizer": null, "kernel_constraint": null, "bias_constraint": null}, "name": "conv2d_1669_insert", "inbound_nodes": [[["conv2d_1667_insert", 0, 0, {}]]]}, {"class_name": "Conv2D", "config": {"name": "conv2d_1671_insert", "trainable": true, "dtype": "float32", "filters": 2, "kernel_size": [3, 1], "strides": [1, 1], "padding": "same", "data_format": "channels_last", "dilation_rate": [1, 1], "groups": 1, "activation": "linear", "use_bias": false, "kernel_initializer": {"class_name": "VarianceScaling", "config": {"scale": 1.0, "mode": "fan_avg", "distribution": "uniform", "seed": null}}, "bias_initializer": {"class_name": "Zeros", "config": {}}, "kernel_regularizer": null, "bias_regularizer": null, "activity_regularizer": null, "kernel_constraint": null, "bias_constraint": null}, "name": "conv2d_1671_insert", "inbound_nodes": [[["conv2d_1669_insert", 0, 0, {}]]]}, {"class_name": "CustomPadLayer", "config": {"name": "custom_pad_layer_288", "trainable": true, "dtype": "float32", "padding": [[8, 8], [8, 8], [6, 7]], "constant_values": 2}, "name": "custom_pad_layer_288", "inbound_nodes": [[["conv2d_1671_insert", 0, 0, {}]]]}, {"class_name": "AveragePooling2D", "config": {"name": "average_pooling2d_397_insert", "trainable": true, "dtype": "float32", "pool_size": [3, 3], "padding": "same", "strides": [1, 1], "data_format": "channels_last"}, "name": "average_pooling2d_397_insert", "inbound_nodes": [[["custom_pad_layer_288", 0, 0, {}]]]}, {"class_name": "CustomPadLayer", "config": {"name": "custom_pad_layer_289", "trainable": true, "dtype": "float32", "padding": [[0, 0], [0, 0], [1, 1]], "constant_values": 2}, "name": "custom_pad_layer_289", "inbound_nodes": [[["average_pooling2d_397_insert", 0, 0, {}]]]}, {"class_name": "CustomCropLayer", "config": {"name": "custom_crop_layer_209", "trainable": true, "dtype": "float32", "cropping": [[3, 4], [1, 2], [0, 0]]}, "name": "custom_crop_layer_209", "inbound_nodes": [[["custom_pad_layer_289", 0, 0, {}]]]}, {"class_name": "AveragePooling2D", "config": {"name": "average_pooling2d_399_insert_1", "trainable": true, "dtype": "float32", "pool_size": [3, 3], "padding": "same", "strides": [1, 1], "data_format": "channels_last"}, "name": "average_pooling2d_399_insert_1", "inbound_nodes": [[["custom_crop_layer_209", 0, 0, {}]]]}, {"class_name": "CustomPadLayer", "config": {"name": "custom_pad_layer_290", "trainable": true, "dtype": "float32", "padding": [[1, 2], [1, 1], [0, 0]], "constant_values": 2}, "name": "custom_pad_layer_290", "inbound_nodes": [[["average_pooling2d_399_insert_1", 0, 0, {}]]]}, {"class_name": "CustomCropLayer", "config": {"name": "custom_crop_layer_210", "trainable": true, "dtype": "float32", "cropping": [[0, 0], [0, 0], [3, 3]]}, "name": "custom_crop_layer_210", "inbound_nodes": [[["custom_pad_layer_290", 0, 0, {}]]]}, {"class_name": "BatchNormalization", "config": {"name": "batch_normalization_707_insert_merge1", "trainable": true, "dtype": "float32", "axis": [3], "momentum": 0.99, "epsilon": 0.001, "center": true, "scale": false, "beta_initializer": {"class_name": "Zeros", "config": {}}, "gamma_initializer": {"class_name": "Ones", "config": {}}, "moving_mean_initializer": {"class_name": "Zeros", "config": {}}, "moving_variance_initializer": {"class_name": "Ones", "config": {}}, "beta_regularizer": null, "gamma_regularizer": null, "beta_constraint": null, "gamma_constraint": null}, "name": "batch_normalization_707_insert_merge1", "inbound_nodes": [[["custom_crop_layer_210", 0, 0, {}]]]}, {"class_name": "Concatenate", "config": {"name": "concatenate_16_copy_ML", "trainable": true, "dtype": "float32", "axis": 3}, "name": "concatenate_16_copy_ML", "inbound_nodes": [[["batch_normalization_707_insert_merge1", 0, 0, {}], ["custom_crop_layer_210", 0, 0, {}]]]}, {"class_name": "CustomPadLayer", "config": {"name": "custom_pad_layer_291", "trainable": true, "dtype": "float32", "padding": [[0, 0], [0, 0], [1, 1]], "constant_values": 2}, "name": "custom_pad_layer_291", "inbound_nodes": [[["concatenate_16_copy_ML", 0, 0, {}]]]}, {"class_name": "CustomCropLayer", "config": {"name": "custom_crop_layer_211", "trainable": true, "dtype": "float32", "cropping": [[4, 4], [0, 1], [0, 0]]}, "name": "custom_crop_layer_211", "inbound_nodes": [[["custom_pad_layer_291", 0, 0, {}]]]}, {"class_name": "AveragePooling2D", "config": {"name": "average_pooling2d_401_insert", "trainable": true, "dtype": "float32", "pool_size": [3, 3], "padding": "same", "strides": [1, 1], "data_format": "channels_last"}, "name": "average_pooling2d_401_insert", "inbound_nodes": [[["custom_crop_layer_211", 0, 0, {}]]]}, {"class_name": "CustomPadLayer", "config": {"name": "custom_pad_layer_292", "trainable": true, "dtype": "float32", "padding": [[1, 1], [0, 0], [0, 0]], "constant_values": 2}, "name": "custom_pad_layer_292", "inbound_nodes": [[["average_pooling2d_401_insert", 0, 0, {}]]]}, {"class_name": "CustomCropLayer", "config": {"name": "custom_crop_layer_212", "trainable": true, "dtype": "float32", "cropping": [[0, 0], [5, 5], [2, 2]]}, "name": "custom_crop_layer_212", "inbound_nodes": [[["custom_pad_layer_292", 0, 0, {}]]]}, {"class_name": "MaxPooling2D", "config": {"name": "max_pooling2d_545_insert", "trainable": true, "dtype": "float32", "pool_size": [3, 3], "padding": "valid", "strides": [2, 2], "data_format": "channels_last"}, "name": "max_pooling2d_545_insert", "inbound_nodes": [[["custom_crop_layer_212", 0, 0, {}]]]}, {"class_name": "CustomPadLayer", "config": {"name": "custom_pad_layer_293", "trainable": true, "dtype": "float32", "padding": [[8, 8], [7, 7], [1, 1]], "constant_values": 2}, "name": "custom_pad_layer_293", "inbound_nodes": [[["max_pooling2d_545_insert", 0, 0, {}]]]}, {"class_name": "MaxPooling2D", "config": {"name": "max_pooling2d_547_insert", "trainable": true, "dtype": "float32", "pool_size": [3, 3], "padding": "valid", "strides": [2, 2], "data_format": "channels_last"}, "name": "max_pooling2d_547_insert", "inbound_nodes": [[["custom_pad_layer_293", 0, 0, {}]]]}, {"class_name": "CustomPadLayer", "config": {"name": "custom_pad_layer_294", "trainable": true, "dtype": "float32", "padding": [[0, 1], [4, 5], [2, 2]], "constant_values": 2}, "name": "custom_pad_layer_294", "inbound_nodes": [[["max_pooling2d_547_insert", 0, 0, {}]]]}, {"class_name": "BatchNormalization", "config": {"name": "batch_normalization_709_insert", "trainable": true, "dtype": "float32", "axis": [3], "momentum": 0.99, "epsilon": 0.001, "center": true, "scale": false, "beta_initializer": {"class_name": "Zeros", "config": {}}, "gamma_initializer": {"class_name": "Ones", "config": {}}, "moving_mean_initializer": {"class_name": "Zeros", "config": {}}, "moving_variance_initializer": {"class_name": "Ones", "config": {}}, "beta_regularizer": null, "gamma_regularizer": null, "beta_constraint": null, "gamma_constraint": null}, "name": "batch_normalization_709_insert", "inbound_nodes": [[["custom_pad_layer_294", 0, 0, {}]]]}, {"class_name": "CustomPadLayer", "config": {"name": "custom_pad_layer_295", "trainable": true, "dtype": "float32", "padding": [[2, 2], [0, 0], [0, 0]], "constant_values": 2}, "name": "custom_pad_layer_295", "inbound_nodes": [[["batch_normalization_709_insert", 0, 0, {}]]]}, {"class_name": "CustomCropLayer", "config": {"name": "custom_crop_layer_213", "trainable": true, "dtype": "float32", "cropping": [[0, 0], [4, 4], [0, 1]]}, "name": "custom_crop_layer_213", "inbound_nodes": [[["custom_pad_layer_295", 0, 0, {}]]]}, {"class_name": "BatchNormalization", "config": {"name": "batch_normalization_711_insert", "trainable": true, "dtype": "float32", "axis": [3], "momentum": 0.99, "epsilon": 0.001, "center": true, "scale": false, "beta_initializer": {"class_name": "Zeros", "config": {}}, "gamma_initializer": {"class_name": "Ones", "config": {}}, "moving_mean_initializer": {"class_name": "Zeros", "config": {}}, "moving_variance_initializer": {"class_name": "Ones", "config": {}}, "beta_regularizer": null, "gamma_regularizer": null, "beta_constraint": null, "gamma_constraint": null}, "name": "batch_normalization_711_insert", "inbound_nodes": [[["custom_crop_layer_213", 0, 0, {}]]]}, {"class_name": "CustomPadLayer", "config": {"name": "custom_pad_layer_296", "trainable": true, "dtype": "float32", "padding": [[0, 0], [2, 3], [1, 2]], "constant_values": 2}, "name": "custom_pad_layer_296", "inbound_nodes": [[["batch_normalization_711_insert", 0, 0, {}]]]}, {"class_name": "CustomCropLayer", "config": {"name": "custom_crop_layer_214", "trainable": true, "dtype": "float32", "cropping": [[2, 3], [0, 0], [0, 0]]}, "name": "custom_crop_layer_214", "inbound_nodes": [[["custom_pad_layer_296", 0, 0, {}]]]}, {"class_name": "MaxPooling2D", "config": {"name": "max_pooling2d_549_insert", "trainable": true, "dtype": "float32", "pool_size": [3, 3], "padding": "valid", "strides": [2, 2], "data_format": "channels_last"}, "name": "max_pooling2d_549_insert", "inbound_nodes": [[["custom_crop_layer_214", 0, 0, {}]]]}, {"class_name": "CustomPadLayer", "config": {"name": "custom_pad_layer_297", "trainable": true, "dtype": "float32", "padding": [[7, 7], [4, 5], [0, 0]], "constant_values": 2}, "name": "custom_pad_layer_297", "inbound_nodes": [[["max_pooling2d_549_insert", 0, 0, {}]]]}, {"class_name": "BatchNormalization", "config": {"name": "batch_normalization_713_insert", "trainable": true, "dtype": "float32", "axis": [3], "momentum": 0.99, "epsilon": 0.001, "center": true, "scale": false, "beta_initializer": {"class_name": "Zeros", "config": {}}, "gamma_initializer": {"class_name": "Ones", "config": {}}, "moving_mean_initializer": {"class_name": "Zeros", "config": {}}, "moving_variance_initializer": {"class_name": "Ones", "config": {}}, "beta_regularizer": null, "gamma_regularizer": null, "beta_constraint": null, "gamma_constraint": null}, "name": "batch_normalization_713_insert", "inbound_nodes": [[["custom_pad_layer_297", 0, 0, {}]]]}, {"class_name": "CustomCropLayer", "config": {"name": "custom_crop_layer_215", "trainable": true, "dtype": "float32", "cropping": [[6, 6], [1, 1], [4, 5]]}, "name": "custom_crop_layer_215", "inbound_nodes": [[["batch_normalization_713_insert", 0, 0, {}]]]}, {"class_name": "AveragePooling2D", "config": {"name": "average_pooling2d_399_insert_2", "trainable": true, "dtype": "float32", "pool_size": [3, 3], "padding": "same", "strides": [1, 1], "data_format": "channels_last"}, "name": "average_pooling2d_399_insert_2", "inbound_nodes": [[["max_pooling2d_543_insert", 0, 0, {}]]]}, {"class_name": "AveragePooling2D", "config": {"name": "average_pooling2d_403_insert", "trainable": true, "dtype": "float32", "pool_size": [3, 3], "padding": "same", "strides": [1, 1], "data_format": "channels_last"}, "name": "average_pooling2d_403_insert", "inbound_nodes": [[["custom_crop_layer_215", 0, 0, {}]]]}, {"class_name": "Cropping2D", "config": {"name": "cropping2d_30", "trainable": true, "dtype": "float32", "cropping": [[32, 32], [32, 32]], "data_format": "channels_last"}, "name": "cropping2d_30", "inbound_nodes": [[["average_pooling2d_399_insert_2", 0, 0, {}]]]}, {"class_name": "Conv2D", "config": {"name": "conv2d_1663_insert_2", "trainable": true, "dtype": "float32", "filters": 8, "kernel_size": [1, 1], "strides": [1, 1], "padding": "valid", "data_format": "channels_last", "dilation_rate": [1, 1], "groups": 1, "activation": "linear", "use_bias": false, "kernel_initializer": {"class_name": "VarianceScaling", "config": {"scale": 1.0, "mode": "fan_avg", "distribution": "uniform", "seed": null}}, "bias_initializer": {"class_name": "Zeros", "config": {}}, "kernel_regularizer": null, "bias_regularizer": null, "activity_regularizer": null, "kernel_constraint": null, "bias_constraint": null}, "name": "conv2d_1663_insert_2", "inbound_nodes": [[["average_pooling2d_401_insert", 0, 0, {}]]]}], "input_layers": [["input_316", 0, 0]], "output_layers": [["average_pooling2d_403_insert", 0, 0], ["cropping2d_30", 0, 0], ["conv2d_1663_insert_2", 0, 0]]}, "keras_version": "2.7.0", "backend": "tensorflow"}