{"class_name": "Functional", "config": {"name": "model_2397", "layers": [{"class_name": "InputLayer", "config": {"batch_input_shape": [null, 299, 299, 3], "dtype": "float32", "sparse": false, "ragged": false, "name": "input_312"}, "name": "input_312", "inbound_nodes": []}, {"class_name": "Conv2D", "config": {"name": "conv2d_1", "trainable": true, "dtype": "float32", "filters": 32, "kernel_size": [3, 3], "strides": [2, 2], "padding": "valid", "data_format": "channels_last", "dilation_rate": [1, 1], "groups": 1, "activation": "linear", "use_bias": false, "kernel_initializer": {"class_name": "VarianceScaling", "config": {"scale": 1.0, "mode": "fan_avg", "distribution": "uniform", "seed": null}}, "bias_initializer": {"class_name": "Zeros", "config": {}}, "kernel_regularizer": null, "bias_regularizer": null, "activity_regularizer": null, "kernel_constraint": null, "bias_constraint": null}, "name": "conv2d_1", "inbound_nodes": [[["input_312", 0, 0, {}]]]}, {"class_name": "BatchNormalization", "config": {"name": "batch_normalization_689_insert", "trainable": true, "dtype": "float32", "axis": [3], "momentum": 0.99, "epsilon": 0.001, "center": true, "scale": false, "beta_initializer": {"class_name": "Zeros", "config": {}}, "gamma_initializer": {"class_name": "Ones", "config": {}}, "moving_mean_initializer": {"class_name": "Zeros", "config": {}}, "moving_variance_initializer": {"class_name": "Ones", "config": {}}, "beta_regularizer": null, "gamma_regularizer": null, "beta_constraint": null, "gamma_constraint": null}, "name": "batch_normalization_689_insert", "inbound_nodes": [[["conv2d_1", 0, 0, {}]]]}, {"class_name": "MaxPooling2D", "config": {"name": "max_pooling2d_529_insert", "trainable": true, "dtype": "float32", "pool_size": [3, 3], "padding": "valid", "strides": [2, 2], "data_format": "channels_last"}, "name": "max_pooling2d_529_insert", "inbound_nodes": [[["batch_normalization_689_insert", 0, 0, {}]]]}, {"class_name": "Conv2D", "config": {"name": "conv2d_1605_insert", "trainable": true, "dtype": "float32", "filters": 6, "kernel_size": [1, 1], "strides": [1, 1], "padding": "same", "data_format": "channels_last", "dilation_rate": [1, 1], "groups": 1, "activation": "linear", "use_bias": true, "kernel_initializer": {"class_name": "VarianceScaling", "config": {"scale": 1.0, "mode": "fan_avg", "distribution": "uniform", "seed": null}}, "bias_initializer": {"class_name": "Zeros", "config": {}}, "kernel_regularizer": null, "bias_regularizer": null, "activity_regularizer": null, "kernel_constraint": null, "bias_constraint": null}, "name": "conv2d_1605_insert", "inbound_nodes": [[["max_pooling2d_529_insert", 0, 0, {}]]]}, {"class_name": "Conv2D", "config": {"name": "conv2d_1607_insert", "trainable": true, "dtype": "float32", "filters": 5, "kernel_size": [1, 7], "strides": [1, 1], "padding": "same", "data_format": "channels_last", "dilation_rate": [1, 1], "groups": 1, "activation": "linear", "use_bias": false, "kernel_initializer": {"class_name": "VarianceScaling", "config": {"scale": 1.0, "mode": "fan_avg", "distribution": "uniform", "seed": null}}, "bias_initializer": {"class_name": "Zeros", "config": {}}, "kernel_regularizer": null, "bias_regularizer": null, "activity_regularizer": null, "kernel_constraint": null, "bias_constraint": null}, "name": "conv2d_1607_insert", "inbound_nodes": [[["conv2d_1605_insert", 0, 0, {}]]]}, {"class_name": "Conv2D", "config": {"name": "conv2d_1609_insert", "trainable": true, "dtype": "float32", "filters": 2, "kernel_size": [3, 3], "strides": [1, 1], "padding": "valid", "data_format": "channels_last", "dilation_rate": [1, 1], "groups": 1, "activation": "linear", "use_bias": false, "kernel_initializer": {"class_name": "VarianceScaling", "config": {"scale": 1.0, "mode": "fan_avg", "distribution": "uniform", "seed": null}}, "bias_initializer": {"class_name": "Zeros", "config": {}}, "kernel_regularizer": null, "bias_regularizer": null, "activity_regularizer": null, "kernel_constraint": null, "bias_constraint": null}, "name": "conv2d_1609_insert", "inbound_nodes": [[["conv2d_1607_insert", 0, 0, {}]]]}, {"class_name": "GlobalAveragePooling2D", "config": {"name": "global_average_pooling2d_529_insert", "trainable": true, "dtype": "float32", "data_format": "channels_last", "keepdims": false}, "name": "global_average_pooling2d_529_insert", "inbound_nodes": [[["conv2d_1609_insert", 0, 0, {}]]]}, {"class_name": "CustomExpandLayer", "config": {"name": "custom_expand_layer_531_insert", "trainable": true, "dtype": "float32", "axis": 1}, "name": "custom_expand_layer_531_insert", "inbound_nodes": [[["global_average_pooling2d_529_insert", 0, 0, {}]]]}, {"class_name": "CustomExpandLayer", "config": {"name": "custom_expand_layer_532_insert", "trainable": true, "dtype": "float32", "axis": 1}, "name": "custom_expand_layer_532_insert", "inbound_nodes": [[["custom_expand_layer_531_insert", 0, 0, {}]]]}, {"class_name": "Conv2D", "config": {"name": "conv2d_1611_insert", "trainable": true, "dtype": "float32", "filters": 8, "kernel_size": [1, 1], "strides": [1, 1], "padding": "valid", "data_format": "channels_last", "dilation_rate": [1, 1], "groups": 1, "activation": "linear", "use_bias": false, "kernel_initializer": {"class_name": "VarianceScaling", "config": {"scale": 1.0, "mode": "fan_avg", "distribution": "uniform", "seed": null}}, "bias_initializer": {"class_name": "Zeros", "config": {}}, "kernel_regularizer": null, "bias_regularizer": null, "activity_regularizer": null, "kernel_constraint": null, "bias_constraint": null}, "name": "conv2d_1611_insert", "inbound_nodes": [[["custom_expand_layer_532_insert", 0, 0, {}]]]}, {"class_name": "AveragePooling2D", "config": {"name": "average_pooling2d_387_insert_1", "trainable": true, "dtype": "float32", "pool_size": [3, 3], "padding": "same", "strides": [1, 1], "data_format": "channels_last"}, "name": "average_pooling2d_387_insert_1", "inbound_nodes": [[["conv2d_1611_insert", 0, 0, {}]]]}, {"class_name": "Conv2D", "config": {"name": "conv2d_1613_insert", "trainable": true, "dtype": "float32", "filters": 3, "kernel_size": [1, 1], "strides": [1, 1], "padding": "same", "data_format": "channels_last", "dilation_rate": [1, 1], "groups": 1, "activation": "linear", "use_bias": false, "kernel_initializer": {"class_name": "VarianceScaling", "config": {"scale": 1.0, "mode": "fan_avg", "distribution": "uniform", "seed": null}}, "bias_initializer": {"class_name": "Zeros", "config": {}}, "kernel_regularizer": null, "bias_regularizer": null, "activity_regularizer": null, "kernel_constraint": null, "bias_constraint": null}, "name": "conv2d_1613_insert", "inbound_nodes": [[["average_pooling2d_387_insert_1", 0, 0, {}]]]}, {"class_name": "Conv2D", "config": {"name": "conv2d_1615_insert", "trainable": true, "dtype": "float32", "filters": 3, "kernel_size": [1, 3], "strides": [1, 1], "padding": "same", "data_format": "channels_last", "dilation_rate": [1, 1], "groups": 1, "activation": "linear", "use_bias": false, "kernel_initializer": {"class_name": "VarianceScaling", "config": {"scale": 1.0, "mode": "fan_avg", "distribution": "uniform", "seed": null}}, "bias_initializer": {"class_name": "Zeros", "config": {}}, "kernel_regularizer": null, "bias_regularizer": null, "activity_regularizer": null, "kernel_constraint": null, "bias_constraint": null}, "name": "conv2d_1615_insert", "inbound_nodes": [[["conv2d_1613_insert", 0, 0, {}]]]}, {"class_name": "Conv2D", "config": {"name": "conv2d_1617_insert", "trainable": true, "dtype": "float32", "filters": 1, "kernel_size": [7, 1], "strides": [1, 1], "padding": "same", "data_format": "channels_last", "dilation_rate": [1, 1], "groups": 1, "activation": "linear", "use_bias": false, "kernel_initializer": {"class_name": "VarianceScaling", "config": {"scale": 1.0, "mode": "fan_avg", "distribution": "uniform", "seed": null}}, "bias_initializer": {"class_name": "Zeros", "config": {}}, "kernel_regularizer": null, "bias_regularizer": null, "activity_regularizer": null, "kernel_constraint": null, "bias_constraint": null}, "name": "conv2d_1617_insert", "inbound_nodes": [[["conv2d_1615_insert", 0, 0, {}]]]}, {"class_name": "Conv2D", "config": {"name": "conv2d_1619_insert", "trainable": true, "dtype": "float32", "filters": 4, "kernel_size": [5, 5], "strides": [1, 1], "padding": "same", "data_format": "channels_last", "dilation_rate": [1, 1], "groups": 1, "activation": "linear", "use_bias": false, "kernel_initializer": {"class_name": "VarianceScaling", "config": {"scale": 1.0, "mode": "fan_avg", "distribution": "uniform", "seed": null}}, "bias_initializer": {"class_name": "Zeros", "config": {}}, "kernel_regularizer": null, "bias_regularizer": null, "activity_regularizer": null, "kernel_constraint": null, "bias_constraint": null}, "name": "conv2d_1619_insert", "inbound_nodes": [[["conv2d_1617_insert", 0, 0, {}]]]}, {"class_name": "Conv2D", "config": {"name": "conv2d_1621_insert", "trainable": true, "dtype": "float32", "filters": 4, "kernel_size": [3, 3], "strides": [1, 1], "padding": "same", "data_format": "channels_last", "dilation_rate": [1, 1], "groups": 1, "activation": "linear", "use_bias": false, "kernel_initializer": {"class_name": "VarianceScaling", "config": {"scale": 1.0, "mode": "fan_avg", "distribution": "uniform", "seed": null}}, "bias_initializer": {"class_name": "Zeros", "config": {}}, "kernel_regularizer": null, "bias_regularizer": null, "activity_regularizer": null, "kernel_constraint": null, "bias_constraint": null}, "name": "conv2d_1621_insert", "inbound_nodes": [[["conv2d_1619_insert", 0, 0, {}]]]}, {"class_name": "Conv2D", "config": {"name": "conv2d_1623_insert", "trainable": true, "dtype": "float32", "filters": 3, "kernel_size": [3, 1], "strides": [1, 1], "padding": "same", "data_format": "channels_last", "dilation_rate": [1, 1], "groups": 1, "activation": "linear", "use_bias": false, "kernel_initializer": {"class_name": "VarianceScaling", "config": {"scale": 1.0, "mode": "fan_avg", "distribution": "uniform", "seed": null}}, "bias_initializer": {"class_name": "Zeros", "config": {}}, "kernel_regularizer": null, "bias_regularizer": null, "activity_regularizer": null, "kernel_constraint": null, "bias_constraint": null}, "name": "conv2d_1623_insert", "inbound_nodes": [[["conv2d_1621_insert", 0, 0, {}]]]}, {"class_name": "CustomPadLayer", "config": {"name": "custom_pad_layer_281", "trainable": true, "dtype": "float32", "padding": [[5, 5], [8, 8], [7, 7]], "constant_values": 2}, "name": "custom_pad_layer_281", "inbound_nodes": [[["conv2d_1623_insert", 0, 0, {}]]]}, {"class_name": "BatchNormalization", "config": {"name": "batch_normalization_691_insert_merge1", "trainable": true, "dtype": "float32", "axis": [3], "momentum": 0.99, "epsilon": 0.001, "center": true, "scale": false, "beta_initializer": {"class_name": "Zeros", "config": {}}, "gamma_initializer": {"class_name": "Ones", "config": {}}, "moving_mean_initializer": {"class_name": "Zeros", "config": {}}, "moving_variance_initializer": {"class_name": "Ones", "config": {}}, "beta_regularizer": null, "gamma_regularizer": null, "beta_constraint": null, "gamma_constraint": null}, "name": "batch_normalization_691_insert_merge1", "inbound_nodes": [[["custom_pad_layer_281", 0, 0, {}]]]}, {"class_name": "Concatenate", "config": {"name": "concatenate_15_copy_ML", "trainable": true, "dtype": "float32", "axis": 3}, "name": "concatenate_15_copy_ML", "inbound_nodes": [[["batch_normalization_691_insert_merge1", 0, 0, {}], ["custom_pad_layer_281", 0, 0, {}]]]}, {"class_name": "CustomPadLayer", "config": {"name": "custom_pad_layer_282", "trainable": true, "dtype": "float32", "padding": [[1, 1], [0, 0], [0, 1]], "constant_values": 2}, "name": "custom_pad_layer_282", "inbound_nodes": [[["concatenate_15_copy_ML", 0, 0, {}]]]}, {"class_name": "CustomCropLayer", "config": {"name": "custom_crop_layer_204", "trainable": true, "dtype": "float32", "cropping": [[0, 0], [1, 2], [0, 0]]}, "name": "custom_crop_layer_204", "inbound_nodes": [[["custom_pad_layer_282", 0, 0, {}]]]}, {"class_name": "MaxPooling2D", "config": {"name": "max_pooling2d_531_insert", "trainable": true, "dtype": "float32", "pool_size": [3, 3], "padding": "valid", "strides": [2, 2], "data_format": "channels_last"}, "name": "max_pooling2d_531_insert", "inbound_nodes": [[["custom_crop_layer_204", 0, 0, {}]]]}, {"class_name": "CustomPadLayer", "config": {"name": "custom_pad_layer_283", "trainable": true, "dtype": "float32", "padding": [[4, 4], [0, 0], [0, 0]], "constant_values": 2}, "name": "custom_pad_layer_283", "inbound_nodes": [[["max_pooling2d_531_insert", 0, 0, {}]]]}, {"class_name": "CustomCropLayer", "config": {"name": "custom_crop_layer_205", "trainable": true, "dtype": "float32", "cropping": [[0, 0], [0, 0], [5, 5]]}, "name": "custom_crop_layer_205", "inbound_nodes": [[["custom_pad_layer_283", 0, 0, {}]]]}, {"class_name": "MaxPooling2D", "config": {"name": "max_pooling2d_533_insert", "trainable": true, "dtype": "float32", "pool_size": [3, 3], "padding": "valid", "strides": [2, 2], "data_format": "channels_last"}, "name": "max_pooling2d_533_insert", "inbound_nodes": [[["custom_crop_layer_205", 0, 0, {}]]]}, {"class_name": "CustomPadLayer", "config": {"name": "custom_pad_layer_284", "trainable": true, "dtype": "float32", "padding": [[6, 7], [8, 9], [3, 3]], "constant_values": 2}, "name": "custom_pad_layer_284", "inbound_nodes": [[["max_pooling2d_533_insert", 0, 0, {}]]]}, {"class_name": "BatchNormalization", "config": {"name": "batch_normalization_693_insert", "trainable": true, "dtype": "float32", "axis": [3], "momentum": 0.99, "epsilon": 0.001, "center": true, "scale": false, "beta_initializer": {"class_name": "Zeros", "config": {}}, "gamma_initializer": {"class_name": "Ones", "config": {}}, "moving_mean_initializer": {"class_name": "Zeros", "config": {}}, "moving_variance_initializer": {"class_name": "Ones", "config": {}}, "beta_regularizer": null, "gamma_regularizer": null, "beta_constraint": null, "gamma_constraint": null}, "name": "batch_normalization_693_insert", "inbound_nodes": [[["custom_pad_layer_284", 0, 0, {}]]]}, {"class_name": "CustomPadLayer", "config": {"name": "custom_pad_layer_285", "trainable": true, "dtype": "float32", "padding": [[0, 0], [0, 0], [1, 2]], "constant_values": 2}, "name": "custom_pad_layer_285", "inbound_nodes": [[["batch_normalization_693_insert", 0, 0, {}]]]}, {"class_name": "CustomCropLayer", "config": {"name": "custom_crop_layer_206", "trainable": true, "dtype": "float32", "cropping": [[0, 0], [6, 7], [0, 0]]}, "name": "custom_crop_layer_206", "inbound_nodes": [[["custom_pad_layer_285", 0, 0, {}]]]}, {"class_name": "MaxPooling2D", "config": {"name": "max_pooling2d_535_insert", "trainable": true, "dtype": "float32", "pool_size": [3, 3], "padding": "valid", "strides": [2, 2], "data_format": "channels_last"}, "name": "max_pooling2d_535_insert", "inbound_nodes": [[["custom_crop_layer_206", 0, 0, {}]]]}, {"class_name": "CustomPadLayer", "config": {"name": "custom_pad_layer_286", "trainable": true, "dtype": "float32", "padding": [[0, 0], [4, 4], [0, 0]], "constant_values": 2}, "name": "custom_pad_layer_286", "inbound_nodes": [[["max_pooling2d_535_insert", 0, 0, {}]]]}, {"class_name": "CustomCropLayer", "config": {"name": "custom_crop_layer_207", "trainable": true, "dtype": "float32", "cropping": [[2, 2], [0, 0], [1, 1]]}, "name": "custom_crop_layer_207", "inbound_nodes": [[["custom_pad_layer_286", 0, 0, {}]]]}, {"class_name": "BatchNormalization", "config": {"name": "batch_normalization_695_insert", "trainable": true, "dtype": "float32", "axis": [3], "momentum": 0.99, "epsilon": 0.001, "center": true, "scale": false, "beta_initializer": {"class_name": "Zeros", "config": {}}, "gamma_initializer": {"class_name": "Ones", "config": {}}, "moving_mean_initializer": {"class_name": "Zeros", "config": {}}, "moving_variance_initializer": {"class_name": "Ones", "config": {}}, "beta_regularizer": null, "gamma_regularizer": null, "beta_constraint": null, "gamma_constraint": null}, "name": "batch_normalization_695_insert", "inbound_nodes": [[["custom_crop_layer_207", 0, 0, {}]]]}, {"class_name": "CustomPadLayer", "config": {"name": "custom_pad_layer_287", "trainable": true, "dtype": "float32", "padding": [[6, 7], [0, 0], [0, 1]], "constant_values": 2}, "name": "custom_pad_layer_287", "inbound_nodes": [[["batch_normalization_695_insert", 0, 0, {}]]]}, {"class_name": "CustomCropLayer", "config": {"name": "custom_crop_layer_208", "trainable": true, "dtype": "float32", "cropping": [[0, 0], [2, 2], [0, 0]]}, "name": "custom_crop_layer_208", "inbound_nodes": [[["custom_pad_layer_287", 0, 0, {}]]]}, {"class_name": "BatchNormalization", "config": {"name": "batch_normalization_697_insert", "trainable": true, "dtype": "float32", "axis": [3], "momentum": 0.99, "epsilon": 0.001, "center": true, "scale": false, "beta_initializer": {"class_name": "Zeros", "config": {}}, "gamma_initializer": {"class_name": "Ones", "config": {}}, "moving_mean_initializer": {"class_name": "Zeros", "config": {}}, "moving_variance_initializer": {"class_name": "Ones", "config": {}}, "beta_regularizer": null, "gamma_regularizer": null, "beta_constraint": null, "gamma_constraint": null}, "name": "batch_normalization_697_insert", "inbound_nodes": [[["custom_crop_layer_208", 0, 0, {}]]]}, {"class_name": "AveragePooling2D", "config": {"name": "average_pooling2d_387_insert_2", "trainable": true, "dtype": "float32", "pool_size": [3, 3], "padding": "same", "strides": [1, 1], "data_format": "channels_last"}, "name": "average_pooling2d_387_insert_2", "inbound_nodes": [[["max_pooling2d_531_insert", 0, 0, {}]]]}], "input_layers": [["input_312", 0, 0]], "output_layers": [["batch_normalization_697_insert", 0, 0], ["average_pooling2d_387_insert_2", 0, 0]]}, "keras_version": "2.7.0", "backend": "tensorflow"}