{"class_name": "Functional", "config": {"name": "model_297", "layers": [{"class_name": "InputLayer", "config": {"batch_input_shape": [null, 32, 32, 3], "dtype": "float32", "sparse": false, "ragged": false, "name": "input_32"}, "name": "input_32", "inbound_nodes": []}, {"class_name": "Conv2D", "config": {"name": "conv2d_1", "trainable": true, "batch_input_shape": [null, 32, 32, 3], "dtype": "float32", "filters": 96, "kernel_size": [3, 3], "strides": [2, 2], "padding": "same", "data_format": "channels_last", "dilation_rate": [1, 1], "groups": 1, "activation": "relu", "use_bias": true, "kernel_initializer": {"class_name": "VarianceScaling", "config": {"scale": 1.0, "mode": "fan_avg", "distribution": "uniform", "seed": null}}, "bias_initializer": {"class_name": "Zeros", "config": {}}, "kernel_regularizer": null, "bias_regularizer": null, "activity_regularizer": null, "kernel_constraint": null, "bias_constraint": null}, "name": "conv2d_1", "inbound_nodes": [[["input_32", 0, 0, {}]]]}, {"class_name": "MaxPooling2D", "config": {"name": "max_pooling2d_75_insert", "trainable": true, "dtype": "float32", "pool_size": [3, 3], "padding": "valid", "strides": [2, 2], "data_format": "channels_last"}, "name": "max_pooling2d_75_insert", "inbound_nodes": [[["conv2d_1", 0, 0, {}]]]}, {"class_name": "MaxPooling2D", "config": {"name": "max_pooling2d_77_insert", "trainable": true, "dtype": "float32", "pool_size": [2, 2], "padding": "valid", "strides": [2, 2], "data_format": "channels_last"}, "name": "max_pooling2d_77_insert", "inbound_nodes": [[["max_pooling2d_75_insert", 0, 0, {}]]]}, {"class_name": "BatchNormalization", "config": {"name": "batch_normalization_103_insert", "trainable": true, "dtype": "float32", "axis": [3], "momentum": 0.99, "epsilon": 0.001, "center": true, "scale": true, "beta_initializer": {"class_name": "Zeros", "config": {}}, "gamma_initializer": {"class_name": "Ones", "config": {}}, "moving_mean_initializer": {"class_name": "Zeros", "config": {}}, "moving_variance_initializer": {"class_name": "Ones", "config": {}}, "beta_regularizer": null, "gamma_regularizer": null, "beta_constraint": null, "gamma_constraint": null}, "name": "batch_normalization_103_insert", "inbound_nodes": [[["max_pooling2d_77_insert", 0, 0, {}]]]}, {"class_name": "Dropout", "config": {"name": "dropout_25_insert", "trainable": true, "dtype": "float32", "rate": 0.5, "noise_shape": null, "seed": null}, "name": "dropout_25_insert", "inbound_nodes": [[["batch_normalization_103_insert", 0, 0, {}]]]}, {"class_name": "Conv2D", "config": {"name": "conv2d_145_insert", "trainable": true, "dtype": "float32", "filters": 1, "kernel_size": [3, 3], "strides": [1, 1], "padding": "same", "data_format": "channels_last", "dilation_rate": [1, 1], "groups": 1, "activation": "relu", "use_bias": true, "kernel_initializer": {"class_name": "VarianceScaling", "config": {"scale": 1.0, "mode": "fan_avg", "distribution": "uniform", "seed": null}}, "bias_initializer": {"class_name": "Zeros", "config": {}}, "kernel_regularizer": null, "bias_regularizer": null, "activity_regularizer": null, "kernel_constraint": null, "bias_constraint": null}, "name": "conv2d_145_insert", "inbound_nodes": [[["dropout_25_insert", 0, 0, {}]]]}, {"class_name": "Conv2D", "config": {"name": "conv2d_147_insert", "trainable": true, "dtype": "float32", "filters": 2, "kernel_size": [5, 5], "strides": [1, 1], "padding": "same", "data_format": "channels_last", "dilation_rate": [1, 1], "groups": 1, "activation": "relu", "use_bias": true, "kernel_initializer": {"class_name": "VarianceScaling", "config": {"scale": 1.0, "mode": "fan_avg", "distribution": "uniform", "seed": null}}, "bias_initializer": {"class_name": "Zeros", "config": {}}, "kernel_regularizer": null, "bias_regularizer": null, "activity_regularizer": null, "kernel_constraint": null, "bias_constraint": null}, "name": "conv2d_147_insert", "inbound_nodes": [[["conv2d_145_insert", 0, 0, {}]]]}, {"class_name": "Flatten", "config": {"name": "flatten_14_insert_1", "trainable": true, "dtype": "float32", "data_format": "channels_last"}, "name": "flatten_14_insert_1", "inbound_nodes": [[["conv2d_147_insert", 0, 0, {}]]]}, {"class_name": "Dropout", "config": {"name": "dropout_27_insert", "trainable": true, "dtype": "float32", "rate": 0.5, "noise_shape": null, "seed": null}, "name": "dropout_27_insert", "inbound_nodes": [[["flatten_14_insert_1", 0, 0, {}]]]}, {"class_name": "CustomExpandLayer", "config": {"name": "custom_expand_layer_49", "trainable": true, "dtype": "float32", "axis": 1}, "name": "custom_expand_layer_49", "inbound_nodes": [[["dropout_27_insert", 0, 0, {}]]]}, {"class_name": "CustomExpandLayer", "config": {"name": "custom_expand_layer_50", "trainable": true, "dtype": "float32", "axis": 1}, "name": "custom_expand_layer_50", "inbound_nodes": [[["custom_expand_layer_49", 0, 0, {}]]]}, {"class_name": "CustomPadLayer", "config": {"name": "custom_pad_layer_60", "trainable": true, "dtype": "float32", "padding": [[4, 4], [7, 7], [0, 1]], "constant_values": 2}, "name": "custom_pad_layer_60", "inbound_nodes": [[["custom_expand_layer_50", 0, 0, {}]]]}, {"class_name": "MaxPooling2D", "config": {"name": "max_pooling2d_79_insert", "trainable": true, "dtype": "float32", "pool_size": [3, 3], "padding": "valid", "strides": [2, 2], "data_format": "channels_last"}, "name": "max_pooling2d_79_insert", "inbound_nodes": [[["custom_pad_layer_60", 0, 0, {}]]]}, {"class_name": "CustomPadLayer", "config": {"name": "custom_pad_layer_61", "trainable": true, "dtype": "float32", "padding": [[1, 1], [4, 4], [0, 0]], "constant_values": 2}, "name": "custom_pad_layer_61", "inbound_nodes": [[["max_pooling2d_79_insert", 0, 0, {}]]]}, {"class_name": "CustomCropLayer", "config": {"name": "custom_crop_layer_45", "trainable": true, "dtype": "float32", "cropping": [[0, 0], [0, 0], [7, 7]]}, "name": "custom_crop_layer_45", "inbound_nodes": [[["custom_pad_layer_61", 0, 0, {}]]]}, {"class_name": "Conv2D", "config": {"name": "conv2d_149_insert_1", "trainable": true, "dtype": "float32", "filters": 5, "kernel_size": [5, 5], "strides": [1, 1], "padding": "same", "data_format": "channels_last", "dilation_rate": [1, 1], "groups": 1, "activation": "relu", "use_bias": true, "kernel_initializer": {"class_name": "VarianceScaling", "config": {"scale": 1.0, "mode": "fan_avg", "distribution": "uniform", "seed": null}}, "bias_initializer": {"class_name": "Zeros", "config": {}}, "kernel_regularizer": null, "bias_regularizer": null, "activity_regularizer": null, "kernel_constraint": null, "bias_constraint": null}, "name": "conv2d_149_insert_1", "inbound_nodes": [[["custom_crop_layer_45", 0, 0, {}]]]}, {"class_name": "CustomPadLayer", "config": {"name": "custom_pad_layer_62", "trainable": true, "dtype": "float32", "padding": [[0, 1], [0, 0], [2, 2]], "constant_values": 2}, "name": "custom_pad_layer_62", "inbound_nodes": [[["conv2d_149_insert_1", 0, 0, {}]]]}, {"class_name": "CustomCropLayer", "config": {"name": "custom_crop_layer_46", "trainable": true, "dtype": "float32", "cropping": [[0, 0], [4, 5], [0, 0]]}, "name": "custom_crop_layer_46", "inbound_nodes": [[["custom_pad_layer_62", 0, 0, {}]]]}, {"class_name": "BatchNormalization", "config": {"name": "batch_normalization_105_insert", "trainable": true, "dtype": "float32", "axis": [3], "momentum": 0.99, "epsilon": 0.001, "center": true, "scale": true, "beta_initializer": {"class_name": "Zeros", "config": {}}, "gamma_initializer": {"class_name": "Ones", "config": {}}, "moving_mean_initializer": {"class_name": "Zeros", "config": {}}, "moving_variance_initializer": {"class_name": "Ones", "config": {}}, "beta_regularizer": null, "gamma_regularizer": null, "beta_constraint": null, "gamma_constraint": null}, "name": "batch_normalization_105_insert", "inbound_nodes": [[["custom_crop_layer_46", 0, 0, {}]]]}, {"class_name": "CustomPadLayer", "config": {"name": "custom_pad_layer_63", "trainable": true, "dtype": "float32", "padding": [[3, 3], [6, 6], [0, 0]], "constant_values": 2}, "name": "custom_pad_layer_63", "inbound_nodes": [[["batch_normalization_105_insert", 0, 0, {}]]]}, {"class_name": "BatchNormalization", "config": {"name": "batch_normalization_107_insert", "trainable": true, "dtype": "float32", "axis": [3], "momentum": 0.99, "epsilon": 0.001, "center": true, "scale": true, "beta_initializer": {"class_name": "Zeros", "config": {}}, "gamma_initializer": {"class_name": "Ones", "config": {}}, "moving_mean_initializer": {"class_name": "Zeros", "config": {}}, "moving_variance_initializer": {"class_name": "Ones", "config": {}}, "beta_regularizer": null, "gamma_regularizer": null, "beta_constraint": null, "gamma_constraint": null}, "name": "batch_normalization_107_insert", "inbound_nodes": [[["custom_pad_layer_63", 0, 0, {}]]]}, {"class_name": "Conv2D", "config": {"name": "conv2d_149_insert_2", "trainable": true, "dtype": "float32", "filters": 5, "kernel_size": [5, 5], "strides": [1, 1], "padding": "same", "data_format": "channels_last", "dilation_rate": [1, 1], "groups": 1, "activation": "relu", "use_bias": true, "kernel_initializer": {"class_name": "VarianceScaling", "config": {"scale": 1.0, "mode": "fan_avg", "distribution": "uniform", "seed": null}}, "bias_initializer": {"class_name": "Zeros", "config": {}}, "kernel_regularizer": null, "bias_regularizer": null, "activity_regularizer": null, "kernel_constraint": null, "bias_constraint": null}, "name": "conv2d_149_insert_2", "inbound_nodes": [[["batch_normalization_103_insert", 0, 0, {}]]]}, {"class_name": "Flatten", "config": {"name": "flatten_14_insert_2", "trainable": true, "dtype": "float32", "data_format": "channels_last"}, "name": "flatten_14_insert_2", "inbound_nodes": [[["batch_normalization_107_insert", 0, 0, {}]]]}], "input_layers": [["input_32", 0, 0]], "output_layers": [["batch_normalization_107_insert", 0, 0], ["conv2d_149_insert_2", 0, 0], ["flatten_14_insert_2", 0, 0]]}, "keras_version": "2.7.0", "backend": "tensorflow"}