{"class_name": "Functional", "config": {"name": "model_361", "layers": [{"class_name": "InputLayer", "config": {"batch_input_shape": [null, 224, 224, 3], "dtype": "float32", "sparse": false, "ragged": false, "name": "input_40"}, "name": "input_40", "inbound_nodes": []}, {"class_name": "ZeroPadding2D", "config": {"name": "zero_padding2d_1", "trainable": true, "dtype": "float32", "padding": [[3, 3], [3, 3]], "data_format": "channels_last"}, "name": "zero_padding2d_1", "inbound_nodes": [[["input_40", 0, 0, {}]]]}, {"class_name": "Conv2D", "config": {"name": "conv2d_167_insert", "trainable": true, "dtype": "float32", "filters": 5, "kernel_size": [7, 7], "strides": [2, 2], "padding": "valid", "data_format": "channels_last", "dilation_rate": [1, 1], "groups": 1, "activation": "linear", "use_bias": false, "kernel_initializer": {"class_name": "VarianceScaling", "config": {"scale": 1.0, "mode": "fan_avg", "distribution": "uniform", "seed": null}}, "bias_initializer": {"class_name": "Zeros", "config": {}}, "kernel_regularizer": null, "bias_regularizer": null, "activity_regularizer": null, "kernel_constraint": null, "bias_constraint": null}, "name": "conv2d_167_insert", "inbound_nodes": [[["zero_padding2d_1", 0, 0, {}]]]}, {"class_name": "AveragePooling2D", "config": {"name": "average_pooling2d_43_insert", "trainable": true, "dtype": "float32", "pool_size": [2, 2], "padding": "valid", "strides": [2, 2], "data_format": "channels_last"}, "name": "average_pooling2d_43_insert", "inbound_nodes": [[["conv2d_167_insert", 0, 0, {}]]]}, {"class_name": "BatchNormalization", "config": {"name": "batch_normalization_115_insert", "trainable": true, "dtype": "float32", "axis": [3], "momentum": 0.99, "epsilon": 1.001e-05, "center": true, "scale": true, "beta_initializer": {"class_name": "Zeros", "config": {}}, "gamma_initializer": {"class_name": "Ones", "config": {}}, "moving_mean_initializer": {"class_name": "Zeros", "config": {}}, "moving_variance_initializer": {"class_name": "Ones", "config": {}}, "beta_regularizer": null, "gamma_regularizer": null, "beta_constraint": null, "gamma_constraint": null}, "name": "batch_normalization_115_insert", "inbound_nodes": [[["average_pooling2d_43_insert", 0, 0, {}]]]}, {"class_name": "Conv2D", "config": {"name": "conv2d_169_insert", "trainable": true, "dtype": "float32", "filters": 6, "kernel_size": [1, 1], "strides": [1, 1], "padding": "valid", "data_format": "channels_last", "dilation_rate": [1, 1], "groups": 1, "activation": "linear", "use_bias": false, "kernel_initializer": {"class_name": "VarianceScaling", "config": {"scale": 1.0, "mode": "fan_avg", "distribution": "uniform", "seed": null}}, "bias_initializer": {"class_name": "Zeros", "config": {}}, "kernel_regularizer": null, "bias_regularizer": null, "activity_regularizer": null, "kernel_constraint": null, "bias_constraint": null}, "name": "conv2d_169_insert", "inbound_nodes": [[["batch_normalization_115_insert", 0, 0, {}]]]}, {"class_name": "MaxPooling2D", "config": {"name": "max_pooling2d_85_insert_1", "trainable": true, "dtype": "float32", "pool_size": [3, 3], "padding": "valid", "strides": [2, 2], "data_format": "channels_last"}, "name": "max_pooling2d_85_insert_1", "inbound_nodes": [[["conv2d_169_insert", 0, 0, {}]]]}, {"class_name": "Conv2D", "config": {"name": "conv2d_171_insert", "trainable": true, "dtype": "float32", "filters": 5, "kernel_size": [3, 3], "strides": [1, 1], "padding": "same", "data_format": "channels_last", "dilation_rate": [1, 1], "groups": 1, "activation": "linear", "use_bias": false, "kernel_initializer": {"class_name": "VarianceScaling", "config": {"scale": 1.0, "mode": "fan_avg", "distribution": "uniform", "seed": null}}, "bias_initializer": {"class_name": "Zeros", "config": {}}, "kernel_regularizer": null, "bias_regularizer": null, "activity_regularizer": null, "kernel_constraint": null, "bias_constraint": null}, "name": "conv2d_171_insert", "inbound_nodes": [[["max_pooling2d_85_insert_1", 0, 0, {}]]]}, {"class_name": "ZeroPadding2D", "config": {"name": "zero_padding2d_23_insert", "trainable": true, "dtype": "float32", "padding": [[1, 1], [1, 1]], "data_format": "channels_last"}, "name": "zero_padding2d_23_insert", "inbound_nodes": [[["conv2d_171_insert", 0, 0, {}]]]}, {"class_name": "GlobalAveragePooling2D", "config": {"name": "global_average_pooling2d_39_insert", "trainable": true, "dtype": "float32", "data_format": "channels_last", "keepdims": false}, "name": "global_average_pooling2d_39_insert", "inbound_nodes": [[["zero_padding2d_23_insert", 0, 0, {}]]]}, {"class_name": "CustomExpandLayer", "config": {"name": "custom_expand_layer_64", "trainable": true, "dtype": "float32", "axis": 1}, "name": "custom_expand_layer_64", "inbound_nodes": [[["global_average_pooling2d_39_insert", 0, 0, {}]]]}, {"class_name": "CustomExpandLayer", "config": {"name": "custom_expand_layer_65", "trainable": true, "dtype": "float32", "axis": 1}, "name": "custom_expand_layer_65", "inbound_nodes": [[["custom_expand_layer_64", 0, 0, {}]]]}, {"class_name": "CustomPadLayer", "config": {"name": "custom_pad_layer_66", "trainable": true, "dtype": "float32", "padding": [[7, 7], [7, 7], [6, 7]], "constant_values": 2}, "name": "custom_pad_layer_66", "inbound_nodes": [[["custom_expand_layer_65", 0, 0, {}]]]}, {"class_name": "BatchNormalization", "config": {"name": "batch_normalization_117_insert", "trainable": true, "dtype": "float32", "axis": [3], "momentum": 0.99, "epsilon": 1.001e-05, "center": true, "scale": true, "beta_initializer": {"class_name": "Zeros", "config": {}}, "gamma_initializer": {"class_name": "Ones", "config": {}}, "moving_mean_initializer": {"class_name": "Zeros", "config": {}}, "moving_variance_initializer": {"class_name": "Ones", "config": {}}, "beta_regularizer": null, "gamma_regularizer": null, "beta_constraint": null, "gamma_constraint": null}, "name": "batch_normalization_117_insert", "inbound_nodes": [[["custom_pad_layer_66", 0, 0, {}]]]}, {"class_name": "CustomCropLayer", "config": {"name": "custom_crop_layer_48", "trainable": true, "dtype": "float32", "cropping": [[0, 1], [0, 1], [6, 7]]}, "name": "custom_crop_layer_48", "inbound_nodes": [[["batch_normalization_117_insert", 0, 0, {}]]]}, {"class_name": "Conv2D", "config": {"name": "conv2d_173_insert", "trainable": true, "dtype": "float32", "filters": 6, "kernel_size": [3, 3], "strides": [1, 1], "padding": "same", "data_format": "channels_last", "dilation_rate": [1, 1], "groups": 1, "activation": "linear", "use_bias": false, "kernel_initializer": {"class_name": "VarianceScaling", "config": {"scale": 1.0, "mode": "fan_avg", "distribution": "uniform", "seed": null}}, "bias_initializer": {"class_name": "Zeros", "config": {}}, "kernel_regularizer": null, "bias_regularizer": null, "activity_regularizer": null, "kernel_constraint": null, "bias_constraint": null}, "name": "conv2d_173_insert", "inbound_nodes": [[["custom_crop_layer_48", 0, 0, {}]]]}, {"class_name": "CustomPadLayer", "config": {"name": "custom_pad_layer_67", "trainable": true, "dtype": "float32", "padding": [[1, 1], [0, 0], [5, 6]], "constant_values": 2}, "name": "custom_pad_layer_67", "inbound_nodes": [[["conv2d_173_insert", 0, 0, {}]]]}, {"class_name": "CustomCropLayer", "config": {"name": "custom_crop_layer_49", "trainable": true, "dtype": "float32", "cropping": [[0, 0], [3, 4], [0, 0]]}, "name": "custom_crop_layer_49", "inbound_nodes": [[["custom_pad_layer_67", 0, 0, {}]]]}, {"class_name": "Conv2D", "config": {"name": "conv2d_175_insert", "trainable": true, "dtype": "float32", "filters": 4, "kernel_size": [1, 1], "strides": [1, 1], "padding": "valid", "data_format": "channels_last", "dilation_rate": [1, 1], "groups": 1, "activation": "linear", "use_bias": false, "kernel_initializer": {"class_name": "VarianceScaling", "config": {"scale": 1.0, "mode": "fan_avg", "distribution": "uniform", "seed": null}}, "bias_initializer": {"class_name": "Zeros", "config": {}}, "kernel_regularizer": null, "bias_regularizer": null, "activity_regularizer": null, "kernel_constraint": null, "bias_constraint": null}, "name": "conv2d_175_insert", "inbound_nodes": [[["custom_crop_layer_49", 0, 0, {}]]]}, {"class_name": "CustomPadLayer", "config": {"name": "custom_pad_layer_68", "trainable": true, "dtype": "float32", "padding": [[0, 0], [4, 5], [4, 5]], "constant_values": 2}, "name": "custom_pad_layer_68", "inbound_nodes": [[["conv2d_175_insert", 0, 0, {}]]]}, {"class_name": "CustomCropLayer", "config": {"name": "custom_crop_layer_50", "trainable": true, "dtype": "float32", "cropping": [[4, 5], [0, 0], [0, 0]]}, "name": "custom_crop_layer_50", "inbound_nodes": [[["custom_pad_layer_68", 0, 0, {}]]]}, {"class_name": "BatchNormalization", "config": {"name": "batch_normalization_119_insert", "trainable": true, "dtype": "float32", "axis": [3], "momentum": 0.99, "epsilon": 1.001e-05, "center": true, "scale": true, "beta_initializer": {"class_name": "Zeros", "config": {}}, "gamma_initializer": {"class_name": "Ones", "config": {}}, "moving_mean_initializer": {"class_name": "Zeros", "config": {}}, "moving_variance_initializer": {"class_name": "Ones", "config": {}}, "beta_regularizer": null, "gamma_regularizer": null, "beta_constraint": null, "gamma_constraint": null}, "name": "batch_normalization_119_insert", "inbound_nodes": [[["custom_crop_layer_50", 0, 0, {}]]]}, {"class_name": "CustomPadLayer", "config": {"name": "custom_pad_layer_69", "trainable": true, "dtype": "float32", "padding": [[1, 2], [1, 2], [0, 0]], "constant_values": 2}, "name": "custom_pad_layer_69", "inbound_nodes": [[["batch_normalization_119_insert", 0, 0, {}]]]}, {"class_name": "CustomCropLayer", "config": {"name": "custom_crop_layer_51", "trainable": true, "dtype": "float32", "cropping": [[0, 0], [0, 0], [2, 3]]}, "name": "custom_crop_layer_51", "inbound_nodes": [[["custom_pad_layer_69", 0, 0, {}]]]}, {"class_name": "BatchNormalization", "config": {"name": "batch_normalization_121_insert", "trainable": true, "dtype": "float32", "axis": [3], "momentum": 0.99, "epsilon": 1.001e-05, "center": true, "scale": true, "beta_initializer": {"class_name": "Zeros", "config": {}}, "gamma_initializer": {"class_name": "Ones", "config": {}}, "moving_mean_initializer": {"class_name": "Zeros", "config": {}}, "moving_variance_initializer": {"class_name": "Ones", "config": {}}, "beta_regularizer": null, "gamma_regularizer": null, "beta_constraint": null, "gamma_constraint": null}, "name": "batch_normalization_121_insert", "inbound_nodes": [[["custom_crop_layer_51", 0, 0, {}]]]}, {"class_name": "CustomPadLayer", "config": {"name": "custom_pad_layer_70", "trainable": true, "dtype": "float32", "padding": [[3, 3], [0, 0], [4, 5]], "constant_values": 2}, "name": "custom_pad_layer_70", "inbound_nodes": [[["batch_normalization_121_insert", 0, 0, {}]]]}, {"class_name": "CustomCropLayer", "config": {"name": "custom_crop_layer_52", "trainable": true, "dtype": "float32", "cropping": [[0, 0], [1, 2], [0, 0]]}, "name": "custom_crop_layer_52", "inbound_nodes": [[["custom_pad_layer_70", 0, 0, {}]]]}, {"class_name": "AveragePooling2D", "config": {"name": "average_pooling2d_45_insert", "trainable": true, "dtype": "float32", "pool_size": [2, 2], "padding": "valid", "strides": [2, 2], "data_format": "channels_last"}, "name": "average_pooling2d_45_insert", "inbound_nodes": [[["custom_crop_layer_52", 0, 0, {}]]]}, {"class_name": "CustomPadLayer", "config": {"name": "custom_pad_layer_71", "trainable": true, "dtype": "float32", "padding": [[5, 5], [3, 4], [0, 0]], "constant_values": 2}, "name": "custom_pad_layer_71", "inbound_nodes": [[["average_pooling2d_45_insert", 0, 0, {}]]]}, {"class_name": "CustomCropLayer", "config": {"name": "custom_crop_layer_53", "trainable": true, "dtype": "float32", "cropping": [[0, 0], [0, 0], [2, 3]]}, "name": "custom_crop_layer_53", "inbound_nodes": [[["custom_pad_layer_71", 0, 0, {}]]]}, {"class_name": "BatchNormalization", "config": {"name": "batch_normalization_123_insert_1_1", "trainable": true, "dtype": "float32", "axis": [3], "momentum": 0.99, "epsilon": 1.001e-05, "center": true, "scale": true, "beta_initializer": {"class_name": "Zeros", "config": {}}, "gamma_initializer": {"class_name": "Ones", "config": {}}, "moving_mean_initializer": {"class_name": "Zeros", "config": {}}, "moving_variance_initializer": {"class_name": "Ones", "config": {}}, "beta_regularizer": null, "gamma_regularizer": null, "beta_constraint": null, "gamma_constraint": null}, "name": "batch_normalization_123_insert_1_1", "inbound_nodes": [[["custom_crop_layer_53", 0, 0, {}]]]}, {"class_name": "CustomPadLayer", "config": {"name": "custom_pad_layer_72", "trainable": true, "dtype": "float32", "padding": [[0, 0], [0, 0], [3, 3]], "constant_values": 2}, "name": "custom_pad_layer_72", "inbound_nodes": [[["batch_normalization_123_insert_1_1", 0, 0, {}]]]}, {"class_name": "BatchNormalization", "config": {"name": "batch_normalization_123_insert_2_merge1", "trainable": true, "dtype": "float32", "axis": [3], "momentum": 0.99, "epsilon": 1.001e-05, "center": true, "scale": true, "beta_initializer": {"class_name": "Zeros", "config": {}}, "gamma_initializer": {"class_name": "Ones", "config": {}}, "moving_mean_initializer": {"class_name": "Zeros", "config": {}}, "moving_variance_initializer": {"class_name": "Ones", "config": {}}, "beta_regularizer": null, "gamma_regularizer": null, "beta_constraint": null, "gamma_constraint": null}, "name": "batch_normalization_123_insert_2_merge1", "inbound_nodes": [[["conv2d_171_insert", 0, 0, {}]]]}, {"class_name": "CustomCropLayer", "config": {"name": "custom_crop_layer_54", "trainable": true, "dtype": "float32", "cropping": [[0, 0], [3, 4], [0, 0]]}, "name": "custom_crop_layer_54", "inbound_nodes": [[["custom_pad_layer_72", 0, 0, {}]]]}, {"class_name": "Concatenate", "config": {"name": "concatenate_4_copy_ML", "trainable": true, "dtype": "float32", "axis": 3}, "name": "concatenate_4_copy_ML", "inbound_nodes": [[["batch_normalization_123_insert_2_merge1", 0, 0, {}], ["conv2d_171_insert", 0, 0, {}]]]}, {"class_name": "MaxPooling2D", "config": {"name": "max_pooling2d_85_insert_2", "trainable": true, "dtype": "float32", "pool_size": [3, 3], "padding": "valid", "strides": [2, 2], "data_format": "channels_last"}, "name": "max_pooling2d_85_insert_2", "inbound_nodes": [[["zero_padding2d_23_insert", 0, 0, {}]]]}, {"class_name": "AveragePooling2D", "config": {"name": "average_pooling2d_47_insert", "trainable": true, "dtype": "float32", "pool_size": [2, 2], "padding": "valid", "strides": [2, 2], "data_format": "channels_last"}, "name": "average_pooling2d_47_insert", "inbound_nodes": [[["custom_crop_layer_54", 0, 0, {}]]]}, {"class_name": "Cropping2D", "config": {"name": "cropping2d_7", "trainable": true, "dtype": "float32", "cropping": [[8, 8], [8, 8]], "data_format": "channels_last"}, "name": "cropping2d_7", "inbound_nodes": [[["concatenate_4_copy_ML", 0, 0, {}]]]}, {"class_name": "BatchNormalization", "config": {"name": "batch_normalization_123_insert_1_2", "trainable": true, "dtype": "float32", "axis": [3], "momentum": 0.99, "epsilon": 1.001e-05, "center": true, "scale": true, "beta_initializer": {"class_name": "Zeros", "config": {}}, "gamma_initializer": {"class_name": "Ones", "config": {}}, "moving_mean_initializer": {"class_name": "Zeros", "config": {}}, "moving_variance_initializer": {"class_name": "Ones", "config": {}}, "beta_regularizer": null, "gamma_regularizer": null, "beta_constraint": null, "gamma_constraint": null}, "name": "batch_normalization_123_insert_1_2", "inbound_nodes": [[["max_pooling2d_85_insert_2", 0, 0, {}]]]}], "input_layers": [["input_40", 0, 0]], "output_layers": [["average_pooling2d_47_insert", 0, 0], ["cropping2d_7", 0, 0], ["batch_normalization_123_insert_1_2", 0, 0]]}, "keras_version": "2.7.0", "backend": "tensorflow"}