{"class_name": "Functional", "config": {"name": "model_1039", "layers": [{"class_name": "InputLayer", "config": {"batch_input_shape": [null, 299, 299, 3], "dtype": "float32", "sparse": false, "ragged": false, "name": "input_134"}, "name": "input_134", "inbound_nodes": []}, {"class_name": "Conv2D", "config": {"name": "block1_conv1", "trainable": true, "dtype": "float32", "filters": 32, "kernel_size": [3, 3], "strides": [2, 2], "padding": "valid", "data_format": "channels_last", "dilation_rate": [1, 1], "groups": 1, "activation": "linear", "use_bias": false, "kernel_initializer": {"class_name": "VarianceScaling", "config": {"scale": 1.0, "mode": "fan_avg", "distribution": "uniform", "seed": null}}, "bias_initializer": {"class_name": "Zeros", "config": {}}, "kernel_regularizer": null, "bias_regularizer": null, "activity_regularizer": null, "kernel_constraint": null, "bias_constraint": null}, "name": "block1_conv1", "inbound_nodes": [[["input_134", 0, 0, {}]]]}, {"class_name": "MaxPooling2D", "config": {"name": "max_pooling2d_267_insert", "trainable": true, "dtype": "float32", "pool_size": [3, 3], "padding": "same", "strides": [2, 2], "data_format": "channels_last"}, "name": "max_pooling2d_267_insert", "inbound_nodes": [[["block1_conv1", 0, 0, {}]]]}, {"class_name": "Conv2D", "config": {"name": "conv2d_769_insert", "trainable": true, "dtype": "float32", "filters": 2, "kernel_size": [3, 3], "strides": [1, 1], "padding": "valid", "data_format": "channels_last", "dilation_rate": [1, 1], "groups": 1, "activation": "linear", "use_bias": false, "kernel_initializer": {"class_name": "VarianceScaling", "config": {"scale": 1.0, "mode": "fan_avg", "distribution": "uniform", "seed": null}}, "bias_initializer": {"class_name": "Zeros", "config": {}}, "kernel_regularizer": null, "bias_regularizer": null, "activity_regularizer": null, "kernel_constraint": null, "bias_constraint": null}, "name": "conv2d_769_insert", "inbound_nodes": [[["max_pooling2d_267_insert", 0, 0, {}]]]}, {"class_name": "SeparableConv2D", "config": {"name": "separable_conv2d_19_insert", "trainable": true, "dtype": "float32", "filters": 2, "kernel_size": [3, 3], "strides": [1, 1], "padding": "same", "data_format": "channels_last", "dilation_rate": [1, 1], "groups": 1, "activation": "linear", "use_bias": false, "kernel_initializer": {"class_name": "GlorotUniform", "config": {"seed": null}}, "bias_initializer": {"class_name": "Zeros", "config": {}, "shared_object_id": 10}, "kernel_regularizer": null, "bias_regularizer": null, "activity_regularizer": null, "kernel_constraint": null, "bias_constraint": null, "depth_multiplier": 1, "depthwise_initializer": {"class_name": "VarianceScaling", "config": {"scale": 1.0, "mode": "fan_avg", "distribution": "uniform", "seed": null}}, "pointwise_initializer": {"class_name": "VarianceScaling", "config": {"scale": 1.0, "mode": "fan_avg", "distribution": "uniform", "seed": null}}, "depthwise_regularizer": null, "pointwise_regularizer": null, "depthwise_constraint": null, "pointwise_constraint": null}, "name": "separable_conv2d_19_insert", "inbound_nodes": [[["conv2d_769_insert", 0, 0, {}]]]}, {"class_name": "BatchNormalization", "config": {"name": "batch_normalization_295_insert", "trainable": true, "dtype": "float32", "axis": [3], "momentum": 0.99, "epsilon": 0.001, "center": true, "scale": true, "beta_initializer": {"class_name": "Zeros", "config": {}}, "gamma_initializer": {"class_name": "Ones", "config": {}}, "moving_mean_initializer": {"class_name": "Zeros", "config": {}}, "moving_variance_initializer": {"class_name": "Ones", "config": {}}, "beta_regularizer": null, "gamma_regularizer": null, "beta_constraint": null, "gamma_constraint": null}, "name": "batch_normalization_295_insert", "inbound_nodes": [[["separable_conv2d_19_insert", 0, 0, {}]]]}, {"class_name": "GlobalAveragePooling2D", "config": {"name": "global_average_pooling2d_227_insert", "trainable": true, "dtype": "float32", "data_format": "channels_last", "keepdims": false}, "name": "global_average_pooling2d_227_insert", "inbound_nodes": [[["batch_normalization_295_insert", 0, 0, {}]]]}, {"class_name": "CustomExpandLayer", "config": {"name": "custom_expand_layer_230_insert", "trainable": true, "dtype": "float32", "axis": 1}, "name": "custom_expand_layer_230_insert", "inbound_nodes": [[["global_average_pooling2d_227_insert", 0, 0, {}]]]}, {"class_name": "CustomExpandLayer", "config": {"name": "custom_expand_layer_231_insert", "trainable": true, "dtype": "float32", "axis": 1}, "name": "custom_expand_layer_231_insert", "inbound_nodes": [[["custom_expand_layer_230_insert", 0, 0, {}]]]}, {"class_name": "Conv2D", "config": {"name": "conv2d_771_insert", "trainable": true, "dtype": "float32", "filters": 1, "kernel_size": [1, 1], "strides": [2, 2], "padding": "same", "data_format": "channels_last", "dilation_rate": [1, 1], "groups": 1, "activation": "linear", "use_bias": false, "kernel_initializer": {"class_name": "VarianceScaling", "config": {"scale": 1.0, "mode": "fan_avg", "distribution": "uniform", "seed": null}}, "bias_initializer": {"class_name": "Zeros", "config": {}}, "kernel_regularizer": null, "bias_regularizer": null, "activity_regularizer": null, "kernel_constraint": null, "bias_constraint": null}, "name": "conv2d_771_insert", "inbound_nodes": [[["custom_expand_layer_231_insert", 0, 0, {}]]]}, {"class_name": "CustomPadLayer", "config": {"name": "custom_pad_layer_92", "trainable": true, "dtype": "float32", "padding": [[8, 9], [6, 6], [3, 3]], "constant_values": 2}, "name": "custom_pad_layer_92", "inbound_nodes": [[["conv2d_771_insert", 0, 0, {}]]]}, {"class_name": "Conv2D", "config": {"name": "conv2d_773_insert", "trainable": true, "dtype": "float32", "filters": 7, "kernel_size": [3, 3], "strides": [1, 1], "padding": "valid", "data_format": "channels_last", "dilation_rate": [1, 1], "groups": 1, "activation": "linear", "use_bias": false, "kernel_initializer": {"class_name": "VarianceScaling", "config": {"scale": 1.0, "mode": "fan_avg", "distribution": "uniform", "seed": null}}, "bias_initializer": {"class_name": "Zeros", "config": {}}, "kernel_regularizer": null, "bias_regularizer": null, "activity_regularizer": null, "kernel_constraint": null, "bias_constraint": null}, "name": "conv2d_773_insert", "inbound_nodes": [[["custom_pad_layer_92", 0, 0, {}]]]}, {"class_name": "CustomPadLayer", "config": {"name": "custom_pad_layer_93", "trainable": true, "dtype": "float32", "padding": [[0, 0], [0, 0], [5, 5]], "constant_values": 2}, "name": "custom_pad_layer_93", "inbound_nodes": [[["conv2d_773_insert", 0, 0, {}]]]}, {"class_name": "CustomCropLayer", "config": {"name": "custom_crop_layer_72", "trainable": true, "dtype": "float32", "cropping": [[1, 1], [3, 3], [0, 0]]}, "name": "custom_crop_layer_72", "inbound_nodes": [[["custom_pad_layer_93", 0, 0, {}]]]}, {"class_name": "Conv2D", "config": {"name": "conv2d_775_insert", "trainable": true, "dtype": "float32", "filters": 7, "kernel_size": [3, 3], "strides": [2, 2], "padding": "valid", "data_format": "channels_last", "dilation_rate": [1, 1], "groups": 1, "activation": "linear", "use_bias": false, "kernel_initializer": {"class_name": "VarianceScaling", "config": {"scale": 1.0, "mode": "fan_avg", "distribution": "uniform", "seed": null}}, "bias_initializer": {"class_name": "Zeros", "config": {}}, "kernel_regularizer": null, "bias_regularizer": null, "activity_regularizer": null, "kernel_constraint": null, "bias_constraint": null}, "name": "conv2d_775_insert", "inbound_nodes": [[["custom_crop_layer_72", 0, 0, {}]]]}, {"class_name": "CustomPadLayer", "config": {"name": "custom_pad_layer_94", "trainable": true, "dtype": "float32", "padding": [[1, 2], [2, 2], [2, 2]], "constant_values": 2}, "name": "custom_pad_layer_94", "inbound_nodes": [[["conv2d_775_insert", 0, 0, {}]]]}, {"class_name": "MaxPooling2D", "config": {"name": "max_pooling2d_269_insert", "trainable": true, "dtype": "float32", "pool_size": [3, 3], "padding": "same", "strides": [2, 2], "data_format": "channels_last"}, "name": "max_pooling2d_269_insert", "inbound_nodes": [[["custom_pad_layer_94", 0, 0, {}]]]}, {"class_name": "CustomPadLayer", "config": {"name": "custom_pad_layer_95", "trainable": true, "dtype": "float32", "padding": [[0, 0], [7, 8], [0, 0]], "constant_values": 2}, "name": "custom_pad_layer_95", "inbound_nodes": [[["max_pooling2d_269_insert", 0, 0, {}]]]}, {"class_name": "CustomCropLayer", "config": {"name": "custom_crop_layer_73", "trainable": true, "dtype": "float32", "cropping": [[0, 0], [0, 0], [1, 1]]}, "name": "custom_crop_layer_73", "inbound_nodes": [[["custom_pad_layer_95", 0, 0, {}]]]}, {"class_name": "SeparableConv2D", "config": {"name": "separable_conv2d_21_insert", "trainable": true, "dtype": "float32", "filters": 1, "kernel_size": [3, 3], "strides": [1, 1], "padding": "same", "data_format": "channels_last", "dilation_rate": [1, 1], "groups": 1, "activation": "linear", "use_bias": false, "kernel_initializer": {"class_name": "GlorotUniform", "config": {"seed": null}}, "bias_initializer": {"class_name": "Zeros", "config": {}, "shared_object_id": 39}, "kernel_regularizer": null, "bias_regularizer": null, "activity_regularizer": null, "kernel_constraint": null, "bias_constraint": null, "depth_multiplier": 1, "depthwise_initializer": {"class_name": "VarianceScaling", "config": {"scale": 1.0, "mode": "fan_avg", "distribution": "uniform", "seed": null}}, "pointwise_initializer": {"class_name": "VarianceScaling", "config": {"scale": 1.0, "mode": "fan_avg", "distribution": "uniform", "seed": null}}, "depthwise_regularizer": null, "pointwise_regularizer": null, "depthwise_constraint": null, "pointwise_constraint": null}, "name": "separable_conv2d_21_insert", "inbound_nodes": [[["custom_crop_layer_73", 0, 0, {}]]]}, {"class_name": "CustomPadLayer", "config": {"name": "custom_pad_layer_96", "trainable": true, "dtype": "float32", "padding": [[6, 7], [0, 0], [2, 2]], "constant_values": 2}, "name": "custom_pad_layer_96", "inbound_nodes": [[["separable_conv2d_21_insert", 0, 0, {}]]]}, {"class_name": "CustomCropLayer", "config": {"name": "custom_crop_layer_74", "trainable": true, "dtype": "float32", "cropping": [[0, 0], [4, 5], [0, 0]]}, "name": "custom_crop_layer_74", "inbound_nodes": [[["custom_pad_layer_96", 0, 0, {}]]]}, {"class_name": "MaxPooling2D", "config": {"name": "max_pooling2d_271_insert", "trainable": true, "dtype": "float32", "pool_size": [3, 3], "padding": "same", "strides": [2, 2], "data_format": "channels_last"}, "name": "max_pooling2d_271_insert", "inbound_nodes": [[["custom_crop_layer_74", 0, 0, {}]]]}, {"class_name": "CustomPadLayer", "config": {"name": "custom_pad_layer_97", "trainable": true, "dtype": "float32", "padding": [[1, 1], [6, 6], [3, 3]], "constant_values": 2}, "name": "custom_pad_layer_97", "inbound_nodes": [[["max_pooling2d_271_insert", 0, 0, {}]]]}, {"class_name": "SeparableConv2D", "config": {"name": "separable_conv2d_23_insert", "trainable": true, "dtype": "float32", "filters": 6, "kernel_size": [3, 3], "strides": [1, 1], "padding": "same", "data_format": "channels_last", "dilation_rate": [1, 1], "groups": 1, "activation": "linear", "use_bias": false, "kernel_initializer": {"class_name": "GlorotUniform", "config": {"seed": null}}, "bias_initializer": {"class_name": "Zeros", "config": {}, "shared_object_id": 48}, "kernel_regularizer": null, "bias_regularizer": null, "activity_regularizer": null, "kernel_constraint": null, "bias_constraint": null, "depth_multiplier": 1, "depthwise_initializer": {"class_name": "VarianceScaling", "config": {"scale": 1.0, "mode": "fan_avg", "distribution": "uniform", "seed": null}}, "pointwise_initializer": {"class_name": "VarianceScaling", "config": {"scale": 1.0, "mode": "fan_avg", "distribution": "uniform", "seed": null}}, "depthwise_regularizer": null, "pointwise_regularizer": null, "depthwise_constraint": null, "pointwise_constraint": null}, "name": "separable_conv2d_23_insert", "inbound_nodes": [[["custom_pad_layer_97", 0, 0, {}]]]}, {"class_name": "CustomPadLayer", "config": {"name": "custom_pad_layer_98", "trainable": true, "dtype": "float32", "padding": [[0, 0], [1, 1], [2, 3]], "constant_values": 2}, "name": "custom_pad_layer_98", "inbound_nodes": [[["separable_conv2d_23_insert", 0, 0, {}]]]}, {"class_name": "CustomCropLayer", "config": {"name": "custom_crop_layer_75", "trainable": true, "dtype": "float32", "cropping": [[2, 3], [0, 0], [0, 0]]}, "name": "custom_crop_layer_75", "inbound_nodes": [[["custom_pad_layer_98", 0, 0, {}]]]}, {"class_name": "SeparableConv2D", "config": {"name": "separable_conv2d_25_insert", "trainable": true, "dtype": "float32", "filters": 9, "kernel_size": [3, 3], "strides": [1, 1], "padding": "same", "data_format": "channels_last", "dilation_rate": [1, 1], "groups": 1, "activation": "linear", "use_bias": false, "kernel_initializer": {"class_name": "GlorotUniform", "config": {"seed": null}}, "bias_initializer": {"class_name": "Zeros", "config": {}, "shared_object_id": 55}, "kernel_regularizer": null, "bias_regularizer": null, "activity_regularizer": null, "kernel_constraint": null, "bias_constraint": null, "depth_multiplier": 1, "depthwise_initializer": {"class_name": "VarianceScaling", "config": {"scale": 1.0, "mode": "fan_avg", "distribution": "uniform", "seed": null}}, "pointwise_initializer": {"class_name": "VarianceScaling", "config": {"scale": 1.0, "mode": "fan_avg", "distribution": "uniform", "seed": null}}, "depthwise_regularizer": null, "pointwise_regularizer": null, "depthwise_constraint": null, "pointwise_constraint": null}, "name": "separable_conv2d_25_insert", "inbound_nodes": [[["custom_crop_layer_75", 0, 0, {}]]]}, {"class_name": "CustomPadLayer", "config": {"name": "custom_pad_layer_99", "trainable": true, "dtype": "float32", "padding": [[0, 1], [0, 0], [0, 0]], "constant_values": 2}, "name": "custom_pad_layer_99", "inbound_nodes": [[["separable_conv2d_25_insert", 0, 0, {}]]]}, {"class_name": "CustomCropLayer", "config": {"name": "custom_crop_layer_76", "trainable": true, "dtype": "float32", "cropping": [[0, 0], [2, 3], [0, 0]]}, "name": "custom_crop_layer_76", "inbound_nodes": [[["custom_pad_layer_99", 0, 0, {}]]]}, {"class_name": "BatchNormalization", "config": {"name": "batch_normalization_297_insert_1_merge1", "trainable": true, "dtype": "float32", "axis": [3], "momentum": 0.99, "epsilon": 0.001, "center": true, "scale": true, "beta_initializer": {"class_name": "Zeros", "config": {}}, "gamma_initializer": {"class_name": "Ones", "config": {}}, "moving_mean_initializer": {"class_name": "Zeros", "config": {}}, "moving_variance_initializer": {"class_name": "Ones", "config": {}}, "beta_regularizer": null, "gamma_regularizer": null, "beta_constraint": null, "gamma_constraint": null}, "name": "batch_normalization_297_insert_1_merge1", "inbound_nodes": [[["custom_crop_layer_76", 0, 0, {}]]]}, {"class_name": "Add", "config": {"name": "add_5_copy_ML", "trainable": true, "dtype": "float32"}, "name": "add_5_copy_ML", "inbound_nodes": [[["batch_normalization_297_insert_1_merge1", 0, 0, {}], ["custom_crop_layer_76", 0, 0, {}]]]}, {"class_name": "CustomPadLayer", "config": {"name": "custom_pad_layer_100", "trainable": true, "dtype": "float32", "padding": [[5, 5], [0, 0], [5, 5]], "constant_values": 2}, "name": "custom_pad_layer_100", "inbound_nodes": [[["add_5_copy_ML", 0, 0, {}]]]}, {"class_name": "CustomCropLayer", "config": {"name": "custom_crop_layer_77", "trainable": true, "dtype": "float32", "cropping": [[0, 0], [0, 1], [0, 0]]}, "name": "custom_crop_layer_77", "inbound_nodes": [[["custom_pad_layer_100", 0, 0, {}]]]}, {"class_name": "BatchNormalization", "config": {"name": "batch_normalization_299_insert", "trainable": true, "dtype": "float32", "axis": [3], "momentum": 0.99, "epsilon": 0.001, "center": true, "scale": true, "beta_initializer": {"class_name": "Zeros", "config": {}}, "gamma_initializer": {"class_name": "Ones", "config": {}}, "moving_mean_initializer": {"class_name": "Zeros", "config": {}}, "moving_variance_initializer": {"class_name": "Ones", "config": {}}, "beta_regularizer": null, "gamma_regularizer": null, "beta_constraint": null, "gamma_constraint": null}, "name": "batch_normalization_299_insert", "inbound_nodes": [[["custom_crop_layer_77", 0, 0, {}]]]}, {"class_name": "CustomPadLayer", "config": {"name": "custom_pad_layer_101", "trainable": true, "dtype": "float32", "padding": [[0, 0], [2, 3], [0, 0]], "constant_values": 2}, "name": "custom_pad_layer_101", "inbound_nodes": [[["batch_normalization_299_insert", 0, 0, {}]]]}, {"class_name": "CustomCropLayer", "config": {"name": "custom_crop_layer_78", "trainable": true, "dtype": "float32", "cropping": [[2, 2], [0, 0], [4, 5]]}, "name": "custom_crop_layer_78", "inbound_nodes": [[["custom_pad_layer_101", 0, 0, {}]]]}, {"class_name": "BatchNormalization", "config": {"name": "batch_normalization_301_insert", "trainable": true, "dtype": "float32", "axis": [3], "momentum": 0.99, "epsilon": 0.001, "center": true, "scale": true, "beta_initializer": {"class_name": "Zeros", "config": {}}, "gamma_initializer": {"class_name": "Ones", "config": {}}, "moving_mean_initializer": {"class_name": "Zeros", "config": {}}, "moving_variance_initializer": {"class_name": "Ones", "config": {}}, "beta_regularizer": null, "gamma_regularizer": null, "beta_constraint": null, "gamma_constraint": null}, "name": "batch_normalization_301_insert", "inbound_nodes": [[["custom_crop_layer_78", 0, 0, {}]]]}, {"class_name": "CustomCropLayer", "config": {"name": "custom_crop_layer_79", "trainable": true, "dtype": "float32", "cropping": [[1, 1], [4, 4], [1, 1]]}, "name": "custom_crop_layer_79", "inbound_nodes": [[["batch_normalization_301_insert", 0, 0, {}]]]}, {"class_name": "MaxPooling2D", "config": {"name": "max_pooling2d_273_insert_1", "trainable": true, "dtype": "float32", "pool_size": [3, 3], "padding": "same", "strides": [2, 2], "data_format": "channels_last"}, "name": "max_pooling2d_273_insert_1", "inbound_nodes": [[["custom_crop_layer_79", 0, 0, {}]]]}, {"class_name": "CustomPadLayer", "config": {"name": "custom_pad_layer_102", "trainable": true, "dtype": "float32", "padding": [[5, 6], [7, 7], [2, 2]], "constant_values": 2}, "name": "custom_pad_layer_102", "inbound_nodes": [[["max_pooling2d_273_insert_1", 0, 0, {}]]]}, {"class_name": "SeparableConv2D", "config": {"name": "separable_conv2d_27_insert", "trainable": true, "dtype": "float32", "filters": 6, "kernel_size": [3, 3], "strides": [1, 1], "padding": "same", "data_format": "channels_last", "dilation_rate": [1, 1], "groups": 1, "activation": "linear", "use_bias": false, "kernel_initializer": {"class_name": "GlorotUniform", "config": {"seed": null}}, "bias_initializer": {"class_name": "Zeros", "config": {}, "shared_object_id": 85}, "kernel_regularizer": null, "bias_regularizer": null, "activity_regularizer": null, "kernel_constraint": null, "bias_constraint": null, "depth_multiplier": 1, "depthwise_initializer": {"class_name": "VarianceScaling", "config": {"scale": 1.0, "mode": "fan_avg", "distribution": "uniform", "seed": null}}, "pointwise_initializer": {"class_name": "VarianceScaling", "config": {"scale": 1.0, "mode": "fan_avg", "distribution": "uniform", "seed": null}}, "depthwise_regularizer": null, "pointwise_regularizer": null, "depthwise_constraint": null, "pointwise_constraint": null}, "name": "separable_conv2d_27_insert", "inbound_nodes": [[["custom_pad_layer_102", 0, 0, {}]]]}, {"class_name": "CustomPadLayer", "config": {"name": "custom_pad_layer_103", "trainable": true, "dtype": "float32", "padding": [[0, 0], [0, 0], [3, 3]], "constant_values": 2}, "name": "custom_pad_layer_103", "inbound_nodes": [[["separable_conv2d_27_insert", 0, 0, {}]]]}, {"class_name": "CustomCropLayer", "config": {"name": "custom_crop_layer_80", "trainable": true, "dtype": "float32", "cropping": [[1, 2], [4, 4], [0, 0]]}, "name": "custom_crop_layer_80", "inbound_nodes": [[["custom_pad_layer_103", 0, 0, {}]]]}, {"class_name": "BatchNormalization", "config": {"name": "batch_normalization_297_insert_2", "trainable": true, "dtype": "float32", "axis": [3], "momentum": 0.99, "epsilon": 0.001, "center": true, "scale": true, "beta_initializer": {"class_name": "Zeros", "config": {}}, "gamma_initializer": {"class_name": "Ones", "config": {}}, "moving_mean_initializer": {"class_name": "Zeros", "config": {}}, "moving_variance_initializer": {"class_name": "Ones", "config": {}}, "beta_regularizer": null, "gamma_regularizer": null, "beta_constraint": null, "gamma_constraint": null}, "name": "batch_normalization_297_insert_2", "inbound_nodes": [[["conv2d_773_insert", 0, 0, {}]]]}, {"class_name": "BatchNormalization", "config": {"name": "batch_normalization_303_insert", "trainable": true, "dtype": "float32", "axis": [3], "momentum": 0.99, "epsilon": 0.001, "center": true, "scale": true, "beta_initializer": {"class_name": "Zeros", "config": {}}, "gamma_initializer": {"class_name": "Ones", "config": {}}, "moving_mean_initializer": {"class_name": "Zeros", "config": {}}, "moving_variance_initializer": {"class_name": "Ones", "config": {}}, "beta_regularizer": null, "gamma_regularizer": null, "beta_constraint": null, "gamma_constraint": null}, "name": "batch_normalization_303_insert", "inbound_nodes": [[["custom_crop_layer_80", 0, 0, {}]]]}, {"class_name": "MaxPooling2D", "config": {"name": "max_pooling2d_273_insert_2", "trainable": true, "dtype": "float32", "pool_size": [3, 3], "padding": "same", "strides": [2, 2], "data_format": "channels_last"}, "name": "max_pooling2d_273_insert_2", "inbound_nodes": [[["batch_normalization_297_insert_2", 0, 0, {}]]]}], "input_layers": [["input_134", 0, 0]], "output_layers": [["batch_normalization_303_insert", 0, 0], ["max_pooling2d_273_insert_2", 0, 0]]}, "keras_version": "2.7.0", "backend": "tensorflow"}