{"class_name": "Functional", "config": {"name": "model_6434", "layers": [{"class_name": "InputLayer", "config": {"batch_input_shape": [null, 299, 299, 3], "dtype": "float32", "sparse": false, "ragged": false, "name": "input_823"}, "name": "input_823", "inbound_nodes": []}, {"class_name": "Conv2D", "config": {"name": "conv2d_1", "trainable": true, "dtype": "float32", "filters": 32, "kernel_size": [3, 3], "strides": [2, 2], "padding": "valid", "data_format": "channels_last", "dilation_rate": [1, 1], "groups": 1, "activation": "linear", "use_bias": false, "kernel_initializer": {"class_name": "VarianceScaling", "config": {"scale": 1.0, "mode": "fan_avg", "distribution": "uniform", "seed": null}}, "bias_initializer": {"class_name": "Zeros", "config": {}}, "kernel_regularizer": null, "bias_regularizer": null, "activity_regularizer": null, "kernel_constraint": null, "bias_constraint": null}, "name": "conv2d_1", "inbound_nodes": [[["input_823", 0, 0, {}]]]}, {"class_name": "MaxPooling2D", "config": {"name": "max_pooling2d_1505_insert", "trainable": true, "dtype": "float32", "pool_size": [3, 3], "padding": "valid", "strides": [2, 2], "data_format": "channels_last"}, "name": "max_pooling2d_1505_insert", "inbound_nodes": [[["conv2d_1", 0, 0, {}]]]}, {"class_name": "Conv2D", "config": {"name": "conv2d_4439_insert", "trainable": true, "dtype": "float32", "filters": 8, "kernel_size": [3, 3], "strides": [1, 1], "padding": "valid", "data_format": "channels_last", "dilation_rate": [1, 1], "groups": 1, "activation": "linear", "use_bias": false, "kernel_initializer": {"class_name": "VarianceScaling", "config": {"scale": 1.0, "mode": "fan_avg", "distribution": "uniform", "seed": null}}, "bias_initializer": {"class_name": "Zeros", "config": {}}, "kernel_regularizer": null, "bias_regularizer": null, "activity_regularizer": null, "kernel_constraint": null, "bias_constraint": null}, "name": "conv2d_4439_insert", "inbound_nodes": [[["max_pooling2d_1505_insert", 0, 0, {}]]]}, {"class_name": "BatchNormalization", "config": {"name": "batch_normalization_1863_insert", "trainable": true, "dtype": "float32", "axis": [3], "momentum": 0.99, "epsilon": 0.001, "center": true, "scale": false, "beta_initializer": {"class_name": "Zeros", "config": {}}, "gamma_initializer": {"class_name": "Ones", "config": {}}, "moving_mean_initializer": {"class_name": "Zeros", "config": {}}, "moving_variance_initializer": {"class_name": "Ones", "config": {}}, "beta_regularizer": null, "gamma_regularizer": null, "beta_constraint": null, "gamma_constraint": null}, "name": "batch_normalization_1863_insert", "inbound_nodes": [[["conv2d_4439_insert", 0, 0, {}]]]}, {"class_name": "GlobalAveragePooling2D", "config": {"name": "global_average_pooling2d_1379_insert", "trainable": true, "dtype": "float32", "data_format": "channels_last", "keepdims": false}, "name": "global_average_pooling2d_1379_insert", "inbound_nodes": [[["batch_normalization_1863_insert", 0, 0, {}]]]}, {"class_name": "CustomExpandLayer", "config": {"name": "custom_expand_layer_1405_insert", "trainable": true, "dtype": "float32", "axis": 1}, "name": "custom_expand_layer_1405_insert", "inbound_nodes": [[["global_average_pooling2d_1379_insert", 0, 0, {}]]]}, {"class_name": "CustomExpandLayer", "config": {"name": "custom_expand_layer_1406_insert", "trainable": true, "dtype": "float32", "axis": 1}, "name": "custom_expand_layer_1406_insert", "inbound_nodes": [[["custom_expand_layer_1405_insert", 0, 0, {}]]]}, {"class_name": "AveragePooling2D", "config": {"name": "average_pooling2d_1055_insert", "trainable": true, "dtype": "float32", "pool_size": [3, 3], "padding": "same", "strides": [1, 1], "data_format": "channels_last"}, "name": "average_pooling2d_1055_insert", "inbound_nodes": [[["custom_expand_layer_1406_insert", 0, 0, {}]]]}, {"class_name": "Conv2D", "config": {"name": "conv2d_4441_insert", "trainable": true, "dtype": "float32", "filters": 5, "kernel_size": [1, 1], "strides": [1, 1], "padding": "valid", "data_format": "channels_last", "dilation_rate": [1, 1], "groups": 1, "activation": "linear", "use_bias": false, "kernel_initializer": {"class_name": "VarianceScaling", "config": {"scale": 1.0, "mode": "fan_avg", "distribution": "uniform", "seed": null}}, "bias_initializer": {"class_name": "Zeros", "config": {}}, "kernel_regularizer": null, "bias_regularizer": null, "activity_regularizer": null, "kernel_constraint": null, "bias_constraint": null}, "name": "conv2d_4441_insert", "inbound_nodes": [[["average_pooling2d_1055_insert", 0, 0, {}]]]}, {"class_name": "Conv2D", "config": {"name": "conv2d_4443_insert", "trainable": true, "dtype": "float32", "filters": 4, "kernel_size": [1, 3], "strides": [1, 1], "padding": "same", "data_format": "channels_last", "dilation_rate": [1, 1], "groups": 1, "activation": "linear", "use_bias": false, "kernel_initializer": {"class_name": "VarianceScaling", "config": {"scale": 1.0, "mode": "fan_avg", "distribution": "uniform", "seed": null}}, "bias_initializer": {"class_name": "Zeros", "config": {}}, "kernel_regularizer": null, "bias_regularizer": null, "activity_regularizer": null, "kernel_constraint": null, "bias_constraint": null}, "name": "conv2d_4443_insert", "inbound_nodes": [[["conv2d_4441_insert", 0, 0, {}]]]}, {"class_name": "Conv2D", "config": {"name": "conv2d_4445_insert", "trainable": true, "dtype": "float32", "filters": 9, "kernel_size": [7, 1], "strides": [1, 1], "padding": "same", "data_format": "channels_last", "dilation_rate": [1, 1], "groups": 1, "activation": "linear", "use_bias": false, "kernel_initializer": {"class_name": "VarianceScaling", "config": {"scale": 1.0, "mode": "fan_avg", "distribution": "uniform", "seed": null}}, "bias_initializer": {"class_name": "Zeros", "config": {}}, "kernel_regularizer": null, "bias_regularizer": null, "activity_regularizer": null, "kernel_constraint": null, "bias_constraint": null}, "name": "conv2d_4445_insert", "inbound_nodes": [[["conv2d_4443_insert", 0, 0, {}]]]}, {"class_name": "Conv2D", "config": {"name": "conv2d_4447_insert", "trainable": true, "dtype": "float32", "filters": 7, "kernel_size": [3, 1], "strides": [1, 1], "padding": "same", "data_format": "channels_last", "dilation_rate": [1, 1], "groups": 1, "activation": "linear", "use_bias": false, "kernel_initializer": {"class_name": "VarianceScaling", "config": {"scale": 1.0, "mode": "fan_avg", "distribution": "uniform", "seed": null}}, "bias_initializer": {"class_name": "Zeros", "config": {}}, "kernel_regularizer": null, "bias_regularizer": null, "activity_regularizer": null, "kernel_constraint": null, "bias_constraint": null}, "name": "conv2d_4447_insert", "inbound_nodes": [[["conv2d_4445_insert", 0, 0, {}]]]}, {"class_name": "Conv2D", "config": {"name": "conv2d_4449_insert", "trainable": true, "dtype": "float32", "filters": 5, "kernel_size": [1, 1], "strides": [1, 1], "padding": "same", "data_format": "channels_last", "dilation_rate": [1, 1], "groups": 1, "activation": "linear", "use_bias": false, "kernel_initializer": {"class_name": "VarianceScaling", "config": {"scale": 1.0, "mode": "fan_avg", "distribution": "uniform", "seed": null}}, "bias_initializer": {"class_name": "Zeros", "config": {}}, "kernel_regularizer": null, "bias_regularizer": null, "activity_regularizer": null, "kernel_constraint": null, "bias_constraint": null}, "name": "conv2d_4449_insert", "inbound_nodes": [[["conv2d_4447_insert", 0, 0, {}]]]}, {"class_name": "Conv2D", "config": {"name": "conv2d_4451_insert", "trainable": true, "dtype": "float32", "filters": 2, "kernel_size": [5, 5], "strides": [1, 1], "padding": "same", "data_format": "channels_last", "dilation_rate": [1, 1], "groups": 1, "activation": "linear", "use_bias": false, "kernel_initializer": {"class_name": "VarianceScaling", "config": {"scale": 1.0, "mode": "fan_avg", "distribution": "uniform", "seed": null}}, "bias_initializer": {"class_name": "Zeros", "config": {}}, "kernel_regularizer": null, "bias_regularizer": null, "activity_regularizer": null, "kernel_constraint": null, "bias_constraint": null}, "name": "conv2d_4451_insert", "inbound_nodes": [[["conv2d_4449_insert", 0, 0, {}]]]}, {"class_name": "Conv2D", "config": {"name": "conv2d_4453_insert", "trainable": true, "dtype": "float32", "filters": 3, "kernel_size": [3, 3], "strides": [1, 1], "padding": "same", "data_format": "channels_last", "dilation_rate": [1, 1], "groups": 1, "activation": "linear", "use_bias": false, "kernel_initializer": {"class_name": "VarianceScaling", "config": {"scale": 1.0, "mode": "fan_avg", "distribution": "uniform", "seed": null}}, "bias_initializer": {"class_name": "Zeros", "config": {}}, "kernel_regularizer": null, "bias_regularizer": null, "activity_regularizer": null, "kernel_constraint": null, "bias_constraint": null}, "name": "conv2d_4453_insert", "inbound_nodes": [[["conv2d_4451_insert", 0, 0, {}]]]}, {"class_name": "Conv2D", "config": {"name": "conv2d_4455_insert", "trainable": true, "dtype": "float32", "filters": 9, "kernel_size": [1, 7], "strides": [1, 1], "padding": "same", "data_format": "channels_last", "dilation_rate": [1, 1], "groups": 1, "activation": "linear", "use_bias": false, "kernel_initializer": {"class_name": "VarianceScaling", "config": {"scale": 1.0, "mode": "fan_avg", "distribution": "uniform", "seed": null}}, "bias_initializer": {"class_name": "Zeros", "config": {}}, "kernel_regularizer": null, "bias_regularizer": null, "activity_regularizer": null, "kernel_constraint": null, "bias_constraint": null}, "name": "conv2d_4455_insert", "inbound_nodes": [[["conv2d_4453_insert", 0, 0, {}]]]}, {"class_name": "CustomPadLayer", "config": {"name": "custom_pad_layer_768", "trainable": true, "dtype": "float32", "padding": [[5, 6], [2, 2], [0, 0]], "constant_values": 2}, "name": "custom_pad_layer_768", "inbound_nodes": [[["conv2d_4455_insert", 0, 0, {}]]]}, {"class_name": "CustomCropLayer", "config": {"name": "custom_crop_layer_573", "trainable": true, "dtype": "float32", "cropping": [[0, 0], [0, 0], [1, 2]]}, "name": "custom_crop_layer_573", "inbound_nodes": [[["custom_pad_layer_768", 0, 0, {}]]]}, {"class_name": "BatchNormalization", "config": {"name": "batch_normalization_1865_insert", "trainable": true, "dtype": "float32", "axis": [3], "momentum": 0.99, "epsilon": 0.001, "center": true, "scale": false, "beta_initializer": {"class_name": "Zeros", "config": {}}, "gamma_initializer": {"class_name": "Ones", "config": {}}, "moving_mean_initializer": {"class_name": "Zeros", "config": {}}, "moving_variance_initializer": {"class_name": "Ones", "config": {}}, "beta_regularizer": null, "gamma_regularizer": null, "beta_constraint": null, "gamma_constraint": null}, "name": "batch_normalization_1865_insert", "inbound_nodes": [[["custom_crop_layer_573", 0, 0, {}]]]}, {"class_name": "CustomPadLayer", "config": {"name": "custom_pad_layer_769", "trainable": true, "dtype": "float32", "padding": [[0, 0], [6, 7], [0, 1]], "constant_values": 2}, "name": "custom_pad_layer_769", "inbound_nodes": [[["batch_normalization_1865_insert", 0, 0, {}]]]}, {"class_name": "CustomCropLayer", "config": {"name": "custom_crop_layer_574", "trainable": true, "dtype": "float32", "cropping": [[3, 4], [0, 0], [0, 0]]}, "name": "custom_crop_layer_574", "inbound_nodes": [[["custom_pad_layer_769", 0, 0, {}]]]}, {"class_name": "MaxPooling2D", "config": {"name": "max_pooling2d_1507_insert", "trainable": true, "dtype": "float32", "pool_size": [3, 3], "padding": "valid", "strides": [2, 2], "data_format": "channels_last"}, "name": "max_pooling2d_1507_insert", "inbound_nodes": [[["custom_crop_layer_574", 0, 0, {}]]]}, {"class_name": "CustomPadLayer", "config": {"name": "custom_pad_layer_770", "trainable": true, "dtype": "float32", "padding": [[7, 8], [5, 6], [5, 6]], "constant_values": 2}, "name": "custom_pad_layer_770", "inbound_nodes": [[["max_pooling2d_1507_insert", 0, 0, {}]]]}, {"class_name": "AveragePooling2D", "config": {"name": "average_pooling2d_1057_insert", "trainable": true, "dtype": "float32", "pool_size": [3, 3], "padding": "same", "strides": [1, 1], "data_format": "channels_last"}, "name": "average_pooling2d_1057_insert", "inbound_nodes": [[["custom_pad_layer_770", 0, 0, {}]]]}, {"class_name": "CustomPadLayer", "config": {"name": "custom_pad_layer_771", "trainable": true, "dtype": "float32", "padding": [[1, 1], [0, 0], [0, 0]], "constant_values": 2}, "name": "custom_pad_layer_771", "inbound_nodes": [[["average_pooling2d_1057_insert", 0, 0, {}]]]}, {"class_name": "CustomCropLayer", "config": {"name": "custom_crop_layer_575", "trainable": true, "dtype": "float32", "cropping": [[0, 0], [1, 2], [0, 1]]}, "name": "custom_crop_layer_575", "inbound_nodes": [[["custom_pad_layer_771", 0, 0, {}]]]}, {"class_name": "AveragePooling2D", "config": {"name": "average_pooling2d_1059_insert", "trainable": true, "dtype": "float32", "pool_size": [3, 3], "padding": "same", "strides": [1, 1], "data_format": "channels_last"}, "name": "average_pooling2d_1059_insert", "inbound_nodes": [[["custom_crop_layer_575", 0, 0, {}]]]}, {"class_name": "CustomPadLayer", "config": {"name": "custom_pad_layer_772", "trainable": true, "dtype": "float32", "padding": [[0, 0], [0, 1], [0, 0]], "constant_values": 2}, "name": "custom_pad_layer_772", "inbound_nodes": [[["average_pooling2d_1059_insert", 0, 0, {}]]]}, {"class_name": "CustomCropLayer", "config": {"name": "custom_crop_layer_576", "trainable": true, "dtype": "float32", "cropping": [[7, 7], [0, 0], [5, 5]]}, "name": "custom_crop_layer_576", "inbound_nodes": [[["custom_pad_layer_772", 0, 0, {}]]]}, {"class_name": "MaxPooling2D", "config": {"name": "max_pooling2d_1509_insert", "trainable": true, "dtype": "float32", "pool_size": [3, 3], "padding": "valid", "strides": [2, 2], "data_format": "channels_last"}, "name": "max_pooling2d_1509_insert", "inbound_nodes": [[["custom_crop_layer_576", 0, 0, {}]]]}, {"class_name": "CustomPadLayer", "config": {"name": "custom_pad_layer_773", "trainable": true, "dtype": "float32", "padding": [[2, 2], [0, 0], [3, 4]], "constant_values": 2}, "name": "custom_pad_layer_773", "inbound_nodes": [[["max_pooling2d_1509_insert", 0, 0, {}]]]}, {"class_name": "CustomCropLayer", "config": {"name": "custom_crop_layer_577", "trainable": true, "dtype": "float32", "cropping": [[0, 0], [1, 1], [0, 0]]}, "name": "custom_crop_layer_577", "inbound_nodes": [[["custom_pad_layer_773", 0, 0, {}]]]}, {"class_name": "AveragePooling2D", "config": {"name": "average_pooling2d_1061_insert", "trainable": true, "dtype": "float32", "pool_size": [3, 3], "padding": "same", "strides": [1, 1], "data_format": "channels_last"}, "name": "average_pooling2d_1061_insert", "inbound_nodes": [[["custom_crop_layer_577", 0, 0, {}]]]}, {"class_name": "CustomPadLayer", "config": {"name": "custom_pad_layer_774", "trainable": true, "dtype": "float32", "padding": [[1, 1], [4, 4], [0, 0]], "constant_values": 2}, "name": "custom_pad_layer_774", "inbound_nodes": [[["average_pooling2d_1061_insert", 0, 0, {}]]]}, {"class_name": "CustomCropLayer", "config": {"name": "custom_crop_layer_578", "trainable": true, "dtype": "float32", "cropping": [[0, 0], [0, 0], [1, 2]]}, "name": "custom_crop_layer_578", "inbound_nodes": [[["custom_pad_layer_774", 0, 0, {}]]]}, {"class_name": "BatchNormalization", "config": {"name": "batch_normalization_1867_insert", "trainable": true, "dtype": "float32", "axis": [3], "momentum": 0.99, "epsilon": 0.001, "center": true, "scale": false, "beta_initializer": {"class_name": "Zeros", "config": {}}, "gamma_initializer": {"class_name": "Ones", "config": {}}, "moving_mean_initializer": {"class_name": "Zeros", "config": {}}, "moving_variance_initializer": {"class_name": "Ones", "config": {}}, "beta_regularizer": null, "gamma_regularizer": null, "beta_constraint": null, "gamma_constraint": null}, "name": "batch_normalization_1867_insert", "inbound_nodes": [[["custom_crop_layer_578", 0, 0, {}]]]}, {"class_name": "CustomPadLayer", "config": {"name": "custom_pad_layer_775", "trainable": true, "dtype": "float32", "padding": [[4, 4], [0, 1], [0, 0]], "constant_values": 2}, "name": "custom_pad_layer_775", "inbound_nodes": [[["batch_normalization_1867_insert", 0, 0, {}]]]}, {"class_name": "CustomCropLayer", "config": {"name": "custom_crop_layer_579", "trainable": true, "dtype": "float32", "cropping": [[0, 0], [0, 0], [1, 1]]}, "name": "custom_crop_layer_579", "inbound_nodes": [[["custom_pad_layer_775", 0, 0, {}]]]}, {"class_name": "MaxPooling2D", "config": {"name": "max_pooling2d_1511_insert", "trainable": true, "dtype": "float32", "pool_size": [3, 3], "padding": "valid", "strides": [2, 2], "data_format": "channels_last"}, "name": "max_pooling2d_1511_insert", "inbound_nodes": [[["custom_crop_layer_579", 0, 0, {}]]]}, {"class_name": "CustomPadLayer", "config": {"name": "custom_pad_layer_776", "trainable": true, "dtype": "float32", "padding": [[0, 1], [3, 4], [0, 0]], "constant_values": 2}, "name": "custom_pad_layer_776", "inbound_nodes": [[["max_pooling2d_1511_insert", 0, 0, {}]]]}, {"class_name": "CustomCropLayer", "config": {"name": "custom_crop_layer_580", "trainable": true, "dtype": "float32", "cropping": [[0, 0], [0, 0], [1, 1]]}, "name": "custom_crop_layer_580", "inbound_nodes": [[["custom_pad_layer_776", 0, 0, {}]]]}, {"class_name": "AveragePooling2D", "config": {"name": "average_pooling2d_1063_insert_1", "trainable": true, "dtype": "float32", "pool_size": [3, 3], "padding": "same", "strides": [1, 1], "data_format": "channels_last"}, "name": "average_pooling2d_1063_insert_1", "inbound_nodes": [[["custom_crop_layer_580", 0, 0, {}]]]}, {"class_name": "CustomPadLayer", "config": {"name": "custom_pad_layer_777", "trainable": true, "dtype": "float32", "padding": [[0, 0], [0, 0], [4, 5]], "constant_values": 2}, "name": "custom_pad_layer_777", "inbound_nodes": [[["average_pooling2d_1063_insert_1", 0, 0, {}]]]}, {"class_name": "CustomCropLayer", "config": {"name": "custom_crop_layer_581", "trainable": true, "dtype": "float32", "cropping": [[1, 2], [3, 3], [0, 0]]}, "name": "custom_crop_layer_581", "inbound_nodes": [[["custom_pad_layer_777", 0, 0, {}]]]}, {"class_name": "BatchNormalization", "config": {"name": "batch_normalization_1869_insert", "trainable": true, "dtype": "float32", "axis": [3], "momentum": 0.99, "epsilon": 0.001, "center": true, "scale": false, "beta_initializer": {"class_name": "Zeros", "config": {}}, "gamma_initializer": {"class_name": "Ones", "config": {}}, "moving_mean_initializer": {"class_name": "Zeros", "config": {}}, "moving_variance_initializer": {"class_name": "Ones", "config": {}}, "beta_regularizer": null, "gamma_regularizer": null, "beta_constraint": null, "gamma_constraint": null}, "name": "batch_normalization_1869_insert", "inbound_nodes": [[["custom_crop_layer_581", 0, 0, {}]]]}, {"class_name": "CustomPadLayer", "config": {"name": "custom_pad_layer_778", "trainable": true, "dtype": "float32", "padding": [[4, 4], [0, 0], [0, 0]], "constant_values": 2}, "name": "custom_pad_layer_778", "inbound_nodes": [[["batch_normalization_1869_insert", 0, 0, {}]]]}, {"class_name": "CustomCropLayer", "config": {"name": "custom_crop_layer_582", "trainable": true, "dtype": "float32", "cropping": [[0, 0], [1, 2], [1, 1]]}, "name": "custom_crop_layer_582", "inbound_nodes": [[["custom_pad_layer_778", 0, 0, {}]]]}, {"class_name": "AveragePooling2D", "config": {"name": "average_pooling2d_1063_insert_2_merge1", "trainable": true, "dtype": "float32", "pool_size": [3, 3], "padding": "same", "strides": [1, 1], "data_format": "channels_last"}, "name": "average_pooling2d_1063_insert_2_merge1", "inbound_nodes": [[["max_pooling2d_1511_insert", 0, 0, {}]]]}, {"class_name": "BatchNormalization", "config": {"name": "batch_normalization_1871_insert", "trainable": true, "dtype": "float32", "axis": [3], "momentum": 0.99, "epsilon": 0.001, "center": true, "scale": false, "beta_initializer": {"class_name": "Zeros", "config": {}}, "gamma_initializer": {"class_name": "Ones", "config": {}}, "moving_mean_initializer": {"class_name": "Zeros", "config": {}}, "moving_variance_initializer": {"class_name": "Ones", "config": {}}, "beta_regularizer": null, "gamma_regularizer": null, "beta_constraint": null, "gamma_constraint": null}, "name": "batch_normalization_1871_insert", "inbound_nodes": [[["custom_crop_layer_582", 0, 0, {}]]]}, {"class_name": "Concatenate", "config": {"name": "concatenate_41_copy_ML", "trainable": true, "dtype": "float32", "axis": 3}, "name": "concatenate_41_copy_ML", "inbound_nodes": [[["average_pooling2d_1063_insert_2_merge1", 0, 0, {}], ["max_pooling2d_1511_insert", 0, 0, {}]]]}], "input_layers": [["input_823", 0, 0]], "output_layers": [["batch_normalization_1871_insert", 0, 0], ["concatenate_41_copy_ML", 0, 0]]}, "keras_version": "2.7.0", "backend": "tensorflow"}