{"class_name": "Functional", "config": {"name": "model_6270", "layers": [{"class_name": "InputLayer", "config": {"batch_input_shape": [null, 299, 299, 3], "dtype": "float32", "sparse": false, "ragged": false, "name": "input_802"}, "name": "input_802", "inbound_nodes": []}, {"class_name": "Conv2D", "config": {"name": "conv2d_1", "trainable": true, "dtype": "float32", "filters": 32, "kernel_size": [3, 3], "strides": [2, 2], "padding": "valid", "data_format": "channels_last", "dilation_rate": [1, 1], "groups": 1, "activation": "linear", "use_bias": false, "kernel_initializer": {"class_name": "VarianceScaling", "config": {"scale": 1.0, "mode": "fan_avg", "distribution": "uniform", "seed": null}}, "bias_initializer": {"class_name": "Zeros", "config": {}}, "kernel_regularizer": null, "bias_regularizer": null, "activity_regularizer": null, "kernel_constraint": null, "bias_constraint": null}, "name": "conv2d_1", "inbound_nodes": [[["input_802", 0, 0, {}]]]}, {"class_name": "MaxPooling2D", "config": {"name": "max_pooling2d_1463_insert", "trainable": true, "dtype": "float32", "pool_size": [3, 3], "padding": "valid", "strides": [2, 2], "data_format": "channels_last"}, "name": "max_pooling2d_1463_insert", "inbound_nodes": [[["conv2d_1", 0, 0, {}]]]}, {"class_name": "AveragePooling2D", "config": {"name": "average_pooling2d_1021_insert", "trainable": true, "dtype": "float32", "pool_size": [3, 3], "padding": "same", "strides": [1, 1], "data_format": "channels_last"}, "name": "average_pooling2d_1021_insert", "inbound_nodes": [[["max_pooling2d_1463_insert", 0, 0, {}]]]}, {"class_name": "Conv2D", "config": {"name": "conv2d_4285_insert", "trainable": true, "dtype": "float32", "filters": 4, "kernel_size": [3, 3], "strides": [1, 1], "padding": "valid", "data_format": "channels_last", "dilation_rate": [1, 1], "groups": 1, "activation": "linear", "use_bias": false, "kernel_initializer": {"class_name": "VarianceScaling", "config": {"scale": 1.0, "mode": "fan_avg", "distribution": "uniform", "seed": null}}, "bias_initializer": {"class_name": "Zeros", "config": {}}, "kernel_regularizer": null, "bias_regularizer": null, "activity_regularizer": null, "kernel_constraint": null, "bias_constraint": null}, "name": "conv2d_4285_insert", "inbound_nodes": [[["average_pooling2d_1021_insert", 0, 0, {}]]]}, {"class_name": "GlobalAveragePooling2D", "config": {"name": "global_average_pooling2d_1337_insert", "trainable": true, "dtype": "float32", "data_format": "channels_last", "keepdims": false}, "name": "global_average_pooling2d_1337_insert", "inbound_nodes": [[["conv2d_4285_insert", 0, 0, {}]]]}, {"class_name": "CustomExpandLayer", "config": {"name": "custom_expand_layer_1371_insert", "trainable": true, "dtype": "float32", "axis": 1}, "name": "custom_expand_layer_1371_insert", "inbound_nodes": [[["global_average_pooling2d_1337_insert", 0, 0, {}]]]}, {"class_name": "CustomExpandLayer", "config": {"name": "custom_expand_layer_1372_insert", "trainable": true, "dtype": "float32", "axis": 1}, "name": "custom_expand_layer_1372_insert", "inbound_nodes": [[["custom_expand_layer_1371_insert", 0, 0, {}]]]}, {"class_name": "Conv2D", "config": {"name": "conv2d_4287_insert", "trainable": true, "dtype": "float32", "filters": 8, "kernel_size": [5, 5], "strides": [1, 1], "padding": "same", "data_format": "channels_last", "dilation_rate": [1, 1], "groups": 1, "activation": "linear", "use_bias": false, "kernel_initializer": {"class_name": "VarianceScaling", "config": {"scale": 1.0, "mode": "fan_avg", "distribution": "uniform", "seed": null}}, "bias_initializer": {"class_name": "Zeros", "config": {}}, "kernel_regularizer": null, "bias_regularizer": null, "activity_regularizer": null, "kernel_constraint": null, "bias_constraint": null}, "name": "conv2d_4287_insert", "inbound_nodes": [[["custom_expand_layer_1372_insert", 0, 0, {}]]]}, {"class_name": "BatchNormalization", "config": {"name": "batch_normalization_1819_insert", "trainable": true, "dtype": "float32", "axis": [3], "momentum": 0.99, "epsilon": 0.001, "center": true, "scale": false, "beta_initializer": {"class_name": "Zeros", "config": {}}, "gamma_initializer": {"class_name": "Ones", "config": {}}, "moving_mean_initializer": {"class_name": "Zeros", "config": {}}, "moving_variance_initializer": {"class_name": "Ones", "config": {}}, "beta_regularizer": null, "gamma_regularizer": null, "beta_constraint": null, "gamma_constraint": null}, "name": "batch_normalization_1819_insert", "inbound_nodes": [[["conv2d_4287_insert", 0, 0, {}]]]}, {"class_name": "Conv2D", "config": {"name": "conv2d_4289_insert", "trainable": true, "dtype": "float32", "filters": 2, "kernel_size": [1, 1], "strides": [1, 1], "padding": "same", "data_format": "channels_last", "dilation_rate": [1, 1], "groups": 1, "activation": "linear", "use_bias": false, "kernel_initializer": {"class_name": "VarianceScaling", "config": {"scale": 1.0, "mode": "fan_avg", "distribution": "uniform", "seed": null}}, "bias_initializer": {"class_name": "Zeros", "config": {}}, "kernel_regularizer": null, "bias_regularizer": null, "activity_regularizer": null, "kernel_constraint": null, "bias_constraint": null}, "name": "conv2d_4289_insert", "inbound_nodes": [[["batch_normalization_1819_insert", 0, 0, {}]]]}, {"class_name": "Conv2D", "config": {"name": "conv2d_4291_insert", "trainable": true, "dtype": "float32", "filters": 9, "kernel_size": [7, 1], "strides": [1, 1], "padding": "same", "data_format": "channels_last", "dilation_rate": [1, 1], "groups": 1, "activation": "linear", "use_bias": false, "kernel_initializer": {"class_name": "VarianceScaling", "config": {"scale": 1.0, "mode": "fan_avg", "distribution": "uniform", "seed": null}}, "bias_initializer": {"class_name": "Zeros", "config": {}}, "kernel_regularizer": null, "bias_regularizer": null, "activity_regularizer": null, "kernel_constraint": null, "bias_constraint": null}, "name": "conv2d_4291_insert", "inbound_nodes": [[["conv2d_4289_insert", 0, 0, {}]]]}, {"class_name": "Conv2D", "config": {"name": "conv2d_4293_insert", "trainable": true, "dtype": "float32", "filters": 9, "kernel_size": [3, 1], "strides": [1, 1], "padding": "same", "data_format": "channels_last", "dilation_rate": [1, 1], "groups": 1, "activation": "linear", "use_bias": false, "kernel_initializer": {"class_name": "VarianceScaling", "config": {"scale": 1.0, "mode": "fan_avg", "distribution": "uniform", "seed": null}}, "bias_initializer": {"class_name": "Zeros", "config": {}}, "kernel_regularizer": null, "bias_regularizer": null, "activity_regularizer": null, "kernel_constraint": null, "bias_constraint": null}, "name": "conv2d_4293_insert", "inbound_nodes": [[["conv2d_4291_insert", 0, 0, {}]]]}, {"class_name": "Conv2D", "config": {"name": "conv2d_4295_insert", "trainable": true, "dtype": "float32", "filters": 1, "kernel_size": [1, 1], "strides": [1, 1], "padding": "valid", "data_format": "channels_last", "dilation_rate": [1, 1], "groups": 1, "activation": "linear", "use_bias": false, "kernel_initializer": {"class_name": "VarianceScaling", "config": {"scale": 1.0, "mode": "fan_avg", "distribution": "uniform", "seed": null}}, "bias_initializer": {"class_name": "Zeros", "config": {}}, "kernel_regularizer": null, "bias_regularizer": null, "activity_regularizer": null, "kernel_constraint": null, "bias_constraint": null}, "name": "conv2d_4295_insert", "inbound_nodes": [[["conv2d_4293_insert", 0, 0, {}]]]}, {"class_name": "Conv2D", "config": {"name": "conv2d_4297_insert_1", "trainable": true, "dtype": "float32", "filters": 9, "kernel_size": [1, 7], "strides": [1, 1], "padding": "same", "data_format": "channels_last", "dilation_rate": [1, 1], "groups": 1, "activation": "linear", "use_bias": false, "kernel_initializer": {"class_name": "VarianceScaling", "config": {"scale": 1.0, "mode": "fan_avg", "distribution": "uniform", "seed": null}}, "bias_initializer": {"class_name": "Zeros", "config": {}}, "kernel_regularizer": null, "bias_regularizer": null, "activity_regularizer": null, "kernel_constraint": null, "bias_constraint": null}, "name": "conv2d_4297_insert_1", "inbound_nodes": [[["conv2d_4295_insert", 0, 0, {}]]]}, {"class_name": "Conv2D", "config": {"name": "conv2d_4299_insert", "trainable": true, "dtype": "float32", "filters": 6, "kernel_size": [3, 3], "strides": [1, 1], "padding": "same", "data_format": "channels_last", "dilation_rate": [1, 1], "groups": 1, "activation": "linear", "use_bias": false, "kernel_initializer": {"class_name": "VarianceScaling", "config": {"scale": 1.0, "mode": "fan_avg", "distribution": "uniform", "seed": null}}, "bias_initializer": {"class_name": "Zeros", "config": {}}, "kernel_regularizer": null, "bias_regularizer": null, "activity_regularizer": null, "kernel_constraint": null, "bias_constraint": null}, "name": "conv2d_4299_insert", "inbound_nodes": [[["conv2d_4297_insert_1", 0, 0, {}]]]}, {"class_name": "Conv2D", "config": {"name": "conv2d_4301_insert", "trainable": true, "dtype": "float32", "filters": 7, "kernel_size": [1, 3], "strides": [1, 1], "padding": "same", "data_format": "channels_last", "dilation_rate": [1, 1], "groups": 1, "activation": "linear", "use_bias": false, "kernel_initializer": {"class_name": "VarianceScaling", "config": {"scale": 1.0, "mode": "fan_avg", "distribution": "uniform", "seed": null}}, "bias_initializer": {"class_name": "Zeros", "config": {}}, "kernel_regularizer": null, "bias_regularizer": null, "activity_regularizer": null, "kernel_constraint": null, "bias_constraint": null}, "name": "conv2d_4301_insert", "inbound_nodes": [[["conv2d_4299_insert", 0, 0, {}]]]}, {"class_name": "Conv2D", "config": {"name": "conv2d_4303_insert", "trainable": true, "dtype": "float32", "filters": 8, "kernel_size": [1, 1], "strides": [1, 1], "padding": "same", "data_format": "channels_last", "dilation_rate": [1, 1], "groups": 1, "activation": "linear", "use_bias": true, "kernel_initializer": {"class_name": "VarianceScaling", "config": {"scale": 1.0, "mode": "fan_avg", "distribution": "uniform", "seed": null}}, "bias_initializer": {"class_name": "Zeros", "config": {}}, "kernel_regularizer": null, "bias_regularizer": null, "activity_regularizer": null, "kernel_constraint": null, "bias_constraint": null}, "name": "conv2d_4303_insert", "inbound_nodes": [[["conv2d_4301_insert", 0, 0, {}]]]}, {"class_name": "CustomPadLayer", "config": {"name": "custom_pad_layer_761", "trainable": true, "dtype": "float32", "padding": [[4, 5], [2, 3], [0, 0]], "constant_values": 2}, "name": "custom_pad_layer_761", "inbound_nodes": [[["conv2d_4303_insert", 0, 0, {}]]]}, {"class_name": "CustomCropLayer", "config": {"name": "custom_crop_layer_568", "trainable": true, "dtype": "float32", "cropping": [[0, 0], [0, 0], [1, 2]]}, "name": "custom_crop_layer_568", "inbound_nodes": [[["custom_pad_layer_761", 0, 0, {}]]]}, {"class_name": "MaxPooling2D", "config": {"name": "max_pooling2d_1465_insert", "trainable": true, "dtype": "float32", "pool_size": [3, 3], "padding": "valid", "strides": [2, 2], "data_format": "channels_last"}, "name": "max_pooling2d_1465_insert", "inbound_nodes": [[["custom_crop_layer_568", 0, 0, {}]]]}, {"class_name": "CustomPadLayer", "config": {"name": "custom_pad_layer_762", "trainable": true, "dtype": "float32", "padding": [[4, 5], [6, 7], [1, 2]], "constant_values": 2}, "name": "custom_pad_layer_762", "inbound_nodes": [[["max_pooling2d_1465_insert", 0, 0, {}]]]}, {"class_name": "BatchNormalization", "config": {"name": "batch_normalization_1821_insert", "trainable": true, "dtype": "float32", "axis": [3], "momentum": 0.99, "epsilon": 0.001, "center": true, "scale": false, "beta_initializer": {"class_name": "Zeros", "config": {}}, "gamma_initializer": {"class_name": "Ones", "config": {}}, "moving_mean_initializer": {"class_name": "Zeros", "config": {}}, "moving_variance_initializer": {"class_name": "Ones", "config": {}}, "beta_regularizer": null, "gamma_regularizer": null, "beta_constraint": null, "gamma_constraint": null}, "name": "batch_normalization_1821_insert", "inbound_nodes": [[["custom_pad_layer_762", 0, 0, {}]]]}, {"class_name": "CustomPadLayer", "config": {"name": "custom_pad_layer_763", "trainable": true, "dtype": "float32", "padding": [[2, 3], [0, 0], [3, 3]], "constant_values": 2}, "name": "custom_pad_layer_763", "inbound_nodes": [[["batch_normalization_1821_insert", 0, 0, {}]]]}, {"class_name": "CustomCropLayer", "config": {"name": "custom_crop_layer_569", "trainable": true, "dtype": "float32", "cropping": [[0, 0], [5, 5], [0, 0]]}, "name": "custom_crop_layer_569", "inbound_nodes": [[["custom_pad_layer_763", 0, 0, {}]]]}, {"class_name": "MaxPooling2D", "config": {"name": "max_pooling2d_1467_insert", "trainable": true, "dtype": "float32", "pool_size": [3, 3], "padding": "valid", "strides": [2, 2], "data_format": "channels_last"}, "name": "max_pooling2d_1467_insert", "inbound_nodes": [[["custom_crop_layer_569", 0, 0, {}]]]}, {"class_name": "CustomPadLayer", "config": {"name": "custom_pad_layer_764", "trainable": true, "dtype": "float32", "padding": [[2, 3], [4, 4], [0, 0]], "constant_values": 2}, "name": "custom_pad_layer_764", "inbound_nodes": [[["max_pooling2d_1467_insert", 0, 0, {}]]]}, {"class_name": "BatchNormalization", "config": {"name": "batch_normalization_1823_insert", "trainable": true, "dtype": "float32", "axis": [3], "momentum": 0.99, "epsilon": 0.001, "center": true, "scale": false, "beta_initializer": {"class_name": "Zeros", "config": {}}, "gamma_initializer": {"class_name": "Ones", "config": {}}, "moving_mean_initializer": {"class_name": "Zeros", "config": {}}, "moving_variance_initializer": {"class_name": "Ones", "config": {}}, "beta_regularizer": null, "gamma_regularizer": null, "beta_constraint": null, "gamma_constraint": null}, "name": "batch_normalization_1823_insert", "inbound_nodes": [[["custom_pad_layer_764", 0, 0, {}]]]}, {"class_name": "CustomPadLayer", "config": {"name": "custom_pad_layer_765", "trainable": true, "dtype": "float32", "padding": [[0, 0], [2, 2], [0, 0]], "constant_values": 2}, "name": "custom_pad_layer_765", "inbound_nodes": [[["batch_normalization_1823_insert", 0, 0, {}]]]}, {"class_name": "CustomCropLayer", "config": {"name": "custom_crop_layer_570", "trainable": true, "dtype": "float32", "cropping": [[3, 3], [0, 0], [0, 0]]}, "name": "custom_crop_layer_570", "inbound_nodes": [[["custom_pad_layer_765", 0, 0, {}]]]}, {"class_name": "BatchNormalization", "config": {"name": "batch_normalization_1825_insert_merge1", "trainable": true, "dtype": "float32", "axis": [3], "momentum": 0.99, "epsilon": 0.001, "center": true, "scale": false, "beta_initializer": {"class_name": "Zeros", "config": {}}, "gamma_initializer": {"class_name": "Ones", "config": {}}, "moving_mean_initializer": {"class_name": "Zeros", "config": {}}, "moving_variance_initializer": {"class_name": "Ones", "config": {}}, "beta_regularizer": null, "gamma_regularizer": null, "beta_constraint": null, "gamma_constraint": null}, "name": "batch_normalization_1825_insert_merge1", "inbound_nodes": [[["custom_crop_layer_570", 0, 0, {}]]]}, {"class_name": "Concatenate", "config": {"name": "concatenate_40_copy_ML", "trainable": true, "dtype": "float32", "axis": 3}, "name": "concatenate_40_copy_ML", "inbound_nodes": [[["batch_normalization_1825_insert_merge1", 0, 0, {}], ["custom_crop_layer_570", 0, 0, {}]]]}, {"class_name": "CustomPadLayer", "config": {"name": "custom_pad_layer_766", "trainable": true, "dtype": "float32", "padding": [[5, 6], [0, 0], [0, 0]], "constant_values": 2}, "name": "custom_pad_layer_766", "inbound_nodes": [[["concatenate_40_copy_ML", 0, 0, {}]]]}, {"class_name": "CustomCropLayer", "config": {"name": "custom_crop_layer_571", "trainable": true, "dtype": "float32", "cropping": [[0, 0], [0, 1], [4, 5]]}, "name": "custom_crop_layer_571", "inbound_nodes": [[["custom_pad_layer_766", 0, 0, {}]]]}, {"class_name": "MaxPooling2D", "config": {"name": "max_pooling2d_1469_insert", "trainable": true, "dtype": "float32", "pool_size": [3, 3], "padding": "valid", "strides": [2, 2], "data_format": "channels_last"}, "name": "max_pooling2d_1469_insert", "inbound_nodes": [[["custom_crop_layer_571", 0, 0, {}]]]}, {"class_name": "CustomPadLayer", "config": {"name": "custom_pad_layer_767", "trainable": true, "dtype": "float32", "padding": [[0, 0], [0, 0], [5, 5]], "constant_values": 2}, "name": "custom_pad_layer_767", "inbound_nodes": [[["max_pooling2d_1469_insert", 0, 0, {}]]]}, {"class_name": "CustomCropLayer", "config": {"name": "custom_crop_layer_572", "trainable": true, "dtype": "float32", "cropping": [[1, 2], [0, 1], [0, 0]]}, "name": "custom_crop_layer_572", "inbound_nodes": [[["custom_pad_layer_767", 0, 0, {}]]]}, {"class_name": "Conv2D", "config": {"name": "conv2d_4297_insert_2", "trainable": true, "dtype": "float32", "filters": 9, "kernel_size": [1, 7], "strides": [1, 1], "padding": "same", "data_format": "channels_last", "dilation_rate": [1, 1], "groups": 1, "activation": "linear", "use_bias": false, "kernel_initializer": {"class_name": "VarianceScaling", "config": {"scale": 1.0, "mode": "fan_avg", "distribution": "uniform", "seed": null}}, "bias_initializer": {"class_name": "Zeros", "config": {}}, "kernel_regularizer": null, "bias_regularizer": null, "activity_regularizer": null, "kernel_constraint": null, "bias_constraint": null}, "name": "conv2d_4297_insert_2", "inbound_nodes": [[["max_pooling2d_1463_insert", 0, 0, {}]]]}, {"class_name": "BatchNormalization", "config": {"name": "batch_normalization_1827_insert", "trainable": true, "dtype": "float32", "axis": [3], "momentum": 0.99, "epsilon": 0.001, "center": true, "scale": false, "beta_initializer": {"class_name": "Zeros", "config": {}}, "gamma_initializer": {"class_name": "Ones", "config": {}}, "moving_mean_initializer": {"class_name": "Zeros", "config": {}}, "moving_variance_initializer": {"class_name": "Ones", "config": {}}, "beta_regularizer": null, "gamma_regularizer": null, "beta_constraint": null, "gamma_constraint": null}, "name": "batch_normalization_1827_insert", "inbound_nodes": [[["custom_crop_layer_572", 0, 0, {}]]]}, {"class_name": "Cropping2D", "config": {"name": "cropping2d_75", "trainable": true, "dtype": "float32", "cropping": [[32, 32], [32, 32]], "data_format": "channels_last"}, "name": "cropping2d_75", "inbound_nodes": [[["conv2d_4297_insert_2", 0, 0, {}]]]}], "input_layers": [["input_802", 0, 0]], "output_layers": [["batch_normalization_1827_insert", 0, 0], ["cropping2d_75", 0, 0]]}, "keras_version": "2.7.0", "backend": "tensorflow"}